trained_pth_model/fold_1_model.pth (torch, 35587 bytes, 40 tensors)

subnets.0.attn.in_proj_weight f4 [42, 14]
0	0x3e384faf	0.17999147
1	0xbe0188a2	-0.12649778
2	0x3e8dd11d	0.27698603
3	0x3db721a7	0.089419656
4	0xbe77cce7	-0.24199258
5	0xbe1a1e3d	-0.15050597
6	0x3c739495	0.014866968
7	0x3dbfc07d	0.09362886
8	0xbe31f0de	-0.1737704
9	0x3e2cc27b	0.16871063
10	0xbe4bcdd0	-0.1990273
11	0xbea05561	-0.3131514
12	0xbe88545d	-0.26626864
13	0x3e2055db	0.15657751
14	0xbdfebe3a	-0.124386266
15	0xbe53232f	-0.2061889
16	0x3e188b45	0.14896877
17	0xbe8141c9	-0.25245503
18	0xbe89e9de	-0.2693624
19	0xbe967c8a	-0.2939189
20	0x3dc763d6	0.09735839
21	0xbe91feb3	-0.28514633
22	0x3e29a26c	0.16565865
23	0x3e87eec3	0.26549348
24	0x3df3a958	0.11897534
25	0xbe8e417e	-0.27784342
26	0xbe9a1f95	-0.3010222
27	0xbd9352dd	-0.07193539
28	0x3d210904	0.03931524
29	0x3da8470e	0.082166776
30	0xbea6d75b	-0.32586178
31	0xbe0a2ae8	-0.1349293
32	0xbde8335f	-0.11337923
33	0x3d3b8357	0.045779552
34	0x3ea41646	0.32048243
35	0x3e047246	0.12934217
36	0x3e2329d4	0.15933925
37	0xbd6d521c	-0.057939634
38	0xbd276ea1	-0.04087699
39	0x3e682601	0.22670747
40	0xbdd06d1e	-0.101770625
41	0x3e6711e7	0.22565423
42	0x3d70b055	0.058761913
43	0x3e44b890	0.1921103
44	0x3e104ce1	0.14091827
45	0x3e9fea72	0.31233555
46	0x3e929fc1	0.28637508
47	0x3e38e2fd	0.18055339
48	0x3e8f74c7	0.28018782
49	0xbe3e6d47	-0.18596373
50	0x3e967914	0.2938925
51	0x3cd23545	0.025660167
52	0xbe12a26a	-0.14319769
53	0xbe8149db	-0.2525166
54	0xbe098b88	-0.13432133
55	0xbc69e9d3	-0.014276939
56	0xbe89afa9	-0.2689183
57	0xbe662de3	-0.22478442
58	0xbe26586a	-0.16244665
59	0x3e1401dc	0.14453834
60	0x3dec9cb1	0.11553324
61	0xbb071b51	-0.0020615647
62	0x3e79c72d	0.24392386
63	0xbe8af7f8	-0.2714231
64	0xbe8633ea	-0.26211482
65	0xbd782e19	-0.060590837
66	0x3e87f474	0.2655369
67	0xbe72a88f	-0.23697113
68	0xbe35715b	-0.17719023
69	0xbe7b89ff	-0.2456436
70	0x3e6b4371	0.22974946
71	0x3d5aecbd	0.053448427
72	0x3e316e70	0.17327285
73	0x3e446a28	0.1918112
74	0xbe657713	-0.22408704
75	0x3c825e92	0.015914235
76	0x3e8e0f24	0.27745926
77	0xbe864876	-0.26227158
78	0x3ce88922	0.028385703
79	0x3e332725	0.17495401
80	0xbe84a043	-0.2590352
81	0x3d4155a9	0.047200833
82	0xbd9bbeb3	-0.07604732
83	0xbdc5509b	-0.09634515
84	0xbea5fe16	-0.32420415
85	0xbcf1b94d	-0.029507304
86	0xbe003397	-0.1251968
87	0xbdeee6e4	-0.11665133
88	0x3e81b6ee	0.25334877
89	0xbe601ead	-0.21886702
90	0x3e70551c	0.23469967
91	0xbea147ed	-0.31500188
92	0x3c6bc378	0.014389865
93	0x3d967cbb	0.07348009
94	0xb8980b17	-7.2499904e-05
95	0x3e319d81	0.17345239
96	0xbd9eaf0f	-0.077482335
97	0xbe2937e8	-0.16525233
98	0xbe2972d3	-0.16547708
99	0x3e2a4419	0.1662754
100	0x3e37d71a	0.17953148
101	0xbea2b8ef	-0.31781718
102	0x3dfd6ad4	0.123738915
103	0xb9214a51	-0.00015381842
104	0x3e5a748f	0.21333526
105	0xbe1e6c76	-0.15471062
106	0xbe313e16	-0.1730884
107	0xbe080679	-0.13283719
108	0xbe86eae6	-0.26351088
109	0x3bc4b0b0	0.006002508
110	0x3e936bb4	0.28793108
111	0x3e88ed77	0.2674367
112	0xbe85a047	-0.26098844
113	0x3ea56e18	0.32310557
114	0xbd258590	-0.04041058
115	0x3e21766a	0.15767828
116	0x3e830f10	0.2559743
117	0xbcaec7dc	-0.021335535
118	0x3de1a876	0.110184595
119	0x3e8ca919	0.2747276
120	0x3dd3aeb2	0.10336055
121	0x3d81b39b	0.06333085
122	0xbea5a55a	-0.32352716
123	0x3e8444b7	0.25833675
124	0x3e015082	0.12628368
125	0x3ea09b60	0.31368542
126	0xbea6e7c4	-0.32598698
127	0xbe559485	-0.20857437
128	0xbe8b0540	-0.27152443
129	0x3e1c32aa	0.15253702
130	0xbe4c60d7	-0.19958816
131	0xbcc72528	-0.02430971
132	0xbe0aceeb	-0.13555495
133	0x3e82f187	0.25574896
134	0xbe1336e6	-0.14376411
135	0x3dd3e65d	0.10346673
136	0xbe471604	-0.19441992
137	0xbd16a509	-0.036778484
138	0xbdbd0c9f	-0.09230923
139	0x3e9fb69c	0.31194007
140	0xbd5a0460	-0.05322683
141	0xbe4bf1d9	-0.19916476
142	0xbd749f6f	-0.05972236
143	0x3e4df3d0	0.20112538
144	0xbcdaf5e7	-0.026728583
145	0xbdaaeb6a	-0.08345683
146	0xbd5e6544	-0.054295793
147	0xbe9aec05	-0.30258194
148	0x3ea0a719	0.31377485
149	0x3e80ae7b	0.25133118
150	0xbde50832	-0.11183204
151	0xbe33a321	-0.17542697
152	0xbe2df89a	-0.16989365
153	0xbe2e119a	-0.16998902
154	0x3e5f0630	0.21779704
155	0xbdb382f8	-0.08765215
156	0xbd0c462b	-0.034246605
157	0x3db448e1	0.08802963
158	0x3e872831	0.2639785
159	0xbe557dab	-0.2084872
160	0xbe923e3e	-0.28563112
161	0x3e7edb3c	0.24888319
162	0xbe1da1f5	-0.15393813
163	0xbe444b90	-0.1916945
164	0x3c90cc9e	0.017675694
165	0xbda1ff73	-0.07910051
166	0x3decb3c9	0.11557729
167	0x3e172524	0.14760262
168	0xbaf8f527	-0.001899396
169	0xbcfc1911	-0.030773671
170	0x3e890044	0.26758015
171	0xbe35b750	-0.1774571
172	0xbe2aa924	-0.16666085
173	0x3e027962	0.12741616
174	0x3e2c9aab	0.16855876
175	0x3dd64343	0.10462048
176	0xbe8da5b0	-0.27665472
177	0xbe46efc8	-0.19427407
178	0xbe8e1998	-0.277539
179	0x3e8c5cb5	0.2741448
180	0xbe6bc996	-0.23026118
181	0x3d0a87dc	0.03382097
182	0xbe094368	-0.1340462
183	0xbc688c14	-0.0141935535
184	0xbdd523bf	-0.10407209
185	0xbd01f301	-0.031725887
186	0xbdeb42af	-0.11487328
187	0xbe1cdf47	-0.15319549
188	0xbe8992e6	-0.26869887
189	0x3e53d045	0.20684917
190	0x3e015b6e	0.12632534
191	0xbe83e3e1	-0.25759795
192	0x3db7f87b	0.08982941
193	0xbe996594	-0.2996031
194	0x3e027042	0.12738135
195	0xbe98bfe3	-0.29833898
196	0x3e75d8ec	0.2400853
197	0x3e250e97	0.16118847
198	0x3dfdec44	0.1239858
199	0x3e7f91d0	0.24957967
200	0x3df5d1df	0.1200292
201	0x3e98a488	0.29813027
202	0x3e8412de	0.25795645
203	0x3b7e5d17	0.003881281
204	0x3e2d619a	0.16931763
205	0xbe148675	-0.14504416
206	0xbdc9545f	-0.09830546
207	0x3d581632	0.052755542
208	0x3e85ed42	0.26157576
209	0x3e94d016	0.29065007
210	0xbe019905	-0.12656029
211	0x3c6a607b	0.014305229
212	0x3e7819d3	0.24228601
213	0xbe15fb12	-0.14646557
214	0x3e9b7bee	0.30367988
215	0x3e8c0d5c	0.27353942
216	0xbe1b0239	-0.15137567
217	0xbb8e2004	-0.0043373127
218	0x3c459678	0.0120598
219	0xbdec80a4	-0.11547974
220	0xbcff508a	-0.031166334
221	0xbce009b8	-0.027348384
222	0xbe2b45ee	-0.16725895
223	0x3c82f1c9	0.015984433
224	0xbe9dd093	-0.30823192
225	0x3e6972f2	0.22797754
226	0x3e49f4ff	0.19722365
227	0x3d25940c	0.04042439
228	0xbe236428	-0.15956175
229	0xbd2742b0	-0.040835083
230	0x3e8a8613	0.27055416
231	0xbdc95a05	-0.09831623
232	0xbe3eff31	-0.18652035
233	0xbe0ce4ec	-0.13759202
234	0xbdf9f794	-0.12205425
235	0x3d1ac677	0.037786927
236	0x3db7c9e6	0.08974056
237	0x3cbddb20	0.023175776
238	0x3da83973	0.082140826
239	0x3da0f94e	0.07860051
240	0xbdc2c721	-0.09510637
241	0xbe86e490	-0.26346254
242	0x3bf23f04	0.007392766
243	0xbe1ba69c	-0.15200275
244	0xbe2158f7	-0.15756594
245	0x3e46557c	0.19368547
246	0xbe9fc78a	-0.31206924
247	0xbe8fc5f2	-0.28080708
248	0xbc228922	-0.00992039
249	0x3c95753c	0.018244378
250	0x3e4cd022	0.20001271
251	0x3e37b849	0.17941393
252	0x3d537cec	0.051632807
253	0x3e75a2d4	0.23987895
254	0x3c5067fc	0.012720104
255	0xbdbb29b1	-0.091388114

subnets.0.attn.in_proj_bias f4 [42]
0	0x00000000	0.0
1	0x00000000	0.0
2	0x00000000	0.0
3	0x00000000	0.0
4	0x00000000	0.0
5	0x00000000	0.0
6	0x00000000	0.0
7	0x00000000	0.0
8	0x00000000	0.0
9	0x00000000	0.0
10	0x00000000	0.0
11	0x00000000	0.0
12	0x00000000	0.0
13	0x00000000	0.0
14	0x00000000	0.0
15	0x00000000	0.0
16	0x00000000	0.0
17	0x00000000	0.0
18	0x00000000	0.0
19	0x00000000	0.0
20	0x00000000	0.0
21	0x00000000	0.0
22	0x00000000	0.0
23	0x00000000	0.0
24	0x00000000	0.0
25	0x00000000	0.0
26	0x00000000	0.0
27	0x00000000	0.0
28	0x3e84720b	0.25868258
29	0x3e15fa90	0.14646363
30	0xbe5af85e	-0.21383807
31	0x3de863dc	0.11347172
32	0x3d2231c4	0.03959824
33	0xbd471e32	-0.04861278
34	0xbdb6b915	-0.0892202
35	0x3e8a7d1a	0.2704857
36	0x3e2a75f6	0.16646561
37	0x3d8bc450	0.06824553
38	0x3d693bcc	0.056941792
39	0xbdb3f837	-0.087875776
40	0xbe125cb7	-0.1429318
41	0xbe4c4c9b	-0.19951098

subnets.0.attn.out_proj.weight f4 [14, 14]
0	0x3e733d76	0.23753914
1	0x3f0aff9c	0.5429628
2	0xbf025a59	-0.5091911
3	0x3f39b428	0.7254052
4	0x3eb5ccc4	0.35507786
5	0x3d0a95fb	0.03383444
6	0xbd05cd03	-0.032666218
7	0x3e0df197	0.1386169
8	0xbe32f511	-0.17476298
9	0x3f111b4c	0.56682277
10	0xbea65d15	-0.3249289
11	0xbdbc73b8	-0.09201759
12	0xbe32d98d	-0.17465802
13	0x3e9f7211	0.31141713
14	0x3d40abe3	0.047038924
15	0x3f15a8d5	0.5846074
16	0xbe66ff96	-0.22558436
17	0xbe8c5795	-0.2741057
18	0x3edcddba	0.43137914
19	0xbe3a124c	-0.18171042
20	0xbd5311d0	-0.05153066
21	0xbd9a9b26	-0.075491235
22	0x3e64a874	0.22329885
23	0x3eb2a178	0.34888816
24	0x3e145b45	0.14487942
25	0xbf10d125	-0.5656913
26	0x3dc3d696	0.095624134
27	0xbdadb4e2	-0.08481766
28	0xbea6a10f	-0.32544753
29	0xbebc3ad9	-0.36763647
30	0x3eaaee77	0.3338506
31	0x3dc01070	0.09378135
32	0xbe47e064	-0.19519192
33	0xbccd9808	-0.025096908
34	0x3cbae4e8	0.02281423
35	0xbd34f9e6	-0.044183634
36	0x3e4dd4ea	0.20100752
37	0x3d045cc1	0.03231502
38	0xbe2cca47	-0.16874038
39	0x3d94ff24	0.07275227
40	0x3d895635	0.06705896
41	0x3e12c228	0.14331877
42	0xbd5bf628	-0.05370155
43	0x3f95525f	1.1665763
44	0xbedeb00f	-0.43493697
45	0x3d077c74	0.033077672
46	0x3e972b32	0.29525143
47	0x3d5aaff0	0.053390443
48	0xbdf11160	-0.11770892
49	0x3e9bed77	0.3045461
50	0x3e5b8a74	0.21439534
51	0x3d029757	0.03188261
52	0xbedca777	-0.43096516
53	0x3c8a3338	0.016870126
54	0xbe204094	-0.15649635
55	0xbd84db07	-0.06487089
56	0xbee8bb00	-0.4545517
57	0xbc990153	-0.01867739
58	0xbd3e0a35	-0.046396453
59	0xbec2591d	-0.37958613
60	0x3e35233b	0.1768922
61	0x3d0c1a90	0.03420502
62	0x3d6ccf6e	0.057815008
63	0xbe39a6e2	-0.18130067
64	0xbc81aad6	-0.015828531
65	0x3eaa4be8	0.33261037
66	0xbecdc225	-0.40187183
67	0xbe7c9337	-0.24665533
68	0x3d29dac4	0.041468397
69	0x3e8b43ba	0.2720011
70	0xbe546c0a	-0.20744339
71	0xbe424ca6	-0.18974552
72	0x3f233e19	0.6376663
73	0xbf44bda0	-0.76851845
74	0x3dbbe45b	0.09174415
75	0x3d8f8c02	0.07009126
76	0x3d02b779	0.031913254
77	0xbe5c345a	-0.21504346
78	0xbe22f963	-0.15915446
79	0xbe9025da	-0.28153878
80	0x3e382b39	0.17985238
81	0xbdd3becf	-0.10339128
82	0xbd956dcd	-0.072963335
83	0x3e8f3091	0.2796674
84	0xbed05651	-0.40690854
85	0xbe836739	-0.2566469
86	0x3dfe279f	0.12409901
87	0x3cb523c5	0.022111783
88	0x3d20197e	0.03908681
89	0xbd7153d1	-0.058917824
90	0xbce518dd	-0.027965957
91	0xbcdb2185	-0.026749382
92	0x3cce94f3	0.025217509
93	0x3ec3ed9e	0.38267225
94	0xbf0833d1	-0.53204066
95	0x3dd288ac	0.10279974
96	0xbd0faada	-0.035075046
97	0x3e1352f6	0.14387116
98	0x3e27e06e	0.16394207
99	0xbeebcd93	-0.46055278
100	0xbea99c74	-0.33127177
101	0xbefa95f1	-0.4894252
102	0xbd7d8bdb	-0.061900955
103	0xbce2e6e9	-0.027697997
104	0xbd1f6868	-0.03891793
105	0x3ef0d23f	0.47035405
106	0x3cf4647a	0.029833067
107	0xbd9bb9af	-0.07603776
108	0x3f144301	0.5791474
109	0xbe19cf46	-0.15020475
110	0xbe0c1f48	-0.13683808
111	0xbef8d2eb	-0.48598418
112	0xbec5159f	-0.38493058
113	0xbf14ada7	-0.5807747
114	0x3eba8294	0.36427748
115	0xbd9aa27e	-0.07550524
116	0x3d640573	0.05566926
117	0x3cf36640	0.029711843
118	0xbda9a63c	-0.0828366
119	0xbe11424d	-0.14185448
120	0x3d890e38	0.06692165
121	0x3ed101b7	0.4082162
122	0x3e04ce6c	0.12969369
123	0xbd14f79d	-0.036368955
124	0xbdeefe58	-0.11669606
125	0x3e86a344	0.26296437
126	0x3d61017e	0.054933064
127	0xbdac3836	-0.08409159
128	0x3eb05319	0.34438398
129	0x3eb35611	0.350266
130	0x3e06e689	0.1317388
131	0xbd1bf79a	-0.038077928
132	0xbda4416c	-0.08020291
133	0xbeed984c	-0.46405256
134	0x3d257bdf	0.040401336
135	0xbe242088	-0.16028035
136	0xbee0acda	-0.43881875
137	0x3f170bdb	0.59002465
138	0xbce7125e	-0.028207
139	0x3ed2bed6	0.4116122
140	0xbdce0b04	-0.10060695
141	0x3ea9a567	0.33134004
142	0x3df60834	0.12013283
143	0x3e2563c1	0.16151334
144	0x3d728bab	0.05921523
145	0xbd87648c	-0.06610975
146	0x3c7c912e	0.015415473
147	0x3cdd79c8	0.027035609
148	0xbec35b0e	-0.38155407
149	0xbdbba335	-0.09161989
150	0xbb08d885	-0.0020881009
151	0xbd42af6b	-0.047530573
152	0xbd7a0685	-0.061041374
153	0xbe5d1325	-0.21589334
154	0x3e76c4c5	0.24098499
155	0x3d937382	0.07199766
156	0xbc9df670	-0.01928255
157	0xbd6352c8	-0.05549887
158	0xbcb27613	-0.021784818
159	0xbe1b95b3	-0.15193824
160	0x3dd7ce12	0.10537352
161	0xbcb1862e	-0.021670427
162	0x3e96287f	0.2932777
163	0x3e988eb3	0.2979637
164	0x3e6f308a	0.2335836
165	0xbd33e478	-0.043919057
166	0x3e29c9b0	0.16580844
167	0xbdf069e5	-0.11738948
168	0xbde363ef	-0.11103045
169	0xbcdb4711	-0.026767286
170	0xbdf43d51	-0.11925758
171	0x3e15cee9	0.14629711
172	0x3e0b7f92	0.13622883
173	0x3d936ed6	0.07198875
174	0x3da0250a	0.07819565
175	0x3c94aeab	0.018149694
176	0xbe80720f	-0.2508702
177	0x3df435e7	0.119243436
178	0xbe882d8f	-0.26597258
179	0xbe61fc81	-0.22068979
180	0x3e4f0be9	0.20219387
181	0xbd1a28c2	-0.037636526
182	0x3f0a70a9	0.54078156
183	0x3dfacacb	0.12245711
184	0x3eb607f0	0.3555293
185	0xbe3b900d	-0.1831667
186	0xbcdbf1f8	-0.026848778
187	0xbd0736e2	-0.033011325
188	0xbda5724d	-0.08078442
189	0x3e3ee559	0.18642177
190	0x3d0e115d	0.034684528
191	0xbf0c7344	-0.5486338
192	0x3f11c9ba	0.56948435
193	0x3e1b84af	0.15187334
194	0x3cbd8ee2	0.02313942
195	0xbed9d37c	-0.42544162

subnets.0.attn.out_proj.bias f4 [14]
0	0x3dc0210f	0.093813054
1	0xbd85bbf4	-0.0652999
2	0xbd5e8eab	-0.054335278
3	0x3d9d951a	0.076944545
4	0xbd37e022	-0.044891484
5	0xbc212129	-0.009834566
6	0xbd27d8d4	-0.040978268
7	0xbdcb182f	-0.09916722
8	0xbda22bf9	-0.07918543
9	0x3df2329b	0.118260585
10	0x3ca86b43	0.020558959
11	0x3ce2a271	0.027665349
12	0xbcdbec65	-0.02684612
13	0x3e2d7f3c	0.16943067

subnets.0.hidden_layers.0.weight f4 [16, 14]
0	0xbf09dde7	-0.5385422
1	0x3f05112f	0.51979345
2	0xbd0327a9	-0.032020245
3	0xbeded6c6	-0.43523234
4	0x3e7f61ed	0.249397
5	0x3e8633d0	0.26211405
6	0xbdd938df	-0.106065504
7	0x3f2d617a	0.6772686
8	0x3ec6fafc	0.3886336
9	0xbf22c690	-0.6358423
10	0x3da9a9fd	0.08284376
11	0x3d363592	0.044484682
12	0xbbfc6896	-0.0077028973
13	0x3d1362a0	0.035982728
14	0x3e565455	0.20930608
15	0x3e722683	0.23647504
16	0xbf134934	-0.57533574
17	0x3e678f18	0.2261318
18	0x3ddad132	0.10684432
19	0xbd7eecca	-0.06223754
20	0xbeaefcfa	-0.3417738
21	0x3d45ce21	0.048292283
22	0xbdda2360	-0.106512785
23	0xbe95bddb	-0.2924641
24	0x3c3fa3c7	0.011696762
25	0x3df975c4	0.12180665
26	0x3e3dc7f5	0.18533309
27	0x3eeb028d	0.45900384
28	0xbddc306c	-0.10751423
29	0x3e731e24	0.23741966
30	0xbb499209	-0.003075721
31	0xbdaaf481	-0.08347417
32	0xbe298887	-0.16555987
33	0xbd93d8f0	-0.07219112
34	0xbde6bf3b	-0.11266943
35	0xbe4a0a93	-0.19730596
36	0x3c113020	0.008861572
37	0x3e326de4	0.17424732
38	0x3eff1627	0.49821588
39	0xbe465072	-0.19366625
40	0x3d80c16e	0.06286894
41	0x3e877b58	0.2646129
42	0x3e4542d1	0.1926377
43	0x3e47a033	0.19494705
44	0xbdc069b3	-0.093951605
45	0xbeb03b60	-0.344203
46	0xbf11604a	-0.5678755
47	0xbea1d76f	-0.31609675
48	0x3c5bb6bc	0.0134102665
49	0xbe6b1595	-0.22957452
50	0xbd339783	-0.043845665
51	0x3bc097b9	0.0058774618
52	0x3e75a33f	0.23988055
53	0x3d262b3d	0.04056858
54	0x3e46e6ae	0.19423935
55	0x3c091300	0.008366346
56	0xbe538b3e	-0.20658585
57	0xbbaa16ad	-0.0051906914
58	0x3db8d48b	0.09024914
59	0x3e880c9d	0.26572123
60	0x3e20019d	0.15625615
61	0xbd8de7dc	-0.06928989
62	0x3dae401c	0.08508322
63	0x3d8eab47	0.06966262
64	0x3d890a13	0.06691375
65	0x3e154b4e	0.14579508
66	0x3da20f44	0.07913068
67	0x3df94514	0.12171379
68	0x3df85815	0.12126175
69	0xbd9eca1e	-0.077533945
70	0xbeba0224	-0.36329758
71	0xbf2fb5fe	-0.68637073
72	0xbd3924ab	-0.045200985
73	0xbf24fd41	-0.64448935
74	0xbf0eef1f	-0.5583362
75	0xbd9afeec	-0.07568154
76	0xbed75dff	-0.420639
77	0x3eb44b56	0.35213727
78	0xbe027f4b	-0.12743871
79	0x3de3e0d1	0.11126865
80	0xbc50fe9d	-0.012756017
81	0x3dc849c6	0.09779696
82	0xbee09332	-0.438623
83	0x3f3fdf0d	0.74949723
84	0x3e5d8f94	0.21636802
85	0x3f23f672	0.6404792
86	0xbe96f934	-0.29487002
87	0xbdb0de59	-0.086361594
88	0x3d99ef29	0.07516319
89	0xbef1f4e8	-0.4725716
90	0xbf1af2ec	-0.6052692
91	0x3e68f028	0.22747862
92	0xbebe8889	-0.37213543
93	0xbf010916	-0.5040449
94	0xbd6c4e9b	-0.05769215
95	0xbe08657d	-0.13319965
96	0x3eaf3608	0.3422091
97	0xbe6cbbe0	-0.23118544
98	0xbe3b1386	-0.18269166
99	0xbdfb1b9a	-0.12261124
100	0xbe88b433	-0.2669998
101	0x3d7c7856	0.0616382
102	0x3d08b147	0.03337219
103	0xbe93ba4f	-0.2885308
104	0xbdeab932	-0.114611045
105	0x3c5858eb	0.013204793
106	0xbbcd40e9	-0.0062638414
107	0x3e710a07	0.23538981
108	0x3d918a19	0.07106418
109	0xbe4cc0eb	-0.19995467
110	0xbe0c2c73	-0.13688831
111	0x3e104171	0.14087464
112	0x3dfbd76a	0.12296946
113	0x3c722ee1	0.014781685
114	0xbe5a5e91	-0.21325137
115	0x3d705bfe	0.05868148
116	0x3e858271	0.2607608
117	0x3eb154c0	0.34634972
118	0x3e3e5a6c	0.1858918
119	0xbe847890	-0.25873232
120	0xbcbaf147	-0.022820128
121	0x3e0c4c1c	0.13700908
122	0xbd85a296	-0.065251514
123	0xbcb34700	-0.021884441
124	0xbe21f93d	-0.15817733
125	0x3de88b9e	0.11354755
126	0x3f530218	0.8242507
127	0x3c160d67	0.009158469
128	0x3df16051	0.11785949
129	0x3ebad5cc	0.3649124
130	0x3e69e3a4	0.22840744
131	0xbf1ef62b	-0.6209437
132	0x3e7ae646	0.24501905
133	0xbeeb78c0	-0.45990562
134	0xbeabc3e4	-0.3354789
135	0x3cdd95c9	0.027048962
136	0x3d61123e	0.054949038
137	0xbe2b3a03	-0.16721348
138	0x3e054399	0.13014068
139	0xbe9ba6bd	-0.3040065
140	0x3e7c98dc	0.24667686
141	0xbe9aa6ad	-0.3020529
142	0xbe2db720	-0.16964388
143	0xbdf41eae	-0.11919914
144	0x3c967a28	0.018368796
145	0x3cc09a5a	0.0235111
146	0x3b70f6d1	0.0036768208
147	0xbe98d53b	-0.29850182
148	0xbd06fa41	-0.032953504
149	0x3eb2701a	0.34851152
150	0xbb812f2a	-0.00394239
151	0x3dd24845	0.102676906
152	0xbe667eb9	-0.22509278
153	0x3b1382a5	0.002250829
154	0xbe995473	-0.29947242
155	0xbebb0ddc	-0.3653401
156	0x3df84b60	0.12123752
157	0xbebdc893	-0.37067088
158	0xbe86d75a	-0.26336175
159	0x3e0acb60	0.13554144
160	0xbe41c140	-0.18921375
161	0xbe380ccf	-0.17973636
162	0x3e20d5c1	0.1570654
163	0x3e969007	0.2940676
164	0x3ca81c38	0.020521268
165	0x3cb2b9a1	0.02181703
166	0xbe5bfb29	-0.21482529
167	0x3eb1c58c	0.3472103
168	0x3bdf7d40	0.006820351
169	0x3c698f1a	0.0142553095
170	0x3e9fa5db	0.31181225
171	0xbda38afb	-0.07985493
172	0x3f01573b	0.5052373
173	0xbaea58ae	-0.0017879212
174	0x3f0aa27f	0.541542
175	0xbea68701	-0.32524875
176	0x3ebfa497	0.3743026
177	0x3e35f124	0.17767769
178	0xbad06254	-0.0015898445
179	0xbea913db	-0.3302296
180	0x3ebd43fd	0.36965933
181	0xbf17b390	-0.59258366
182	0xbe46f859	-0.19430675
183	0xbc00c343	-0.007859054
184	0x3e48dc2a	0.19615236
185	0xbbe8596c	-0.007090738
186	0x3d547363	0.051867854
187	0xbc10b5f0	-0.00883244
188	0xbe37f206	-0.17963418
189	0x3c73bced	0.014876586
190	0xbe158192	-0.14600208
191	0x3d4fcfee	0.050735407
192	0x3d93b1a0	0.07211614
193	0x3ddc2378	0.107489526
194	0x3d5a1199	0.05323944
195	0xbd825608	-0.063640654
196	0x3f19d4c7	0.600903
197	0x3e3b26ad	0.18276472
198	0xbd4a9272	-0.049456067
199	0x3e473141	0.19452383
200	0x3d1b46cf	0.037909325
201	0xbf19b602	-0.60043347
202	0x3cb10d27	0.021612717
203	0xbe3b88a7	-0.18313847
204	0x3ec6f0c8	0.38855577
205	0x3e799d0c	0.24376315
206	0xbdf86bc6	-0.12129931
207	0x3e309be4	0.17246968
208	0xbd3b4862	-0.045723327
209	0xbeb5955e	-0.3546552
210	0x3d9c6272	0.076359645
211	0x3cf1dda5	0.029524634
212	0x3e596d97	0.21233211
213	0xbe1241c3	-0.14282899
214	0xbe51af2a	-0.20476976
215	0xbd046249	-0.032320295
216	0x3d3ed42f	0.046589073
217	0xbe9a5c23	-0.3014842
218	0x3dd37e58	0.103268325
219	0x3e8f93fa	0.28042585
220	0xbc959041	-0.018257262
221	0xbd618f4a	-0.05506829
222	0xbc8e1153	-0.017342245
223	0x3de5c3a9	0.1121896

subnets.0.hidden_layers.0.bias f4 [16]
0	0xbf0bc933	-0.5460388
1	0xbe8836b0	-0.26604223
2	0xbe845b18	-0.2585075
3	0xbea8ce21	-0.32969764
4	0x3c5c1cf7	0.01343464
5	0x3d4b0ace	0.04957085
6	0xbe12531f	-0.1428952
7	0xbe728160	-0.23682165
8	0x3ed5bf9e	0.41747755
9	0x3d8d57a1	0.069014795
10	0x3da8b8fd	0.08238409
11	0x3eca581d	0.3952035
12	0xbf289566	-0.65852964
13	0x3dfad993	0.1224853
14	0xbe04ceea	-0.12969556
15	0x3dc91f34	0.09820405

subnets.0.hidden_layers.2.weight f4 [16, 16]
0	0xbe29d547	-0.16585265
1	0xbf21d5de	-0.6321696
2	0xbe38239d	-0.17982335
3	0x3e358a2e	0.17728493
4	0x3dfa387e	0.12217806
5	0x3ea6cc1b	0.32577595
6	0xbe3594a2	-0.1773248
7	0xbc5ef875	-0.013609041
8	0xbbbe9128	-0.005815644
9	0xbdfa2237	-0.12213557
10	0xbca41815	-0.020031014
11	0x3e93aacf	0.28841254
12	0x3f4e39c3	0.8055689
13	0xbe19e362	-0.15028146
14	0x3dbf30c0	0.0933547
15	0xbe23426a	-0.15943304
16	0xbf3b2efc	-0.7311857
17	0xbeaed5f6	-0.34147614
18	0xbe57a530	-0.21059108
19	0x3e7accc8	0.2449218
20	0xbe938b2a	-0.2881711
21	0x3e5dbb3f	0.2165346
22	0xbdc90026	-0.098144814
23	0x3d9588cc	0.073014826
24	0x3d9770e0	0.07394576
25	0xbda093d8	-0.07840699
26	0x3e50de18	0.20397222
27	0x3e070b40	0.13187885
28	0x3ebe7f58	0.3720653
29	0x3dce5d06	0.100763366
30	0xbdd67353	-0.10471215
31	0xbe2767ab	-0.1634814
32	0xbe913a49	-0.2836478
33	0xbf24a48d	-0.64313585
34	0xbcfcce45	-0.030860076
35	0x3cd23e57	0.025664492
36	0xbf2d3504	-0.6765902
37	0xbe7a61d2	-0.24451378
38	0xbf1e2ae8	-0.6178422
39	0x3e09a4d0	0.13441777
40	0x3d86c050	0.065796494
41	0x3eb26033	0.3483902
42	0x3e8f980b	0.28045687
43	0xc0075f9c	-2.1152105
44	0xbf50cce5	-0.81562644
45	0x3dbd245c	0.092354506
46	0x3e5e90bc	0.217349
47	0x3e902c5f	0.28158852
48	0xbea77fa2	-0.32714564
49	0xbf0b798c	-0.5448234
50	0x3e016ab1	0.12638356
51	0xbe9cef42	-0.3065129
52	0xbe3eae2d	-0.1862113
53	0x3ee762a0	0.45192432
54	0xbd8fa4bc	-0.070138425
55	0x3e14e2df	0.1453967
56	0xbe4268e1	-0.1898532
57	0xbfbdfeca	-1.484338
58	0x3d3ff879	0.04686782
59	0x3f0bc2a8	0.54593897
60	0x3f110e03	0.56662005
61	0x3d0f37de	0.03496539
62	0xbfc09a88	-1.5047159
63	0x3e9fbc6b	0.3119844
64	0x3dc3d3de	0.09561895
65	0xbeecc744	-0.46245778
66	0xbd6a822f	-0.05725306
67	0xbddcc9be	-0.10780667
68	0xbdceee4f	-0.101040475
69	0xbca1aec0	-0.019736648
70	0xbf08e497	-0.534738
71	0xbe99d8f1	-0.30048326
72	0xbd1db2de	-0.03850066
73	0xbd617cc0	-0.05505061
74	0xbd012c10	-0.031536162
75	0xbe41f439	-0.1894082
76	0xbf1316e5	-0.5745681
77	0x3d63ef9a	0.055648424
78	0x3de8504e	0.11343442
79	0xbe3fce7c	-0.18731111
80	0xbee4adc6	-0.4466383
81	0xbe70bb73	-0.23509006
82	0xbe696f5a	-0.22796384
83	0xbea19e94	-0.31566298
84	0x3dff76b1	0.124738105
85	0xbeafc985	-0.34333435
86	0xbe65f463	-0.22456507
87	0x3ddfec27	0.10933714
88	0x3eb9a78a	0.36260635
89	0xbecc0b13	-0.398522
90	0xbf4c8c68	-0.7990174
91	0x3e2be2b5	0.167857
92	0x3f50178f	0.8128595
93	0x3e4f1611	0.20223261
94	0xbea4fa0e	-0.32222027
95	0xbf709cb9	-0.9398914
96	0xbfa1dbaa	-1.2645161
97	0xbf26126d	-0.64871866
98	0x3e29eeac	0.16594952
99	0xbdbac8eb	-0.09120353
100	0x3e84375f	0.25823495
101	0xbda31cfa	-0.07964511
102	0xbe3a17c3	-0.18173127
103	0x3d4ebcc3	0.050472986
104	0x3f0285c9	0.5098539
105	0xbffadcbb	-1.9598612
106	0xbef92db1	-0.48667672
107	0x3ea1b85c	0.31585968
108	0xbc954b7f	-0.018224476
109	0x3e1a80a9	0.15088142
110	0xbf9db540	-1.2320938
111	0xbebb7fc8	-0.36620927
112	0xbf0dfcc4	-0.55463815
113	0x3ea2ec58	0.3182094
114	0xbdadd393	-0.0848762
115	0x3ebf2318	0.37331462
116	0x3b57678f	0.0032868122
117	0x3e31cf2e	0.17364189
118	0x3f763308	0.9617162
119	0x3e684341	0.22681905
120	0x3e3e79d8	0.18601167
121	0x3d8614f2	0.06546964
122	0xbf2986a7	-0.6622109
123	0xbd81a1f8	-0.06329721
124	0x3da8cb74	0.082419306
125	0xbdaeacce	-0.08529054
126	0xbe119551	-0.14217116
127	0xbf00b6ad	-0.5027874
128	0xbea8ef5c	-0.32995117
129	0xbf01d1d2	-0.50710785
130	0x3dbae12f	0.091249816
131	0xbda30720	-0.07960343
132	0xbddf2869	-0.108963795
133	0x3f09655f	0.53670305
134	0xbe74b186	-0.23895845
135	0xbde9cbf4	-0.11415854
136	0xbd5db9f3	-0.054132413
137	0x3e0b4093	0.13598852
138	0xbe8fe08c	-0.28101003
139	0x3c7c0b96	0.015383622
140	0x3db71761	0.08940006
141	0x3d54fc90	0.051998675
142	0xbe1e7c61	-0.15477134
143	0x3d801e39	0.062557645
144	0xbf097b61	-0.53703886
145	0xbde490a1	-0.11160398
146	0xbcbc11f7	-0.022957785
147	0xbe0493f3	-0.12947063
148	0x3d3c1b0d	0.045924235
149	0xbf7b5257	-0.98172516
150	0x3e0560e7	0.13025247
151	0xbe303830	-0.17208934
152	0x3d9044d1	0.07044376
153	0x3e773425	0.24140985
154	0x3e41e897	0.18936382
155	0xbc881a55	-0.016614119
156	0x3f5acbac	0.8546703
157	0xbc18dac7	-0.009329504
158	0x3e13c233	0.1442955
159	0x3e3d03ff	0.18458556
160	0xbe8923d3	-0.26785144
161	0xbdb22ae5	-0.08699588
162	0x3df1d020	0.11807275
163	0xbb4f6258	-0.003164431
164	0xbf087fe2	-0.53320134
165	0xbf52481a	-0.8214127
166	0xbd743e15	-0.05962952
167	0x3dc311f0	0.09524906
168	0x3dcdcc56	0.100487396
169	0x3e957be7	0.29196092
170	0x3ed2fb30	0.41207266
171	0x3e8392da	0.25697976
172	0xbf4bb069	-0.79566056
173	0xbaff2ba2	-0.001946796
174	0x3e117956	0.14206442
175	0x3e8c55a8	0.274091
176	0x3ec8fbfd	0.39254752
177	0x3e3fa7c0	0.18716335
178	0x3e2375c1	0.15962888
179	0x3e988f09	0.29796627
180	0xbe0b56c3	-0.13607316
181	0x3dbb634b	0.09149798
182	0x3e8707de	0.2637319
183	0x3e489d5a	0.19591275
184	0xbf2ac888	-0.66712236
185	0x3e6c54b1	0.23079182
186	0xbe9d5a74	-0.30733073
187	0xbf0e5722	-0.55601704
188	0xbe782318	-0.24232137
189	0xbf7a335b	-0.9773461
190	0x3ed4a5fe	0.41532892
191	0xbf1de9ed	-0.6168507
192	0xbf1fa2a7	-0.6235756
193	0x3e4c7024	0.19964653
194	0x3de24653	0.110485695
195	0x3d4a63c7	0.04941156
196	0x3ea27f0c	0.31737554
197	0xbf10da41	-0.5658303
198	0x3ebfd274	0.3746525
199	0x3e4fec06	0.2030488
200	0x3e444806	0.191681
201	0xbd7f6c34	-0.06235905
202	0xbf38ec88	-0.7223592
203	0x3e2ee5c7	0.1707984
204	0x3f55f9f0	0.835845
205	0x3e2a5cdd	0.16636987
206	0xbf9ddd5e	-1.2333181
207	0xbf19081b	-0.5977799
208	0x3e18f5b7	0.14937483
209	0xbfabd78c	-1.3425155
210	0xbdf11777	-0.11772054
211	0xbe749f2c	-0.23888844
212	0x3da0670d	0.078321554
213	0xbceec5cc	-0.029147051
214	0xbeb6356e	-0.3558764
215	0x3d3e9b40	0.046534777
216	0x3ec6eb91	0.38851598
217	0xbf1acecb	-0.6047179
218	0xc0824dff	-4.072021
219	0xbd28e7ad	-0.04123657
220	0xbf066361	-0.5249539
221	0x3dd39891	0.10331834
222	0xc00d2e39	-2.2059462
223	0xc01cc309	-2.449404
224	0xbfa2e805	-1.2727057
225	0x3e5337d2	0.20626763
226	0x3d4420b4	0.04788275
227	0xbeafdca2	-0.34348017
228	0x3d50174f	0.05080348
229	0xbf3699a0	-0.71328163
230	0x3e0a486d	0.1350419
231	0xbb94d585	-0.004542055
232	0x3eff0105	0.49805465
233	0xbed20d53	-0.4102579
234	0x3db92fc2	0.09042312
235	0x3f2d4e70	0.6769781
236	0xbe569e87	-0.20958911
237	0x3e7e7602	0.24849704
238	0xbedac4ba	-0.42728215
239	0x3e619f1f	0.22033356
240	0x3e07b04e	0.13250849
241	0xbd20cdb2	-0.039258666
242	0x3cd7bd66	0.02633543
243	0xbe2c2c80	-0.1681385
244	0xbe037e3f	-0.12841128
245	0x3f1d2ab3	0.6139328
246	0xbee01746	-0.43767756
247	0xbe5a6185	-0.21326263
248	0xbee3ee7f	-0.44517896
249	0xbe4e4bb9	-0.20146073
250	0xbf3f3417	-0.7468886
251	0x3e8f916d	0.2804064
252	0xbf02e1ab	-0.5112559
253	0xbce29671	-0.027659627
254	0xbf05ddde	-0.5229167
255	0xbf56f5b4	-0.83968663

subnets.0.hidden_layers.2.bias f4 [16]
0	0x3ca7ba7f	0.02047467
1	0x3ca59bf6	0.02021597
2	0x3eb8c416	0.36087102
3	0x3ed7a1a0	0.42115498
4	0x3de71557	0.11283367
5	0x3e916026	0.28393668
6	0x3f39e25c	0.7261102
7	0x3e92c530	0.28666067
8	0xbc0819af	-0.008306905
9	0xbed57cd1	-0.4169679
10	0x3e9a8dd3	0.30186328
11	0xbec45fcb	-0.38354334
12	0x3ec7dcc1	0.3903561
13	0x3f97990e	1.1843584
14	0x3f11280c	0.5670173
15	0xbe856e4d	-0.26060715

subnets.1.attn.in_proj_weight f4 [42, 14]
0	0x3e89eca5	0.26938358
1	0xbd32aa28	-0.043619305
2	0xbe580f5c	-0.21099609
3	0x3ea4cc0d	0.32186928
4	0x3e92f818	0.28704906
5	0x3d14cc01	0.036327366
6	0xbea76adb	-0.32698712
7	0x3e970f90	0.2950406
8	0xbe7431b8	-0.23847091
9	0x3e42c579	0.19020642
10	0x3e6ffde6	0.23436698
11	0x3e201c0f	0.15635704
12	0x3d8a0dfd	0.06740949
13	0xbe5f919e	-0.21832892
14	0xbd9a00fc	-0.07519719
15	0x3e5e0429	0.21681274
16	0x3e945c0a	0.2897647
17	0xbd09d4e4	-0.033650294
18	0xbe4adca4	-0.1981073
19	0x3e00e894	0.12588722
20	0xbe9e78b0	-0.30951452
21	0x3e0890b5	0.13336451
22	0x3e70ae2c	0.23503941
23	0x3dff47a9	0.1246484
24	0xbe989364	-0.2979995
25	0xbe99c372	-0.30031925
26	0x3e9fe964	0.3123275
27	0xbd3177bd	-0.043327082
28	0xbe9df82d	-0.30853406
29	0x3e22f50c	0.1591379
30	0xbd93b8af	-0.0721296
31	0xbe81c420	-0.25344944
32	0x3ea71309	0.3263171
33	0xbdef7083	-0.11691382
34	0xbe085fc2	-0.13317779
35	0xbe9fccff	-0.31211087
36	0x3dee290b	0.11628922
37	0xbe588a40	-0.21146488
38	0x3ea316a4	0.3185321
39	0x3d8bfca4	0.06835297
40	0xbe85b1c0	-0.26112175
41	0xbe58bc48	-0.21165574
42	0x3dce311d	0.10067961
43	0x3e21500e	0.15753195
44	0xbe609be1	-0.21934463
45	0x3e81f938	0.2538545
46	0x3d8d669b	0.06904336
47	0xbcb414f5	-0.02198265
48	0x3e8b899a	0.2725342
49	0xbe82f1e4	-0.25575173
50	0xbdd3d3fe	-0.10343169
51	0xbc91c65e	-0.017794784
52	0xbc525ba6	-0.0128392335
53	0x3c64006e	0.013916118
54	0xbdd93246	-0.10605292
55	0x3e873ca9	0.26413468
56	0xbe48850a	-0.19582
57	0x3ea18ac2	0.31551176
58	0x3e0522c3	0.13001542
59	0xbe74b6d6	-0.23897871
60	0x3e1fff2a	0.15624681
61	0xbbc7a3d4	-0.006092528
62	0xbd127678	-0.03575751
63	0xbc371bfc	-0.011176106
64	0xbdc748ab	-0.09730657
65	0x3d9e5957	0.07731884
66	0xbe5c65b4	-0.21523172
67	0xbe1fb727	-0.15597211
68	0x3e98d985	0.29853454
69	0xbd29e799	-0.041480634
70	0xbe80a38e	-0.25124782
71	0xbe22fed9	-0.15917529
72	0xbd8346c0	-0.06409979
73	0x3e663703	0.22481923
74	0xbd9cda35	-0.07658807
75	0x3db803e0	0.08985114
76	0x3e3adc52	0.18248108
77	0xbd6356ff	-0.055502888
78	0x3e0491c7	0.12946235
79	0x3e581ae9	0.21104015
80	0x3c629fbc	0.013832029
81	0xbdc7b8f7	-0.09752076
82	0x3d145181	0.03621054
83	0xbe8bc754	-0.27300513
84	0xbe6341fa	-0.22193137
85	0x3d90591d	0.07048247
86	0xbea76dc8	-0.32700944
87	0xbe3e7446	-0.18599042
88	0x39e35418	0.0004335947
89	0x3e2603ab	0.16212337
90	0xbea1aedf	-0.3157873
91	0xbe186995	-0.14884026
92	0x3e625ff8	0.22106922
93	0x3b0756e4	0.0020651156
94	0x3e961ee4	0.29320443
95	0x3ea3601b	0.3190926
96	0xbea70fb1	-0.3262916
97	0x3df9cc30	0.12197149
98	0x3cbb50a5	0.022865603
99	0xbb3b037a	-0.0028536008
100	0x3b0133b9	0.0019714667
101	0x3cd7966a	0.02631684
102	0x3d86f573	0.065897845
103	0xbe397a0a	-0.1811296
104	0xbb717c41	-0.0036847743
105	0xbdd715b1	-0.10502184
106	0xbe17e565	-0.14833601
107	0x3e3545cd	0.17702408
108	0x3e3489ea	0.17630735
109	0x3e85c1aa	0.26124316
110	0x3dbd0e57	0.09231251
111	0x3e3a83b5	0.18214305
112	0x3e26de64	0.16295773
113	0xbe450b9f	-0.19242714
114	0x3e85afaf	0.26110598
115	0x3e7b3611	0.24532343
116	0x3e78c3c5	0.2429343
117	0xbdeffc38	-0.11718029
118	0xbc1c8cc0	-0.009555042
119	0xbe411483	-0.18855481
120	0xbea188a7	-0.3154957
121	0x3e86c580	0.26322556
122	0xbd607108	-0.054795295
123	0x3ea6a6c7	0.32549116
124	0x3dbbbc1c	0.091667384
125	0xbe0f1ee4	-0.13976628
126	0xbe4997e5	-0.1968685
127	0xbea7321e	-0.32655424
128	0xbe414121	-0.18872501
129	0xbdccb55a	-0.099955276
130	0xbe7fd3b7	-0.24983107
131	0xbcb77c38	-0.0223981
132	0xbdcdd538	-0.10050434
133	0xbd9f6c85	-0.0778437
134	0xbe803479	-0.25040033
135	0x3da67f5b	0.0812976
136	0x3e890618	0.26762462
137	0xbe40b90e	-0.18820593
138	0xbe79e5c0	-0.24404049
139	0x3e2e06b7	0.16994749
140	0xbdd8acaa	-0.10579808
141	0x3e52f887	0.20602618
142	0x3d5d7cb3	0.054074
143	0xbe68f38e	-0.22749159
144	0x3d1b6bae	0.03794449
145	0xbdb1367f	-0.086529724
146	0x3e215f5b	0.15759031
147	0x3ea3fbbe	0.32028002
148	0xbe428673	-0.18996601
149	0xbd0e5bf5	-0.034755666
150	0xbe243762	-0.16036752
151	0xbe8dbdd5	-0.27683893
152	0xbe952bf3	-0.29135093
153	0x3e8c18e5	0.27362743
154	0x3e08480c	0.13308734
155	0xbe315c63	-0.17320399
156	0x3e6708b2	0.22561911
157	0xbe9f7a13	-0.31147823
158	0x3e187d9d	0.14891668
159	0xbe135076	-0.14386162
160	0xbd3dd07d	-0.046341408
161	0xbcb76396	-0.022386353
162	0xbc1156c0	-0.0088707805
163	0xbdeb242f	-0.11481511
164	0x3d33b49a	0.043873407
165	0xbe734220	-0.23755693
166	0x3d2cde38	0.04220411
167	0x3d87d270	0.06631935
168	0xbe12c816	-0.14334139
169	0x3de8d4e3	0.1136873
170	0x3e3c1fd2	0.18371513
171	0xbe6e876f	-0.23293851
172	0x3e96a8e3	0.29425725
173	0x3d91bdf1	0.071163066
174	0xbdcb0519	-0.09913082
175	0xbdc2ec38	-0.095177114
176	0x3d9b71e1	0.0759008
177	0xbde16d9a	-0.11007233
178	0xbe92c8b1	-0.2866874
179	0x3dafd196	0.08584897
180	0x3d06ac99	0.032879446
181	0x3deb81ad	0.11499343
182	0x3c6a0b37	0.0142849
183	0xbe44cad2	-0.19217995
184	0xbe47e696	-0.19521555
185	0x3e656061	0.22400047
186	0x3e78f6cd	0.24312897
187	0x3e037dd0	0.12840962
188	0xbdf10909	-0.117693014
189	0x3e47eaaa	0.19523111
190	0xbdbd72e4	-0.09250429
191	0xbe90ea3e	-0.28303713
192	0x3e65c576	0.22438607
193	0x3c42693a	0.011865908
194	0xbe0a30f9	-0.13495244
195	0xbcb491ff	-0.022042273
196	0x3e305570	0.17220092
197	0x3e2a739a	0.16645661
198	0xbe96ca0f	-0.29451033
199	0x3e3c6f91	0.18401934
200	0x3cf9641e	0.030443247
201	0xbd6656b4	-0.05623503
202	0x3c18038f	0.009278192
203	0xbdb06e51	-0.08614791
204	0x3ddda0f4	0.10821715
205	0xbe8b3faf	-0.27197024
206	0xbe2c7c25	-0.16844232
207	0xbddb20cd	-0.10699616
208	0x3e87b9e3	0.26509008
209	0x3e7a284f	0.24429439
210	0x3df1fb52	0.11815514
211	0xbe494c4a	-0.19658008
212	0xbcbf06a1	-0.02331859
213	0xbea4afbf	-0.32165334
214	0xbd075c94	-0.033047274
215	0xbca6737d	-0.020318741
216	0x3e1929c1	0.14957334
217	0x3dd5be00	0.1043663
218	0xbdd316c1	-0.10307074
219	0x3db16cab	0.08663305
220	0xbe0c9245	-0.13727672
221	0xbe99f5f9	-0.30070475
222	0x3d8e9efa	0.06963916
223	0x3e896af9	0.26839426
224	0xbdc04ae8	-0.09389287
225	0xbe576e39	-0.2103814
226	0xbe671d57	-0.22569786
227	0xbe0d4ae0	-0.13798094
228	0x3e2313e1	0.15925552
229	0x3e88be7c	0.26707828
230	0xbd8aa125	-0.06769017
231	0x3d0a8734	0.033820346
232	0xbe587423	-0.21138053
233	0xbe9bba90	-0.30415773
234	0x3e0a025c	0.13477463
235	0xbe369c44	-0.17833048
236	0x3d6c4963	0.057687175
237	0x3e0bd1a4	0.1365419
238	0x3e90cf21	0.28283027
239	0xbe9abe6e	-0.3022341
240	0xbe456fc9	-0.19280924
241	0xbe092b27	-0.13395368
242	0xbdbeea5b	-0.093220435
243	0x3d0f6ac7	0.03501394
244	0xbd117306	-0.035510086
245	0xbe3a564a	-0.18196979
246	0x3e9c7496	0.30557698
247	0xbb468bf7	-0.0030295828
248	0xbe2904e0	-0.16505766
249	0xbe66623b	-0.2249841
250	0xbd5617da	-0.05226884
251	0x3db99b27	0.09062796
252	0x3e62ef78	0.22161663
253	0xbcce25c3	-0.02516449
254	0xbe85f829	-0.26165894
255	0x3e132d8c	0.14372844

subnets.1.attn.in_proj_bias f4 [42]
0	0x00000000	0.0
1	0x00000000	0.0
2	0x00000000	0.0
3	0x00000000	0.0
4	0x00000000	0.0
5	0x00000000	0.0
6	0x00000000	0.0
7	0x00000000	0.0
8	0x00000000	0.0
9	0x00000000	0.0
10	0x00000000	0.0
11	0x00000000	0.0
12	0x00000000	0.0
13	0x00000000	0.0
14	0x00000000	0.0
15	0x00000000	0.0
16	0x00000000	0.0
17	0x00000000	0.0
18	0x00000000	0.0
19	0x00000000	0.0
20	0x00000000	0.0
21	0x00000000	0.0
22	0x00000000	0.0
23	0x00000000	0.0
24	0x00000000	0.0
25	0x00000000	0.0
26	0x00000000	0.0
27	0x00000000	0.0
28	0xbe464e59	-0.19365825
29	0x3e3304b6	0.17482266
30	0xbdbb8a66	-0.09157257
31	0x3e48859a	0.19582215
32	0xbddae2c0	-0.106877804
33	0x3e6fa5a8	0.23403037
34	0xbe1a0b93	-0.15043478
35	0xbe359213	-0.17731504
36	0x3ea4dda2	0.32200342
37	0xbe5384af	-0.20656084
38	0x3e1f90a7	0.15582524
39	0xbe352ec7	-0.17693625
40	0xbe354368	-0.17701495
41	0x3deb37cd	0.114852525

subnets.1.attn.out_proj.weight f4 [14, 14]
0	0x3f311f98	0.69188833
1	0xbeb1674e	-0.34649128
2	0xbecd0113	-0.40039882
3	0xbf006f6b	-0.5017001
4	0xbe40c095	-0.18823464
5	0xbf5ae670	-0.8550787
6	0x3f3e9aa5	0.7445472
7	0xbd8c8012	-0.06860365
8	0xc0031214	-2.0479784
9	0x3db067fe	0.08613585
10	0xbee15f55	-0.44018045
11	0xbdc0d991	-0.094164975
12	0x3e9c703f	0.30554387
13	0xbf16f798	-0.5897155
14	0x3ede5a91	0.43428472
15	0xbdace986	-0.084429786
16	0xbe5d0f81	-0.21587946
17	0x3f0316a9	0.5120645
18	0xbe844432	-0.2583328
19	0x3f2bb453	0.6707203
20	0x3f099a40	0.5375099
21	0x3bd73dcf	0.0065686475
22	0x3f4b99bf	0.7953147
23	0x3f299ec0	0.6625786
24	0x3ddf1d9c	0.108943194
25	0x3e396b36	0.18107304
26	0xbff43477	-1.9078511
27	0x3e135d25	0.14391
28	0xbeef02e4	-0.46681893
29	0xbeae6395	-0.3406035
30	0xbec026fd	-0.37529746
31	0xbed24347	-0.41066954
32	0x3db2eee3	0.0873697
33	0xbf1ebe4a	-0.6200911
34	0x3e5c3cdd	0.21507592
35	0xbe2841b0	-0.16431308
36	0xbe762a02	-0.24039462
37	0xbd3e6a62	-0.046488173
38	0xbf0108ca	-0.50404036
39	0x3e4c28ec	0.19937485
40	0x3e5dd305	0.21662529
41	0xbe949897	-0.29022667
42	0x3f243b84	0.64153314
43	0x3e767888	0.24069417
44	0xbeac3dfd	-0.33641043
45	0x3f06cb92	0.52654374
46	0xbe491e87	-0.19640552
47	0x3b6939aa	0.003558735
48	0x3f44ba0f	0.768464
49	0x3e7398af	0.23788713
50	0x3f55c403	0.83502215
51	0xbee20c31	-0.44149926
52	0x3e7d70db	0.24750082
53	0xbcdfed7f	-0.027334927
54	0xbfc19738	-1.5124273
55	0xbe82d017	-0.25549385
56	0xbee615a5	-0.44938388
57	0xbdc0abc5	-0.094077624
58	0x3d9e7b59	0.077383704
59	0x3efc263d	0.49247923
60	0x3ec72d65	0.3890182
61	0x3e737a55	0.23777135
62	0xbed7b792	-0.4213224
63	0x3e9a459c	0.30131233
64	0x3f981b1e	1.1883276
65	0xbf44ac2d	-0.7682522
66	0x3dc112a7	0.09427386
67	0xbe87622a	-0.2644208
68	0xbf42f2c5	-0.76151687
69	0x3f4e0a55	0.80484515
70	0xbea077e0	-0.31341457
71	0xbe39a28b	-0.18128411
72	0xbd37710d	-0.044785548
73	0x3eff48b1	0.49860147
74	0x3e029d80	0.12755394
75	0x3eb0c90e	0.34528393
76	0xbec452ed	-0.38344517
77	0xbde33c1a	-0.11095448
78	0x3f94396a	1.1580021
79	0xbf1bbba0	-0.6083317
80	0x3ef272f6	0.47353333
81	0x3c163ebe	0.009170232
82	0xbfab2573	-1.3370804
83	0xbe5b2fe3	-0.21404986
84	0xbec79504	-0.38980877
85	0xbdf6c1ad	-0.120486595
86	0x3e8d8932	0.27643734
87	0xbedd5f96	-0.4323699
88	0x3d0e5cd3	0.034756493
89	0xbed8d096	-0.42346638
90	0xbfb840f1	-1.4394819
91	0x3eaa37e9	0.3324578
92	0xbcfccfc6	-0.030860793
93	0xbe9c6a22	-0.30549723
94	0xbc904c05	-0.017614374
95	0xbb8ebae1	-0.004355774
96	0x3fde10c8	1.7348871
97	0xbf524262	-0.8213254
98	0x3e49210f	0.19641517
99	0xbe12366c	-0.14278573
100	0x3dc7370f	0.097272985
101	0xbe0bfaf0	-0.13669944
102	0x3ea6ddd9	0.3259113
103	0xbf58f4e0	-0.8474865
104	0x3da29456	0.07938449
105	0x3ea68f5d	0.32531253
106	0xbffd659f	-1.9796637
107	0xbd62090c	-0.05518441
108	0xbe86696f	-0.26252314
109	0xbcf73329	-0.030175762
110	0x403097cb	2.7592647
111	0xbe123a5f	-0.1428008
112	0x3ebaa3c3	0.36453065
113	0x3e620bbf	0.22074793
114	0x3e7162ae	0.235728
115	0x3ccfd9fb	0.025372496
116	0x3d3c41fd	0.04596137
117	0xbeb42c39	-0.3518999
118	0x3db6e260	0.08929896
119	0x3e9040e3	0.28174505
120	0xbfcc4d51	-1.5961095
121	0xbd6698a5	-0.056297917
122	0xbeedd286	-0.4644968
123	0x3e166778	0.14687908
124	0x403cc3ff	2.9494627
125	0x3ead5b49	0.33858708
126	0x3ec21e4f	0.3791375
127	0x3e7beb76	0.2460154
128	0x3ed89d9c	0.42307746
129	0x3de4c289	0.11169917
130	0xbd2eaa46	-0.042642854
131	0x3efe078e	0.4961514
132	0x3f25c46c	0.6475284
133	0x3eb698d7	0.35663483
134	0x3fa7fe65	1.312451
135	0xbac593b3	-0.0015073925
136	0x3ea49b61	0.32149795
137	0xbea5f8b8	-0.3241632
138	0xc0203203	-2.5030525
139	0x3e77f645	0.24215038
140	0x3e2a9996	0.16660151
141	0x3dd8d020	0.10586572
142	0xbd47a1da	-0.048738338
143	0xbe335fc7	-0.17517005
144	0x3e28ae08	0.16472638
145	0xbf1ff2e2	-0.62479985
146	0x3cb9d4f3	0.02268455
147	0x3e737476	0.23774895
148	0xbf66d28d	-0.90165025
149	0xbef94444	-0.48684895
150	0xbf171ee0	-0.59031487
151	0x3d63522b	0.055498283
152	0x3f6ae83b	0.91760606
153	0xbe4e99a9	-0.20175804
154	0xbf2085ea	-0.62704337
155	0x3e24a16d	0.16077204
156	0x3db9f962	0.09080769
157	0xbef794a5	-0.48355594
158	0x3e23c1a8	0.15991843
159	0x3d1fd8e2	0.039025195
160	0xbf3cef93	-0.7380306
161	0x3e840b82	0.2579003
162	0xbeaef7d0	-0.3417344
163	0x3d2a2c12	0.041545935
164	0xbd801f3f	-0.0625596
165	0x3db531ee	0.08847414
166	0x3fc0a935	1.5051638
167	0xbd882c8b	-0.06649121
168	0xbefe7d64	-0.4970504
169	0x3d824140	0.06360102
170	0x3eda0913	0.42585048
171	0xbed60f4a	-0.4180854
172	0xbdb7f989	-0.08983142
173	0xbe817cd4	-0.2529055
174	0xbf8545fd	-1.0411984
175	0xbe400992	-0.18753651
176	0xbf30cb37	-0.6906008
177	0xbe5f7ee7	-0.21825753
178	0xbe49f783	-0.19723324
179	0xbe0f2449	-0.13978685
180	0x40114fcf	2.2704961
181	0xbf223953	-0.6336872
182	0x3e1cfb51	0.15330245
183	0xbd45bba8	-0.048274666
184	0x3dcdd763	0.100508474
185	0xbecc574d	-0.39910355
186	0xbddf3853	-0.10899415
187	0xbf5f0915	-0.87123233
188	0x3e6dd19f	0.23224495
189	0xbea011c8	-0.31263566
190	0xbedd1792	-0.43182045
191	0xbe50ba8c	-0.20383662
192	0xbf257ba1	-0.6464177
193	0xbe8682df	-0.26271722
194	0x3ead6015	0.33862367
195	0xbedf9dce	-0.43675083

subnets.1.attn.out_proj.bias f4 [14]
0	0xbef7178f	-0.4826016
1	0x3d188e2e	0.037244968
2	0x3d728076	0.05920454
3	0x3d030dff	0.03199577
4	0x3ea32ddc	0.31870925
5	0x3e67937f	0.22614859
6	0x3db60a91	0.08888734
7	0xbed90113	-0.42383632
8	0xbed9ca9c	-0.4253739
9	0x3e4a6cf1	0.1976812
10	0xbdd2315c	-0.10263321
11	0x3dc9b238	0.09848446
12	0xbd3d410a	-0.046204604
13	0xbdf1c7ed	-0.11805711

subnets.1.hidden_layers.0.weight f4 [16, 14]
0	0x3e0807a9	0.13284172
1	0x3e8b1971	0.27167848
2	0x3e5b538c	0.2141859
3	0x3f3e51a1	0.74343306
4	0x3e343654	0.1759885
5	0x3edea73d	0.43486968
6	0xbe933ef1	-0.28758958
7	0xbf0f98d5	-0.5609258
8	0xbf5fbbc2	-0.8739587
9	0x3f4558b6	0.7708849
10	0x3df382b4	0.11890164
11	0xbef63ce6	-0.48093337
12	0xbeecff53	-0.46288547
13	0x3e442139	0.19153298
14	0xbfa5e4b1	-1.2960416
15	0x3e1d58f8	0.1536597
16	0x3e9c4e72	0.305286
17	0xbe4425cb	-0.19155042
18	0x3f3b04f1	0.73054415
19	0x3ebd689d	0.36993876
20	0xbe7628ac	-0.24038953
21	0xbfd8f538	-1.6949835
22	0xbf80e3e2	-1.0069544
23	0x3eafe62d	0.34355298
24	0xbddfac46	-0.109215304
25	0x3e882478	0.26590323
26	0xbf068409	-0.5254522
27	0x3aa15a35	0.0012310209
28	0x3d0d25a8	0.03445974
29	0xbe78fe86	-0.24315843
30	0x3ef3b580	0.4759941
31	0xbeeba7fd	-0.46026602
32	0x3e7fa7ed	0.24966402
33	0xbe819bec	-0.2531427
34	0x3eedd2b0	0.46449804
35	0x3d2787a7	0.040900853
36	0x3b81bc0f	0.003959186
37	0xbeeca560	-0.4621992
38	0x3e8b0bd8	0.27157474
39	0x3ec52883	0.3850747
40	0x3f0bb680	0.5457535
41	0x3e363670	0.17794204
42	0xbec2f7e3	-0.38079748
43	0xbbb4648b	-0.0055051497
44	0xbd11ffeb	-0.035644453
45	0xbb799717	-0.0038084441
46	0x3e2555bd	0.16145988
47	0x3f04d70f	0.51890653
48	0x3e0b4841	0.13601781
49	0xbf3c2f7f	-0.73509973
50	0xbf290766	-0.66026914
51	0xbd366102	-0.044526108
52	0xbe27c033	-0.16381912
53	0x3e2f4a22	0.17118123
54	0xbe8bf8ef	-0.2733836
55	0x3cdabdb2	0.026701782
56	0x3e7d2b42	0.24723533
57	0xbe566071	-0.20935227
58	0xbe585ebe	-0.21129891
59	0x3e4e1531	0.20125271
60	0x3e03dc41	0.12876989
61	0xbe811944	-0.2521459
62	0xbb0a6f60	-0.0021123514
63	0xbd550e2c	-0.05201547
64	0xbe3dc46f	-0.18531965
65	0xbe7c7c1f	-0.24656723
66	0xbe6a8438	-0.22902
67	0xbe741e25	-0.23839624
68	0xbe7d6be7	-0.24748193
69	0xbd7eb5e5	-0.062185187
70	0xbe4bce7c	-0.19902986
71	0x3cb40b8f	0.021978168
72	0xbe085342	-0.1331301
73	0x3eaf90cc	0.3429016
74	0xbd66ea0e	-0.056375556
75	0x3d3ba6ae	0.045813255
76	0x3db79a53	0.08964982
77	0x3e19c406	0.15016183
78	0x3df72ca4	0.120690614
79	0xbdcc457f	-0.09974193
80	0xbec7e44b	-0.3904136
81	0xbd4bffdc	-0.049804553
82	0x3c6d5ac3	0.014486971
83	0x3dbc7db5	0.09203664
84	0xbf570bab	-0.8400218
85	0xbd051b09	-0.032496486
86	0xbe5efc2d	-0.21775885
87	0xbdfb56cd	-0.12272415
88	0x3f21637c	0.63042426
89	0x3f4c8412	0.79889023
90	0xbe2b959b	-0.16756289
91	0xbebd84ff	-0.3701553
92	0x3de7448f	0.112923734
93	0xbd9459f7	-0.07243722
94	0xbe6ab55d	-0.22920747
95	0xbe0b8e22	-0.13628438
96	0xbe0be2c9	-0.1366073
97	0xbef28e97	-0.47374412
98	0xbeafbb8a	-0.34322768
99	0x3ed4a51d	0.4153222
100	0xbe924bb1	-0.28573373
101	0x3eaefee4	0.3417884
102	0xbde84744	-0.11341718
103	0x3f8db903	1.1072086
104	0xbe05fb30	-0.13084102
105	0xbf438ea1	-0.7638951
106	0xbf743203	-0.9538881
107	0x3f043c13	0.51654166
108	0xbf1a349a	-0.60236514
109	0xbea06e9e	-0.31334394
110	0xbeb08510	-0.3447652
111	0xbeb892d6	-0.36049527
112	0xbedc992a	-0.43085605
113	0x3c5b3c22	0.013381036
114	0x3db6e6de	0.08930753
115	0x3e18eb12	0.14933422
116	0x3ea36c5f	0.31918618
117	0x3f2a0dc1	0.66427237
118	0x3dca47e8	0.09876996
119	0xbf4fb1be	-0.8113059
120	0xbf913378	-1.1343832
121	0x3ebcfdd8	0.36912417
122	0x3d5db0da	0.054123737
123	0x3e39df90	0.18151689
124	0x3db36005	0.08758549
125	0xbe480432	-0.1953285
126	0xbf62380e	-0.8836678
127	0x3ce21fa9	0.027602987
128	0xbf3f9480	-0.7483597
129	0x3e16b74c	0.1471836
130	0x3deaa339	0.114569135
131	0x3fae9ae6	1.3641021
132	0x3ec1d92a	0.37860996
133	0xbf016d1f	-0.5055713
134	0xbecbe4b1	-0.39822915
135	0x3e66d67c	0.22542757
136	0xbf2f8698	-0.6856475
137	0x3e526500	0.20546341
138	0x3e8c461b	0.27397236
139	0xbf8a9472	-1.0826552
140	0xbe10be51	-0.141351
141	0xbcfbe06c	-0.030746661
142	0xbd0fdc13	-0.03512199
143	0x3e779c9a	0.24180833
144	0xbe8d1243	-0.27552995
145	0x3d914d0e	0.07094775
146	0xbb23a3a3	-0.0024969361
147	0x3e00d8cd	0.12582703
148	0x3e43ddbc	0.19127554
149	0xbe5cb984	-0.21555144
150	0xbe26c611	-0.16286494
151	0xbe93488e	-0.28766292
152	0xbd92c3ca	-0.0716625
153	0x3dd9b24f	0.10629713
154	0x3e12d2b1	0.14338185
155	0xbf15db5a	-0.5853783
156	0x3ee608f8	0.44928718
157	0xbefb0360	-0.49026012
158	0xbd6e421b	-0.05816851
159	0x3d2d1de9	0.042264853
160	0x3f36e3eb	0.71441525
161	0x3e19c08d	0.15014859
162	0xbc02b27b	-0.007977123
163	0xbe8d7ee8	-0.27635884
164	0x3eb1acf2	0.3470226
165	0x3ec06438	0.3757646
166	0x3f8127a4	1.0090222
167	0x3ef1ec72	0.47250706
168	0xbecc623f	-0.39918706
169	0xbf27eae4	-0.6559279
170	0xbec51a1b	-0.3849648
171	0xbe1f8beb	-0.15580718
172	0x3f1625d3	0.58651465
173	0x3d33ef1d	0.043929208
174	0xbe118b83	-0.14213376
175	0x3ec9b5af	0.39396426
176	0x3f06b107	0.5261387
177	0x3e3587ad	0.17727537
178	0x3e3f1834	0.18661577
179	0x3ea3f88b	0.3202556
180	0xbe3c8424	-0.18409783
181	0xbc800ba1	-0.015630545
182	0x3c64ae84	0.013957623
183	0xbd311c1d	-0.0432397
184	0xbd891c48	-0.06694847
185	0xbd17942e	-0.03700655
186	0x3d5890b0	0.05287236
187	0x3d3a54c1	0.045490984
188	0xbe1b0251	-0.15137602
189	0x3e399218	0.18122137
190	0xbce720e9	-0.028213935
191	0x3e1d0f69	0.1533791
192	0xbda32723	-0.07966449
193	0xbbb18df0	-0.0054185316
194	0x3d18c68d	0.037298728
195	0xbd422136	-0.047394954
196	0xbcc3ea93	-0.023915565
197	0x3e512ef5	0.20428069
198	0xbd312512	-0.043248244
199	0xbd2073e4	-0.039173022
200	0xbdec07e3	-0.11524942
201	0x3e675037	0.22589193
202	0x3d669c6f	0.05630153
203	0x3e9b47c6	0.30328196
204	0x3e0ad61d	0.1355824
205	0xbc4976ce	-0.012296392
206	0xbe8990a8	-0.26868176
207	0xbe878f20	-0.26476383
208	0x3e884116	0.26612157
209	0x3d34e24f	0.044161137
210	0xbd032bf3	-0.032024335
211	0xbc2fd90d	-0.010732901
212	0xbe8d16ef	-0.2755656
213	0x3e7b2268	0.24524844
214	0xbe9b0058	-0.302737
215	0xbe3ab05e	-0.18231341
216	0x3d384188	0.04498437
217	0xbdbb5713	-0.091474675
218	0x3e3c850c	0.18410128
219	0xbd34e637	-0.044164862
220	0xbe8a891b	-0.27057728
221	0x3dd0846c	0.101815075
222	0xbe2f28e1	-0.17105438
223	0xbde66f9e	-0.11251758

subnets.1.hidden_layers.0.bias f4 [16]
0	0x3e0dfa08	0.1386491
1	0x3f1a32a4	0.6023352
2	0xbc2d676d	-0.010583741
3	0x3ea6c173	0.32569465
4	0xbe421ea1	-0.18956997
5	0xbe83e521	-0.2576075
6	0x3e679690	0.22616029
7	0x3e40427c	0.18775362
8	0x3ed5a19b	0.41724858
9	0x3e2b3634	0.16719896
10	0xbe9a7e50	-0.30174494
11	0x3bbfb20f	0.0058500837
12	0x3e0c61d4	0.13709193
13	0xbe96efe0	-0.29479885
14	0xbd91ed54	-0.07125345
15	0xbe636e45	-0.22210033
