trained_pth_model/fold_5_model.pth (torch, 35587 bytes, 40 tensors)

subnets.0.attn.in_proj_weight f4 [42, 14]
00000000: a8b7 743d f840 523e 7507 873e 6b4d 313e
00000010: 9033 e13d e6db 55be e026 023e d339 3f3e
00000020: cdb4 6ebe 2bee f93d de79 a43e a52f 0bbe
00000030: a908 2abe be44 4b3d c466 073c 35fd 14be
00000040: c987 82be 9c5d 863d d893 2b3e 20db 1abd
00000050: 4ad5 d23d 6d58 85bd c3ba 40be 8ac8 913d
00000060: 5aeb 813d d121 98be d05f ba3d 0978 843e
00000070: 2493 913b 0371 633e a321 a83d 4781 6cbd
00000080: 471c 793e e747 4cbe c082 45be 62b8 7cbe
00000090: f6af 9cbd 6513 9f3e 4eb6 8fbe 0765 5abe
000000a0: 1cab 14bc 05ba d83d 9cbd 2c3d 5e8b 803e
000000b0: 7910 cf3d a657 5c3e be08 0abe 7121 453e
000000c0: d703 ca3c bd06 553e 4b6d 5b3d 7fd4 41bd
000000d0: 11f2 8cbe 08f3 42bd 2e98 683e 80c4 3dbd
000000e0: a71e 04be 6395 49be a350 8e3e 598c cfbb
000000f0: 0ac2 7f3d f4f0 903d 5e82 e5bd 9958 253d
00000100: 8ec4 523e cabb 2c3e 42aa 05bc 15d6 67bd
00000110: b730 ecbd 955c 5fbe a84c 92bc 5da3 b2bd
00000120: 2b18 d9bd a23c 283e 60ae 6abe d7f1 f43d
00000130: fb8a 8fbe c55a 8d3e 4775 21bd 650b 103e
00000140: 352b 103d 31ee 963e 38c5 503e 4d64 863d
00000150: 09a3 743e f17c 0a3e ed6d 783d 785c a23e
00000160: e02e aabc 2c6b a7be baaa 253e 9549 a7be
00000170: 50fd 4a3e 5532 533e aae0 4ebc 5af0 6f3d
00000180: 771f 9ebe 9b47 013d 4812 a33d 8f9f b4bd
00000190: d176 05be 20eb c73d 2e5f a3be 130c 703e
000001a0: 43bc 9fbe 5420 86be 6fa6 b03d 28be c13d
000001b0: c52e 893e 4c3f 19be 83df 81be e2f1 833e
000001c0: 0bd7 3abd e87e cbbd 4c3d 813c ab52 88be
000001d0: 310b 45bd e100 97be 3284 953e bd95 aebd
000001e0: 30c8 033d 87ac 2cbe 9baf 87be 7de5 e1ba
000001f0: 8a47 343e 16c6 a2be 9546 a13e b954 34be
00000200: d9ed 753e a108 27be 32eb bcbb 9ee2 823e
00000210: 9f30 70be 765e 54be 4045 64be 42a9 59be
00000220: 65c1 8b3e eaf9 883e ccc0 6e3d d9a9 8d3b
00000230: 97f5 8bbe 65c2 91be 6888 cabd 7b2f 0cbe
00000240: 32dc 8fb9 3de7 3fbe 81f2 09be 7bc7 87be
00000250: 1de7 803e 478d 853e 32e7 1a3d 5e97 34be
00000260: 7988 35bd 3e23 26be 7ab8 7c3c 660d 7dbe
00000270: f06b c1bd f5db 4abd b1c5 8f3e 2432 0e3e
00000280: 2244 0abe a318 543e f2db 6cbd da23 5a3e
00000290: c350 f13d 3100 7a3e 3cbf 82bd 88a6 213e
000002a0: 8cd9 da3d 9fd9 e9bd bba0 27be 12b2 82be
000002b0: c637 003e c206 d1bd 5e7e 563e 9646 f6bc
000002c0: 3ec8 de3d 408d 573e 255c 6fbe 85bd a53e
000002d0: deb4 ff3c a006 773e 2b6e 6a3e d253 703d
000002e0: 354b 2b3e e404 48be 867a 81be 0bac 68be
000002f0: a1bc 58be 2dc9 a3bd 65ef f3bd 0580 80be
00000300: ed0d 23be 7d47 62be 9d8b a63e c818 79be
00000310: dd1a ec3c 8296 983e 3d27 bb3d e41c 6bbe
00000320: 28c6 163e 303b 473e 73a7 e6bd 6271 703e
00000330: e813 13be f8ff b93d bd35 71be cf81 45bd
00000340: 5a82 a93d 26f2 8d3e fa37 833d d02c be3d
00000350: 602d e0bd bdc1 66be 42f9 97be 972f 53be
00000360: ee7f a7be 47cf 8cbd 0901 1b3e db29 123e
00000370: 5d3a 78be 6a59 023e c8b4 a5be 38f3 a13a
00000380: 08ee 75be 537f f53c 85ba 2b3e e357 e23c
00000390: c3d2 cfbd f389 c53c 4643 343d d5bf 8bbe
000003a0: dfcc 723d ddcf e33d 3b66 9ebe fbbd 383d
000003b0: 1d73 8a3d b955 4ebe bdb7 fcbc 3720 99be
000003c0: e161 3cbd 09f9 6a3e 4f91 56be 040e a4be
000003d0: 8912 de3d 1abc 953e b295 49bd cb27 9dbe
000003e0: 9ff6 3b3e e519 efbd ceab 0fbe b33f f1bc
000003f0: 15ca 903d ee4f 95be 0bfd 7dbe c2dc 31bd
0.05974546 0.20532596 0.26372877 0.17314689 0.10996163 -0.20884666 0.12710142 0.18674402
-0.23311158 0.1220363 0.32124227 -0.13592394 -0.16604866 0.049626105 0.008264247 -0.14549716
-0.2549422 0.06560823 0.16755617 -0.03780663 0.10294588 -0.065110065 -0.18821244 0.07118328
0.06343718 -0.297133 0.09100306 0.2587283 0.0044425894 0.2221108 0.08209541 -0.057740476
0.24327193 -0.19949304 -0.19288158 -0.24679711 -0.076507494 0.31069484 -0.28068775 -0.21327601
-0.009073999 0.105823554 0.042173013 0.2510633 0.10110564 0.2151781 -0.13479897 0.19251038
0.024660034 0.20803352 0.053571027 -0.047321793 -0.27528432 -0.047595054 0.22714302 -0.046329975
-0.12902318 -0.19685893 0.27795896 -0.0063338694 0.06244091 0.07077208 -0.11206506 0.040367696
0.20582792 0.16868511 -0.008158268 -0.05660065 -0.11532729 -0.21812661 -0.017858818 -0.08722565
-0.10600313 0.1642938 -0.22918081 0.1196019 -0.2803572 0.27608314 -0.039418485 0.14066847
0.035197455 0.294786 0.20387733 0.065620996 0.23890318 0.13524224 0.06065171 0.31711173
-0.020774305 -0.32698953 0.16178408 -0.32673326 0.19823194 0.20624669 -0.012626806 0.058578826
-0.3088338 0.03156243 0.07962471 -0.08819496 -0.13033606 0.097616434 -0.31908554 0.23442106
-0.3119832 -0.2619654 0.08625495 0.094600976 0.26793495 -0.14965552 -0.25365838 0.2577048
-0.045615237 -0.09936315 0.015776299 -0.2662557 -0.048106376 -0.29492858 0.2920242 -0.08524654
0.032173336 -0.16862689 -0.26501164 -0.001723453 0.17605415 -0.31791753 0.31499162 -0.17610444
0.24016513 -0.16311885 -0.005765342 0.2556352 -0.23456047 -0.20739159 -0.22292042 -0.21255973
0.27295986 0.2675317 0.058289334 0.004323226 -0.27335808 -0.28468624 -0.09889299 -0.13689987
-0.00027439144 -0.18740554 -0.13471414 -0.2651938 0.25176325 0.2608435 0.03781814 -0.17635867
-0.044319604 -0.16224381 0.015424842 -0.24712142 -0.094444156 -0.049526174 0.28080514 0.13886315
-0.13502553 0.20712523 -0.057826944 0.21302739 0.11782982 0.24414136 -0.06384131 0.15786183
0.10686025 -0.11418461 -0.16369908 -0.25526482 0.12521276 -0.10206367 0.20946643 -0.030062955
0.10878037 0.21049976 -0.23374994 0.32371154 0.031214174 0.24123621 0.22893588 0.058673687
0.16727908 -0.19533116 -0.2528879 -0.22721879 -0.21165706 -0.079973556 -0.11910895 -0.2509767
-0.15923281 -0.22097583 0.3252839 -0.2432586 0.028821403 0.29802328 0.091383435 -0.2296024
0.14724028 0.19456172 -0.11262407 0.23480752 -0.14363062 0.09082025 -0.23555656 -0.0482195
0.08276816 0.27723807 0.06407161 0.09285891 -0.109461546 -0.22534843 -0.29682356 -0.20623623
-0.3271479 -0.068754725 0.15137114 0.14273779 -0.24241014 0.12729421 -0.32364488 0.001235581
-0.24016583 0.02996794 0.1677037 0.027629798 -0.101476215 0.02411363 0.04400947 -0.27294794
0.05927741 0.11123631 -0.3093737 0.045103054 0.06760237 -0.20149888 -0.030849332 -0.2990739
-0.045991782 0.22946562 -0.20953868 -0.32041943 0.10843379 0.29245073 -0.049215026 -0.30694422
0.18355797 -0.11674861 -0.14030382 -0.02944932 0.07069794 -0.29162544 -0.2480356 -0.04342342

subnets.0.attn.in_proj_bias f4 [42]
00000000: 0000 0000 0000 0000 0000 0000 0000 0000
00000010: 0000 0000 0000 0000 0000 0000 0000 0000
00000020: 0000 0000 0000 0000 0000 0000 0000 0000
00000030: 0000 0000 0000 0000 0000 0000 0000 0000
00000040: 0000 0000 0000 0000 0000 0000 0000 0000
00000050: 0000 0000 0000 0000 0000 0000 0000 0000
00000060: 0000 0000 0000 0000 0000 0000 0000 0000
00000070: ded6 d63d f8bb 183e e9f8 0abe 11a4 203e
00000080: 7342 f0bd 3bc2 a6bd 9b44 5c3e ec2b c73d
00000090: 4a1b a9bd 7caf 9abd 4a7f 9bbd 39ad 203b
000000a0: 5e75 d0bd 290f b5bd
0.0 0.0 0.0 0.0 0.0 0.0 0.0 0.0
0.0 0.0 0.0 0.0 0.0 0.0 0.0 0.0
0.0 0.0 0.0 0.0 0.0 0.0 0.0 0.0
0.0 0.0 0.0 0.0 0.104902014 0.14915454 -0.13571514 0.15687586
-0.11731424 -0.08142515 0.21510546 0.09725174 -0.08257158 -0.07553002 -0.07592638 0.0024517311
-0.10178636 -0.08840782

subnets.0.attn.out_proj.weight f4 [14, 14]
00000000: 9f2d cb3c b2b8 38bf 0e30 b5bd c6ae 8f3d
00000010: d631 e63e f1d1 793d 3e99 3ebf c722 a7be
00000020: 6edc cfbd 6dff 573d 6b32 9e3e 1717 16bd
00000030: eb3e 923d a35d bfbd 3fe6 f53d d6f9 c53e
00000040: e1dd 96be 1817 a83d a147 5b3d b53f 3fbd
00000050: 918c 2c3f 2e79 703e d359 87be 774a 15bc
00000060: 0e21 d7be 1564 e0bd 796d 49bd 6614 c1bd
00000070: 9563 763e 27b7 253f bc9c 05bf dba6 943e
00000080: 5e45 f3be a513 09bf e121 f33e e297 013d
00000090: 1678 863d 6ad9 41bd d423 ccbe cd9a f13b
000000a0: ca76 25be 68a4 093e 72e3 d13e adcb 2cbf
000000b0: 31af 1bbf 2a7c 54bd 34d1 da3e efd0 843e
000000c0: 3d7b a2be 1204 ab3e d0d3 f1bd 867c 47be
000000d0: f25e 083f def6 0ebe 450b 5bbe ea43 953d
000000e0: 4daf 993d e1f7 25bf 56aa d4be d009 c73d
000000f0: 97cc e03e 429d 943e 32bb 16be 3ad6 673e
00000100: 7d0a 21bd 9c54 e63c c78b cd3e 4b1d f53d
00000110: 2c59 6bbe eb9b d73c a1ad 78bd db11 69be
00000120: 2652 973e 729d 24be 64cd ffbd d511 0e3e
00000130: 741f d2bc f929 95be d140 b5bd 8dae 18bd
00000140: 85d5 3fbe c242 3cbe 5c62 67be 7ec2 33be
00000150: 543d 35be e51c c03d 23a4 3a3e 6a5a ee3d
00000160: 7f6a d23d bf81 8b3e c354 3dbd 91a3 af3e
00000170: 4112 0b3e 9d82 de3c f867 ac3e 4aef c7be
00000180: d8fd 45be b6fe fdbd 0557 003e 0b52 febe
00000190: 1e5d 4a3e 042e 97be 518f 083d e1d4 42bd
000001a0: e8ab 6dbe efce ccbe 677b 923c e285 363c
000001b0: 228f 053f 31dc fd3e 190b 943d f923 d53d
000001c0: ee82 c3bb 5dcf 20be 0261 ad3e 0b19 b83d
000001d0: ebad 6b3e 0d05 ce3e 8288 51be d142 2f3e
000001e0: fa4d 563d f372 54be 3b68 033e ba07 54be
000001f0: c3a4 25be 770d c83d 3b06 073e c536 c83e
00000200: b4fc eabe 52db 913d ba00 93be 4690 ee3c
00000210: 1cb1 ab3e 49c5 943e 26d7 04be 3f69 11bc
00000220: ca8b 643d 24b0 a43d 5f1c 9ebe 4b45 24be
00000230: 80ab 02be 3525 c4bd e82a 983e 67dd 0a3e
00000240: 6d5a 40be d4af ebbe 8c36 7fbd eaeb 913e
00000250: e550 af3e e52c a5be 8f64 3b3e cab8 1ebd
00000260: a66a f03d 187b 903c e4b2 0c3c 1153 dbbe
00000270: bb92 96bd 3fa8 a33e 3295 a63e 4121 c83e
00000280: 8ae6 01be 5c25 cf3e 8ed3 cdbd 388e ed3d
00000290: 1cd9 003f d209 343e 93e4 eb3b d6ba dbbd
000002a0: 7c2b d6bd 1f51 2fbd 3131 51be 337a a53b
000002b0: b343 9dbd cc62 08bf d446 a8bc 2a2c 9dbc
000002c0: d4a9 85be 8bc5 ad3c 7a11 0c3e 04ab 053f
000002d0: e935 abbe 5f17 26be 2ffe 51be 70e5 aebe
000002e0: 7889 d0be a07a 043e 4e21 03bf 8e5c c7be
000002f0: b528 133d 5a3b 9bbd 14cc 753e d126 873c
00000300: a04f 173e 4a5f dc3e 70f2 be3d 1d5b 9abd
0.024802027 -0.7215682 -0.08847056 0.07015757 0.44959897 0.06099123 -0.7445258 -0.3264372
-0.101494655 0.052733827 0.3089784 -0.036643114 0.07140907 -0.09344032 0.120068066 0.38667172
-0.29466155 0.0820753 0.053535108 -0.046691615 0.6740199 0.23483726 -0.26435718 -0.009111992
-0.42017406 -0.10956589 -0.049176667 -0.09427719 0.24061425 0.64732593 -0.5219228 0.2903355
-0.4751386 -0.535456 0.47486785 0.031638987 0.06565873 -0.047326483 -0.39871085 0.00737319
-0.16158596 0.13441622 0.4099384 -0.67498285 -0.60814196 -0.051876225 0.42737734 0.25940654
-0.31734648 0.33401543 -0.11807978 -0.19481096 0.53269875 -0.1396136 -0.21391018 0.07288344
0.07504139 -0.6483136 -0.41536206 0.097186685 0.4390609 0.29026228 -0.14719847 0.22640315
-0.039316643 0.028116517 0.40145704 0.11968478 -0.22983235 0.026319465 -0.06071246 -0.22760718
0.29554862 -0.16075686 -0.12490347 0.1387399 -0.025649764 -0.29133585 -0.088502534 -0.03727584
-0.18733795 -0.18384841 -0.22596115 -0.17554662 -0.17699176 0.09380511 0.18226676 0.11638339
0.10274219 0.27247426 -0.046223413 0.3430448 0.13581182 0.02716189 0.33673072 -0.3904975
-0.19335115 -0.12402098 0.12533195 -0.4967197 0.19762084 -0.29527295 0.033339802 -0.0475663
-0.23210108 -0.40001628 0.017881108 0.011140319 0.5217153 0.49582055 0.07228679 0.10407252
-0.005966536 -0.15704103 0.33863074 0.089891516 0.23015563 0.40238228 -0.2046223 0.17115332
0.052320458 -0.20746975 0.1283273 -0.20706072 -0.16176133 0.09768193 0.1318597 0.39104286
-0.45895922 0.0712191 -0.28711492 0.02912153 0.3353356 0.29056767 -0.12972698 -0.00887519
0.055797376 0.08041409 -0.3088102 -0.16042058 -0.12760735 -0.09577409 0.29720235 0.13561021
-0.18784495 -0.46032584 -0.06230788 0.285003 0.34241405 -0.32260814 0.18300079 -0.038750447
0.117390916 0.01763682 0.008587573 -0.42836812 -0.07352205 0.319643 0.32535702 0.3908787
-0.126856 0.4045819 -0.100501165 0.11599392 0.5033128 0.17581871 0.007198879 -0.107289955
-0.10457513 -0.042801972 -0.20428921 0.0050499677 -0.07678928 -0.5327575 -0.020541586 -0.019186098
-0.2610613 0.02121236 0.13678542 0.52214074 -0.33439568 -0.16219853 -0.2050712 -0.34159422
-0.4072988 0.12937403 -0.51222694 -0.389378 0.035927493 -0.0757968 0.24003631 0.016498001
0.14776468 0.4304145 0.09323585 -0.0753691

subnets.0.attn.out_proj.bias f4 [14]
00000000: 0404 cfbe 1821 5b3e 2222 313d f0e6 42be
00000010: 1455 a3be ccbd f6bb 73a3 aebb 0f54 c33e
00000020: 2b12 4a3e 08a3 5e3e 3771 4abd 2027 f03d
00000030: abb9 f93d 8bed 853d
-0.4043275 0.21399343 0.043245442 -0.19033408 -0.31900847 -0.00752995 -0.0053295433 0.3815007
0.19733493 0.21741879 -0.049424376 0.117262125 0.121936165 0.06539448

subnets.0.hidden_layers.0.weight f4 [16, 14]
00000000: 6f8e d9bd a341 803e 969d 153f ff21 48be
00000010: 04ce f3bd 1b67 2f3e 57de 83be 86a1 55bf
00000020: cc1b f4be d93f d1bc e6f7 d03c e7aa 0fbf
00000030: 4128 2a3e 520a 623e cb01 1ebf bfaf 053f
00000040: 17a9 e43e 8bb6 01bf 4ae9 26bf 4b2f 023c
00000050: b4d6 35bd 8de2 2cbd 26b1 1b3e c958 783e
00000060: 0533 80be cdde dfbe 871d 0a3d 4d77 103d
00000070: c995 9bbc 1719 6c3e edf6 f93e fcf7 c3be
00000080: e3f7 77bd e918 b6be b0b9 bbbd 7717 29bf
00000090: 4fa1 86be 069e af3e 670e 193e f10c c9be
000000a0: af7f 0abc 87a1 2cbe 7e74 053d caaa 2c3e
000000b0: 4a76 d6bd 89e0 ec3d f996 603d 0164 8a3d
000000c0: 3822 1e3e 401c 80be cd4d f33d 9e58 d53d
000000d0: 81a8 363e 55af f9bc f3de f9bd 5b6e 9b3e
000000e0: dabd 0d3e a504 bb3d 4ef1 b43d d114 ac3c
000000f0: 329e 513e cc18 393e 69bc d33c b5f9 89be
00000100: 8cba ac3d c343 41bd cc95 82be 2a80 973c
00000110: 84a3 053e 5b62 143e 0bdb 99be 0d5c 053e
00000120: 057d 8c3e 7149 1fbe 847c 27be 4097 5f3d
00000130: cac2 89bd f963 15bf 1011 2ebe 6ddf 9aba
00000140: 6752 31be 3917 e5be 8fda 25be 185f 1bbe
00000150: 3320 abbd 82b0 483e 770f 30be 4563 003f
00000160: e2cc c43e b3f2 80be 786e 413f bd9f 58bf
00000170: 8e95 363c 5b02 863e 2fd8 abbb 1eb1 a03e
00000180: 6975 00bf 13df e1be 4f6f 0b3e 004c 37bd
00000190: 2698 af3e 3170 153f bdf8 0f3e 07be 3fbe
000001a0: 1033 43be e501 033f 8248 3ebe c86d da3d
000001b0: c8b3 b43d 81e0 4a3e 697b 263f 9ad4 4e3f
000001c0: cc85 e73e 1846 a2be 3d99 c1be 62ed a3bd
000001d0: 358d 5b3e df26 b63b 84f8 053e d406 553c
000001e0: aa8f 003c fb4c b3be 4175 083d 9805 24be
000001f0: 0485 533e ca5f a8bc 08e1 8d3d f9bb f33c
00000200: 9c02 453e d59e b5bc df56 1ebe f9a5 44bd
00000210: 769e cbbb dced 2bbe f0eb 7dbe 8db6 683b
00000220: fb56 043e 757e bcbd 8e18 7d3c 7aa5 26be
00000230: 1c54 ac3d 0a97 68bd 2731 ea3d a541 323e
00000240: 57a5 03be d153 993e 7e5e 3f3e caf4 6bbe
00000250: 5fe4 043e 8d69 1b3e 65f7 8cbd 4379 f33d
00000260: 671d 723e 1ccc 0c3e ad0e 43bd 8602 aabe
00000270: ae39 0bbf 8c02 47be b68b aa3c bf5a f6bc
00000280: 8b99 193c 1637 053f 486a c63e 78ce 67bd
00000290: a0bd bebd 92ab 913e 8489 1c3b 1d0c 91bd
000002a0: 44eb 083f ca77 cbbd 91da 963e e2c2 0d3d
000002b0: 0528 d1bd 3a87 c43e af9e 6a3e f369 b1be
000002c0: d64e 2bbe a2e1 0fbf faae a33e dc8c 09bf
000002d0: 65e7 4bbe ebd7 be3e 0478 8bbe 0081 683e
000002e0: c181 cc3e 61fb a8be 0062 a6be 4ff6 d33c
000002f0: 1b62 17be 2572 a3bd 17e8 0fbe 7b0f 9a3e
00000300: e77e 823e a33a 9a3d 31cb c6bb b4d2 b9bd
00000310: e8c6 103f 9eea cabe be72 f3be 3890 563f
00000320: 435e e73e 91c6 f73c 9206 743e 486c c63d
00000330: 7b16 aa3e e0c4 efbe 56d5 16bd 6344 ea3e
00000340: bbdf 00be 89df 1f3d c446 3b3e 424f 693e
00000350: 56c7 1abd 22e0 873d 786c d33d eaeb c8bc
00000360: 4f7b 34be 3f9f 08be bc7f fe3d 1582 35be
00000370: 26d1 813d f4d8 fdbd 42f9 bc3d 192a 033d
-0.1062287 0.25050077 0.5844358 -0.19544218 -0.11904529 0.17129175 -0.2575557 -0.8344959
-0.47677457 -0.02554314 0.025508832 -0.5612015 0.16616918 0.2207425 -0.61721486 0.5222129
0.44660255 -0.50669163 -0.6519972 0.007945846 -0.04439421 -0.042208243 0.15204296 0.24252619
-0.25038925 -0.4372467 0.033719566 0.035270024 -0.018992322 0.23056446 0.48821202 -0.38275135
-0.060539138 -0.3556588 -0.091662765 -0.6605143 -0.26294944 0.3430025 0.149469 -0.39267686
-0.008453294 -0.16858493 0.0325818 0.16862026 -0.104717806 0.11566264 0.05483148 0.067573555
0.15442741 -0.25021553 0.11880074 0.10417293 0.17837717 -0.030479113 -0.12200727 0.30357632
0.13841954 0.09131745 0.08835088 0.02100602 0.20470503 0.18075866 0.025846677 -0.26948324
0.084340185 -0.047183763 -0.2550491 0.01849373 0.13050658 0.14490645 -0.3004993 0.13023396
0.27439132 -0.1555536 -0.16356093 0.054587603 -0.06726606 -0.5835567 -0.16998696 -0.0011815854
-0.1731659 -0.4474428 -0.16196655 -0.15172994 -0.08355751 0.19598582 -0.171934 0.50151473
0.38437563 -0.25185165 0.75559187 -0.8461874 0.011144055 0.26173672 -0.005244277 0.3138513
-0.50179154 -0.44115505 0.1361668 -0.044750214 0.34295768 0.58374316 0.1405973 -0.18724833
-0.19062448 0.51174766 -0.18582347 0.1066547 0.08823353 0.19812204 0.6503206 0.80793154
0.45219266 -0.31694102 -0.37812224 -0.080042616 0.21440585 0.005558833 0.13083082 0.013002116
0.007846752 -0.3501967 0.033314947 -0.16017759 0.2065621 -0.020553488 0.06927687 0.029752718
0.19239277 -0.022170464 -0.15462826 -0.048009846 -0.0062139584 -0.16789955 -0.24797034 0.00355092
0.12923805 -0.09203807 0.015447749 -0.16274062 0.0841448 -0.056784667 0.11435156 0.17407854
-0.12856041 0.2994676 0.1868839 -0.23042598 0.12977742 0.15176983 -0.06883124 0.11888363
0.23644029 0.13749737 -0.047621418 -0.3320505 -0.5438489 -0.19434565 0.020818572 -0.030072568
0.009374986 0.5203718 0.3875296 -0.05659339 -0.09313512 0.2845121 0.0023885677 -0.070823886
0.53483987 -0.09934957 0.29463628 0.034609683 -0.10212711 0.3838442 0.22912095 -0.34651145
-0.16729292 -0.56203663 0.31969434 -0.5373056 -0.19912489 0.37274107 -0.27240002 0.2270546
0.39942744 -0.33004287 -0.32496643 0.025874285 -0.14783518 -0.07980756 -0.14053379 0.30089936
0.25487444 0.07530715 -0.006066703 -0.090733916 0.56553507 -0.39632124 -0.4754848 0.8381381
0.45189103 0.030246051 0.23830631 0.09688622 0.33220276 -0.4682989 -0.036824547 0.457553
-0.12585346 0.03903154 0.18288714 0.2278414 -0.037787758 0.06634547 0.10323423 -0.024526555
-0.17625163 -0.13341998 0.12426707 -0.17725404 0.0633872 -0.12394896 0.0922723 0.03202257

subnets.0.hidden_layers.0.bias f4 [16]
00000000: 9fa3 0ebf a7b6 473f cffa 36bf 146c bcbe
00000010: b0f2 9ebd e741 22bf a9a8 103f 82ff b23e
00000020: 5ff0 efbe 5b28 043f 8354 c9be ed20 f73e
00000030: 40d1 09be b6dd 003f 0373 e6be 0f9e 8abe
-0.55718416 0.7801308 -0.71476454 -0.36801207 -0.07761133 -0.6338181 0.56507355 0.34960562
-0.46863076 0.5162408 -0.3932229 0.48267308 -0.13458729 0.50338304 -0.45009622 -0.27073714

subnets.0.hidden_layers.2.weight f4 [16, 16]
00000000: 6af2 9bbe 153c 973e 7c45 38be cc16 193e
00000010: 1459 5cbe 51cc 39be 085f 55bf 59c2 283d
00000020: d6ed ccbe 3123 f33d e6dc a13d c831 e63e
00000030: 8e40 ddbe 3178 c13e c8a4 d3bf 09de 623e
00000040: faf6 e7be 5c4f aabf f71f e93d bb2f 3dbb
00000050: 3db2 5ebe 379a adbe 6b7f 5d3f 730d 6abe
00000060: f13e 6cbd dfcd 9fbf a453 29bc a8f3 88bd
00000070: a67b 493e e0e5 9dbf 2de8 8f3e 3085 203d
00000080: 8604 5d3e b38f a03e 87f0 363e 1459 71be
00000090: 3834 913d 1b66 563e c36c f4be c728 b2bf
000000a0: 103a bd3d a173 723d 57a8 33bc 6bcc 7cc0
000000b0: 4d35 893d a8af 423e ecac 74be b202 553e
000000c0: 3dda d7be 1152 7d3e e8b0 debe 992c 6f3e
000000d0: 47ec 38bd 2401 18bf 44b8 f7be e584 1fbe
000000e0: 50dc 20be 0ad5 7fbd dae3 5b3e 12e5 6c3c
000000f0: 927f 7fbd bbe5 b13e 0eb7 f63d e594 e3bd
00000100: 81a1 c9bd 71c6 e83d e189 1fbe 9891 c8bd
00000110: 20fb 7b3e 949b 273e ae03 54be 8cb2 d2bd
00000120: cbfb d7bc f9af 27be c4b5 4dbe b002 0fbe
00000130: 3088 b13d c7b0 76be b06a a3bd 5ef6 2b3e
00000140: 9252 d3bb a66c c1ba 7e83 6f3e 083c 2dbe
00000150: 3802 07be b43c 6dbe 7e22 d83d 820e 9abc
00000160: 1829 313d 4777 bf3c ff97 56bd e0c2 c0be
00000170: 2299 a83b 9080 0cbe b04c debd f474 163e
00000180: 1d65 9dbe f131 aa3e b569 0abf 5b00 47be
00000190: 7235 933e 6054 e3be 4c0b 1dbf 9c24 bd3e
000001a0: 43b8 423e a7e6 5e3e f26b c7bd 019b 093e
000001b0: 365e 0bbf 5581 6d3e 7d86 58bd 9ed6 25be
000001c0: 22e7 343e 6c12 8abd 047e 5abe 9c84 803d
000001d0: 1c5f 483e d4ca 8f3d fd53 1f3e 8ec4 68bd
000001e0: ac84 8abc 93d8 3abe e0af 743d b686 7abe
000001f0: 6041 a43c c01f 3dbe 1658 75be b0e5 9a3c
00000200: 1c08 34bf d01e 05bf e376 c2be ff64 853d
00000210: 68b9 74bd f6d5 bebe 1163 99be f88e e9bd
00000220: 52d8 c93e ce71 b7be 9c6c a43d 554a 4e3e
00000230: 61dd 1cbe a14b a3bd 0ef0 173f 9045 213e
00000240: ff30 c5be 2834 353f 104a bcbe 7c42 00be
00000250: 1923 52bc 7e44 9ebe 0ff5 5fbd 2c79 d2be
00000260: bc24 b63d d351 bb3e c2a9 d8bd 64a9 7fbe
00000270: 1954 ca3e f3a3 d43e 465e d43d b122 c6bc
00000280: 97c6 0fbc e0d3 88bc 338c a9be 3091 ab3d
00000290: ef1d c8bd fdee 90bd 77b1 8e3d d56f 92be
000002a0: 42ed a8be b1f2 77be 4827 523e 923e ccbe
000002b0: a10b 633e 804a 6abd d03e f83c c03d ecbc
000002c0: 0f69 bb3d 7ed4 e93d 3081 d6be e151 0ebe
000002d0: bef6 0ebe 1aa3 dfbf 10f7 82bc a575 253f
000002e0: c351 bf3f 5e34 7d3e 8d10 213d 455c df3e
000002f0: 110c 793e c320 a73d 0b7a 3ac0 d377 403e
00000300: cbc2 16c0 b458 023f 152f e0bf d00c fcbd
00000310: 2694 cd3c b595 80bf 9dd6 c03e 732b e53d
00000320: e08d 3ebf 3514 513e 0eaa 33bc c315 b13e
00000330: 6329 2bbf 8c95 be3e 0c46 e8bc 316b 2b3e
00000340: ff98 c1bc e677 943d bac4 47be 2035 d83c
00000350: 90bf 1bbe baf0 a33d 4810 be3d 60ec c6bd
00000360: 7a3a f13c 6278 a3be 986c 5e3e b1a0 aabe
00000370: 3327 323e fd63 55be 24df 68be 5838 6c3d
00000380: 80c6 c23c 0a57 25be c80b 043e 0c6a 58be
00000390: c09c 023d 38da 97bd b820 2abd abfb 003e
000003a0: 2828 5dbe c876 babd e237 73be 7180 6fbd
000003b0: a860 3cbe 0c08 36be 9a2e 30be e047 0d3c
000003c0: cf33 e7bd 3152 c63e 8aa4 60bd 1bb1 e7bd
000003d0: d0a3 333e 3be6 a8be 9b79 913e 3adf 5fbe
000003e0: 4356 4c3e 3778 e3bd 8798 023e 8b0e a53d
000003f0: 4a42 e83d 69e9 2b3e 83bf 3abf b96a 9ebd
-0.30458385 0.29538026 -0.17995256 0.14950103 -0.21518356 -0.18144347 -0.8334813 0.04120097
-0.40025204 0.118719466 0.07903461 0.44959855 -0.43213314 0.3778701 -1.6534662 0.22155012
-0.45305616 -1.3305469 0.1138305 -0.002886756 -0.2174768 -0.3390672 0.8652255 -0.22856693
-0.057677213 -1.2484702 -0.010334883 -0.06687099 0.19676074 -1.2335777 0.28106824 0.039189517
0.21583757 0.31359634 0.17865191 -0.23569137 0.07090038 0.20937388 -0.4773923 -1.3918694
0.0923959 0.059192304 -0.010965428 -3.9499767 0.066996194 0.1901232 -0.2389409 0.2080181
-0.4215869 0.24738337 -0.43494344 0.23356856 -0.045147207 -0.5937674 -0.4838277 -0.15578039
-0.15709043 -0.06245903 0.21473637 0.0144589115 -0.06237752 0.34745583 0.12046634 -0.11112384
-0.098452576 0.11365975 -0.1557994 -0.09793395 0.24607515 0.16367942 -0.20704529 -0.10287961
-0.026365181 -0.16375722 -0.2008887 -0.13965869 0.08668554 -0.24090873 -0.079793334 0.167932
-0.006449052 -0.0014757111 0.23390004 -0.16917431 -0.1318444 -0.23167688 0.10553454 -0.018805746
0.04325208 0.023372306 -0.05239105 -0.37648678 0.005145208 -0.13720918 -0.10854471 0.14693052
-0.30741206 0.33241227 -0.54067546 -0.1943373 0.28751713 -0.4440031 -0.6134536 0.36941993
0.19015603 0.21767674 -0.09737386 0.13438036 -0.5444063 0.23193868 -0.052862633 -0.16195151
0.17666295 -0.06741795 -0.21337134 0.06275293 0.19567531 0.07021108 0.15559383 -0.056828074
-0.016908966 -0.18246679 0.05973804 -0.2446545 0.020050704 -0.18469143 -0.23959383 0.018908352
-0.70324874 -0.5200014 -0.37981328 0.06513404 -0.05974713 -0.37272614 -0.29958394 -0.11404222
0.39422852 -0.35829014 0.08028528 0.20145543 -0.15318824 -0.079734094 0.5935067 0.15749192
-0.38513944 0.7078271 -0.36775255 -0.12525362 -0.012825751 -0.3091163 -0.054677065 -0.41108072
0.08893725 0.36585864 -0.10579254 -0.24966961 0.39517286 0.41531333 0.10369544 -0.024186464
-0.008775375 -0.016702592 -0.33114776 0.08377302 -0.097713344 -0.070768334 0.069674425 -0.28600946
-0.32993513 -0.24213673 0.20522797 -0.39891487 0.22172405 -0.057199955 0.030303389 -0.028838038
0.09150898 0.11417483 -0.41895437 -0.13898422 -0.13961312 -1.747165 -0.01598695 0.64632636
1.4946827 0.24727008 0.039322425 0.43625084 0.24321009 0.08160546 -2.913699 0.1879571
-2.3556392 0.509166 -1.7514368 -0.12307131 0.025095057 -1.0045687 0.37663737 0.11189928
-0.74435234 0.20417865 -0.010965837 0.34586915 -0.66860026 0.3722347 -0.028353713 0.16740109
-0.023632525 0.07249431 -0.19508639 0.02639252 -0.15209794 0.08004899 0.09280449 -0.09713054
0.02944683 -0.31927782 0.21721113 -0.33325723 0.17397766 -0.20838924 -0.22741371 0.05767092
0.023776293 -0.16146484 0.12895119 -0.21134204 0.03188777 -0.07414669 -0.04153511 0.12596004
-0.2159735 -0.09104687 -0.23751786 -0.0584721 -0.18396246 -0.17776507 -0.17205277 0.008623093
-0.112891786 0.38734582 -0.054844417 -0.11313077 0.17542958 -0.32988152 0.2841309 -0.21862498
0.19954781 -0.111069135 0.12753497 0.080594145 0.11340769 0.16788258 -0.72948474 -0.077351995

subnets.0.hidden_layers.2.bias f4 [16]
00000000: 5f1f b03e 89eb db3d 7d46 26be a796 c33e
00000010: 7d3d a7bd 50c3 21be 1462 fe3e 383a cbbd
00000020: 4005 60bf dcb7 183e 0ce5 e63c e2d5 fe3e
00000030: 6ea5 273f d38b 7dbe b9c8 27be 6a68 893e
0.34398934 0.10738284 -0.16237827 0.38200876 -0.08166025 -0.15797162 0.49684203 -0.09923214
-0.8750801 0.14913887 0.02818539 0.49772555 0.654868 -0.2476037 -0.16385163 0.26837474

subnets.1.attn.in_proj_weight f4 [42, 14]
00000000: 4adc 0cbc 40f5 143c c65f 61bc f365 7bbe
00000010: 7377 92be 9f1f 22be 2269 a63e 4015 2dbe
00000020: 1030 903e 8472 00bd 33ac 543e 41c3 903e
00000030: 0204 8ebe cee8 803d 8816 d7bd d529 0a3d
00000040: 81eb a0be 7c0c 02be f726 4c3b 7778 a53e
00000050: 095b 563d 26e6 5a3d 787d 1abd ccc8 4cbe
00000060: d3d8 9fbd c17c 98be 14ef a4be 1b5b 2cbe
00000070: e3c7 ef3d e0ca 8d3e de76 573d a980 b93d
00000080: 0ddd c93b 2597 a03e fec2 5ebe d116 aa3d
00000090: 8327 2dbe 39cb 01be f3b7 9fbe 8fde b1bd
000000a0: 205b 093d fb33 f93d 44fc 86be dd91 96be
000000b0: 0066 2f3d 9f6f 233e 911a eb3d 6614 c5bd
000000c0: 3724 283e a0e5 293e fa00 823e 4b66 cb3d
000000d0: 0e81 95be 1cf3 b23c 6f9a 303e e800 53bd
000000e0: b75a 47be 8c21 75bd c480 e83d 6517 14be
000000f0: b093 a2bc 55cf 443e a785 64be e578 383e
00000100: 13ef 723e 5f7c 32be 6f36 773d db4c 54bc
00000110: 2dfc 1cbe 2d3b a1bd acac 8b3d 103f 9a3e
00000120: 12ee 9a3e 2073 363d cd95 8cbe ad5a 8c3e
00000130: c4f0 773e 45c3 b73d cb3e 8cbe 829b 30be
00000140: c33e f7bd a67d 9ebe 0ac9 a0be 57dd cbbd
00000150: 3e6e a6be 4f3a 28be a61f 65be 6d95 3f3e
00000160: 0106 db3d 4812 40be 188d 86be a529 ca3b
00000170: 9bab 81be 6759 9ebd 4253 a53d 9fb3 853e
00000180: d9dc 9a3e 2258 b7bd 1178 b3bd 53bc e13d
00000190: d86a 88be 4f99 10be a4d6 2abe 7b54 973d
000001a0: 9f76 05be 34b4 3cbc f7a5 1abe 305e debd
000001b0: 8b54 383d 9f95 4abd 1709 28bd c221 253e
000001c0: 258a 42be 91e1 9a3e 358d 0fbe d52e ac3d
000001d0: 7f4c 49bd b32e 50bd 6c4d 64be 7dd6 39be
000001e0: 2ff8 31be b5f9 353e 8711 54bd d0d8 963d
000001f0: 1129 0bbe ebec 753e a075 3ebe 4cfe 85bc
00000200: 4272 613e 57ca 383d 04c9 273d 51ec 07bd
00000210: 35c3 5ebd 5f5e 39bd 27c4 9e3e 317c c0bc
00000220: e2c1 a03e 5ead 4fbd 3ac4 d2bb c467 1d3e
00000230: abd0 adbd c57b 0ebe 8da0 a3be c1d0 bf3c
00000240: e5cb e7bd e27d 26bd 7f82 063d e772 133e
00000250: 9f7e 063e b47b 97be 31fd 6e3e f121 453c
00000260: ac0b c43d e4ce 19be d2b0 463e 99cc 133e
00000270: 405d 6abe e301 f23d daf8 bf3d 937c 26bc
00000280: 0111 443e d097 6f3a 035b 72be b30d a33e
00000290: f3a3 8e3d 31c4 68be 6551 e93d 15f6 293c
000002a0: ca35 25be dd87 43be 5d54 7abe d1d5 8cbe
000002b0: f373 86be 5e6e 0f3e 73cb 883e 249d 703e
000002c0: 7695 ab3d 98a6 73be 2ce1 21be 4c1d c73c
000002d0: 1849 5c3e ee82 113e 1b33 65be 14f8 04be
000002e0: 85db 34bd a673 41be 6f24 8abd 2ac6 92be
000002f0: 2d22 c03d 1387 393e 1c72 79be 1b7b 91be
00000300: 3862 413d 2acf 35be 88bb 81be cba0 a5be
00000310: 770d a7be 5a25 9f3e afb9 0bbe c7d9 6c3d
00000320: d0f1 643e a594 87be 44a5 4e3e cf9d 513e
00000330: 8464 8b3e 384d 82be 7e18 6dbe f0ec a73d
00000340: 3a68 463e 3d31 f73d 7c35 383e ec9b 65be
00000350: 3920 87be d435 4bbe c637 29be d1ae 74bd
00000360: a91b 6dbe 7b7b 79be 79f8 13bd 6ac9 75be
00000370: 41ee 16be a6d9 31be 7c2b 443e a094 a1be
00000380: b889 783e 5fd1 9bbe 771d 86be 8110 4d3e
00000390: 9b2b b43d 4af0 ebbd 6695 96be 84ac 95be
000003a0: 6536 35be 166e 683d ac97 f5bd e0fd 72be
000003b0: e785 56be d510 923e 0a79 873e 7abc 0a3d
000003c0: 15ad 313e 4be8 80bd 83a0 e23d 8762 ee3d
000003d0: 3be0 453e e692 993d 58d8 8a3e 5718 2dbe
000003e0: 181e 393d f470 a4bd 80eb 17be 920d 783c
000003f0: c4f7 3fbe f1ae 9abe 28ff 00be 1ce1 babc
-0.008597443 0.009091675 -0.013755744 -0.2455061 -0.28606758 -0.15832375 0.32502085 -0.16902637
0.2816167 -0.03135921 0.20768814 0.28273967 -0.27737433 0.06294404 -0.10502344 0.0337313
-0.31429675 -0.12700075 0.0031151155 0.3231847 0.05233291 0.053442143 -0.037717313 -0.19998473
-0.07805028 -0.2978268 -0.32213652 -0.16831629 0.11708047 0.27693844 0.052603595 0.09057743
0.0061603845 0.31365314 -0.21754071 0.08305133 -0.16909604 -0.1267518 -0.3119503 -0.08685028
0.03353417 0.121681176 -0.26364338 -0.2940816 0.042821884 0.15960549 0.114796765 -0.09623031
0.16420065 0.16591501 0.2539137 0.0993162 -0.29200023 0.02184444 0.17246412 -0.051514536
-0.19468199 -0.059846446 0.11352685 -0.1446205 -0.019845814 0.19219716 -0.2231661 0.18014868
0.23724012 -0.17430256 0.060354646 -0.012957777 -0.15330572 -0.07872615 0.06820044 0.30126238
0.30259758 0.044543386 -0.2745804 0.2741293 0.24212939 0.089727916 -0.27391657 -0.17246822
-0.12072518 -0.30955237 -0.3140338 -0.099543266 -0.32505983 -0.16428493 -0.22375354 0.18709345
0.106945045 -0.18756974 -0.2627952 0.006169515 -0.25326237 -0.07731896 0.08072521 0.26113603
0.30246618 -0.08952357 -0.08763135 0.11022248 -0.26644015 -0.14120983 -0.16683441 0.0738916
-0.13033532 -0.011517573 -0.15102373 -0.108578086 0.0450025 -0.049459096 -0.041024294 0.16126159
-0.1899801 0.3025022 -0.1401871 0.0840737 -0.049145218 -0.050825786 -0.22295159 -0.18148227
-0.17379831 0.17771037 -0.051774528 0.073655725 -0.13589884 0.24016158 -0.18599558 -0.01635661
0.22016242 0.04511484 0.040963188 -0.033184353 -0.054385383 -0.045256015 0.31009027 -0.02349672
0.3139792 -0.050702445 -0.0064320834 0.15371615 -0.08487066 -0.13914402 -0.31958428 0.023414971
-0.11318187 -0.040647395 0.032839295 0.143993 0.1313424 -0.29586565 0.23338772 0.012032018
0.09572539 -0.15020329 0.19403389 0.14433517 -0.22887135 0.11816766 0.093736365 -0.010161537
0.19147111 0.0009139748 -0.2366753 0.3184639 0.069648646 -0.22731091 0.11392478 0.010373612
-0.161338 -0.19094796 -0.24446245 -0.2750688 -0.26260337 0.14006945 0.2671772 0.23497444
0.08378117 -0.23794019 -0.15808553 0.024305962 0.21512258 0.14210102 -0.22382776 -0.1298526
-0.044154663 -0.18891773 -0.067452304 -0.28666812 0.093815185 0.18117933 -0.24359936 -0.28414235
0.04721281 -0.17754808 -0.25338387 -0.32349238 -0.3262746 0.31083184 -0.13645051 0.057824876
0.22357869 -0.26480594 0.20180231 0.20470355 0.27225125 -0.25449538 -0.23153874 0.08199489
0.19375697 0.12069938 0.17989153 -0.2242276 -0.2639177 -0.19844753 -0.16525182 -0.05973703
-0.23155083 -0.2436351 -0.036125634 -0.24002615 -0.14739324 -0.17368183 0.19157213 -0.31558704
0.24271286 -0.30433175 -0.26194355 0.20025827 0.087973796 -0.11520441 -0.29410857 -0.2923318
-0.17696531 0.05674561 -0.1199182 -0.23729658 -0.20949517 0.28528467 0.26459533 0.03387115
0.17351182 -0.06294306 0.110657714 0.11639886 0.19323818 0.07498722 0.27118182 -0.16903816
0.045194715 -0.080293566 -0.1483593 0.015139954 -0.18746859 -0.30211595 -0.12597334 -0.022812419

subnets.1.attn.in_proj_bias f4 [42]
00000000: 0000 0000 0000 0000 0000 0000 0000 0000
00000010: 0000 0000 0000 0000 0000 0000 0000 0000
00000020: 0000 0000 0000 0000 0000 0000 0000 0000
00000030: 0000 0000 0000 0000 0000 0000 0000 0000
00000040: 0000 0000 0000 0000 0000 0000 0000 0000
00000050: 0000 0000 0000 0000 0000 0000 0000 0000
00000060: 0000 0000 0000 0000 0000 0000 0000 0000
00000070: 9acb 3ebe 18ba 4d3e d500 4d3e 8cd8 61be
00000080: e3aa a8bc 7225 693e 0c3b 9f3e fb4d 91be
00000090: ddab 41be 81f4 ae3e 6fb7 e63d fbd1 743e
000000a0: dd4f 493e 933e 5cbe
0.0 0.0 0.0 0.0 0.0 0.0 0.0 0.0
0.0 0.0 0.0 0.0 0.0 0.0 0.0 0.0
0.0 0.0 0.0 0.0 0.0 0.0 0.0 0.0
0.0 0.0 0.0 0.0 -0.18632355 0.2009052 0.20019849 -0.22055262
-0.020589298 0.2276819 0.31099737 -0.28379807 -0.18913217 0.34170917 0.11265456 0.23908226
0.19659372 -0.21508245

subnets.1.attn.out_proj.weight f4 [14, 14]
00000000: 0a4a b0bd 6739 79be bef3 b0bf 66d9 9a3f
00000010: 40b6 21be 077b ffbd 98e1 ca3d d43e 4dbe
00000020: e081 cb3e 5dce 283e 6ade 783d 0f2a 34bf
00000030: 32f3 63be 0a7f 7e3e ee6d 173e 0fbd b93e
00000040: 6832 973f 4dde 0fbf 55d0 88bd 62c7 ac3e
00000050: e8c0 6bbc a1e6 b3bc 9a0d 3dbe a712 693e
00000060: bf66 a93e 8e8a 343f 3389 7f3e 7c81 c5bc
00000070: 3340 82bd b975 713e f718 483f 320c 94be
00000080: db77 ea3e 2876 c33e 3173 243e 1cd7 dcbe
00000090: af2b 593e 15ee 003f 9cae 473e 3ec1 9d3e
000000a0: 795c 98be 04a5 2ebe ca5e 2cbd a5be a33c
000000b0: 9d58 c2bf b10e c53f 96e4 c83e e727 49be
000000c0: bb9b f0bd 7500 eebe 646b 073c a7cc a23e
000000d0: 5c8e 9abe ed2b 9cbe 6136 1b3d 7dd7 b63e
000000e0: 0475 f63d 0356 d1be 6042 30bf 0af9 563f
000000f0: 0fc2 e6bd 9464 84be a965 afbd a25a 6e3e
00000100: deff 51be b21e 8ebe e16a 8d3e bf8a f2be
00000110: 4c86 903e a5e2 c73e e5c2 67bd 6994 b03e
00000120: 13a9 3b3f dc69 1fbf 27d3 a33d c69c 1c3e
00000130: 8d1c 97be 063a 7dbe 28b6 a83b fad2 4a3e
00000140: 4ee7 e9be 9259 f13e 037d 413e 85a8 cdbe
00000150: 1dc4 323e b98b 72be d026 9ebf 60c9 3f3e
00000160: bbb4 943e 4f38 02be 74b5 cebd 6485 ea3e
00000170: 03b1 4c3e f5c9 74be d86f 5fbe da49 03bf
00000180: 8c9c 39be af97 f93c d090 1a3f 84f6 90be
00000190: 8fe1 913f 11d3 22bf 0629 e93d bd79 4bbd
000001a0: 0d98 11bf 9989 873e 70ec 1dbf 1943 27be
000001b0: a31e ecbd a7be 153e 9511 923e 1ec6 6bbe
000001c0: 34eb bbbd d660 ac3e 3d7a 223e f32d 98be
000001d0: 0125 173e 2021 bc3e 8585 903e 4572 2bbf
000001e0: 95f4 2bbe b066 c63e 0e52 b23e 4e9f 023f
000001f0: b77e 183d b66a f0be 7b5f 90bc 9eb3 893e
00000200: 8d33 c33f facd 37bf d31f a8bd 5d6b be3c
00000210: dbbd 913e 43dd 87be 4e15 32be a323 783d
00000220: 412d 233d 0268 4a3f b472 0abe 9c86 8dbe
00000230: 239a 12bf 4235 d43e 6d60 293e 13fa 083f
00000240: 7bfc 88bf 4771 183e f31f 583f e656 79be
00000250: 6b2a fd3e fd7d d33e 5fc9 823e e4b0 233e
00000260: 895a b6be 3bbf 32be 2ced 87be 5b2d dfbd
00000270: 88ac c33d d7e3 71be 3e7d 7d3e beba aebe
00000280: 5a37 8abe 0646 a23e 9bc3 9b3d 166d 0abf
00000290: 60db 2cbe 91f2 2bbf c444 debd 2bb7 ef3d
000002a0: 2478 29be 8d83 823e dc88 0f3f 909a 1bbf
000002b0: 0496 853e bc18 3a3e e911 52be f96f 913e
000002c0: a1db 863e e6ac 3fbe b3e8 7bbf 0703 e93e
000002d0: f368 90bd 5618 8ebe 25e6 b63e a876 953d
000002e0: 6c73 abbe 6202 133f 35ec babe 6dae 5dbe
000002f0: 78ad 0b3f 50d6 4cbf d581 293e 64b6 6c3e
00000300: d953 4f3f b7fb 06bf 1063 b63e 8e6a b23e
-0.08607872 -0.24338304 -1.3824384 1.2097595 -0.15792179 -0.124746375 0.0990631 -0.20043498
0.39747524 0.16484971 0.060758986 -0.70376676 -0.2226074 0.24853149 0.14788029 0.36277053
1.1812258 -0.5619858 -0.06680361 0.33745867 -0.014389254 -0.021960558 -0.1846222 0.22761022
0.33086202 0.7052392 0.24954681 -0.024109595 -0.06359901 0.23580064 0.78163093 -0.28915554
0.45794567 0.38176084 0.16059567 -0.43132865 0.2120807 0.50363284 0.19500202 0.30811495
-0.2975805 -0.17055136 -0.042082585 0.019988367 -1.5183293 1.5395108 0.39236897 -0.19644128
-0.11748453 -0.46484724 0.00826535 0.31796762 -0.30186737 -0.30502263 0.037893657 0.3571128
0.12034038 -0.40885934 -0.6885128 0.83973753 -0.112674825 -0.25857985 -0.08564312 0.23276761
-0.20507762 -0.27757794 0.27620605 -0.4737148 0.2822746 0.39040104 -0.05658235 0.34488228
0.7330486 -0.62270904 0.079992585 0.1529418 -0.2951397 -0.24729165 0.005148668 0.19807044
-0.45684284 0.4713865 0.18895344 -0.40167633 0.17457624 -0.23686112 -1.2355595 0.18729162
0.29044136 -0.12716793 -0.10093203 0.45804894 0.199894 -0.23905165 -0.21820009 -0.51284564
-0.18126124 0.030467836 0.60377216 -0.28313076 1.139696 -0.6360331 0.11384778 -0.049676646
-0.56872636 0.26472166 -0.616889 -0.1633419 -0.11529281 0.1462351 0.2852904 -0.23024794
-0.09175721 0.3366763 0.15866943 -0.29722556 0.1476021 0.36744022 0.28226867 -0.66971236
-0.1679252 0.3875022 0.34828228 0.5102433 0.03723022 -0.46956414 -0.017623654 0.2689485
1.5250107 -0.7179867 -0.08209195 0.023244554 0.2846516 -0.26535997 -0.1739094 0.06058086
0.03983808 0.79064953 -0.13520318 -0.2764176 -0.57266444 0.41446882 0.1654069 0.5350658
-1.0702051 0.14886962 0.8442375 -0.24349555 0.49446425 0.4130706 0.2554426 0.15985447
-0.35615948 -0.17455761 -0.26548135 -0.10897323 0.09554392 -0.2362207 0.24754807 -0.34126848
-0.26995355 0.3169405 0.07605668 -0.540727 -0.1688056 -0.67167 -0.1085296 0.117048584
-0.16549736 0.2549099 0.56068206 -0.6078272 0.26091015 0.18173498 -0.20514645 0.2840574
0.2633944 -0.187183 -0.98401946 0.45510122 -0.070512675 -0.27752942 0.3572246 0.072980225
-0.33486497 0.5742551 -0.36508337 -0.2164857 0.5456157 -0.80014515 0.16553433 0.23116452
0.80987316 -0.52727836 0.35622454 0.3484692

subnets.1.attn.out_proj.bias f4 [14]
00000000: e316 2fbe 7474 243e da0c ed3d f3f1 f5bd
00000010: e670 20be 9644 be3d dc79 fdbd cba9 f4bc
00000020: e7ad 253c 62b2 583e 822a 8e3b 2102 413c
00000030: e30d 0c3e 2f57 8fbd
-0.17098574 0.16060048 0.11574717 -0.12009039 -0.15668067 0.092904255 -0.123767585 -0.02986612
0.010112262 0.21161798 0.0043385634 0.011780293 0.13677172 -0.06999051

subnets.1.hidden_layers.0.weight f4 [16, 14]
00000000: 6acf 033f 3baf 27bd a1f0 9c3d 3a4c 983f
00000010: 9796 b43e 9490 fabe 2a82 5f3e a69f 903e
00000020: 435f 80be 917d e4be ffde 9bbe 69be a83d
00000030: a6c5 aebe 2001 b93e d626 69bf 4ba5 9a3e
00000040: b73f 8bbd e15a c3bf 97de 73be e8ec 2e3e
00000050: 5824 9cbe 9008 653e 7a7e 69be eb39 303f
00000060: 6fa9 dbbd ca09 9f3e 9d3b e03e 253c 7fbe
00000070: a613 29be d9fc d33d 5ca3 a43c ee4d 513e
00000080: c7e2 37bd 9814 0c3e c5b9 b63d 8bf2 97be
00000090: 64a4 9d3d 52ef ecbd 8031 b73e 9750 54be
000000a0: e9e2 a43d cfcd 37bd 29ff 723e 9d08 6f3d
000000b0: 7570 17be 8c03 fdbe aa9b c03d f2ad c2be
000000c0: ce66 2c3d 59f7 a4be 7406 62bd 4d5f 943e
000000d0: a282 a1bd 9e5a 8b3e 5f77 39bf ddc0 323f
000000e0: 738d 35be 1a5b e0be bf5d 343e 361b c73e
000000f0: ed19 0dbe 9350 a03d 9cd8 e13e 62ef 543e
00000100: f7eb 5fbe 0b50 8abe 44bd 86be df11 1c3e
00000110: 4f75 803f 3999 5abf 1556 a9be 814e 353d
00000120: a979 e7be 5699 4cbf 1d06 203c 7d35 b63d
00000130: 620c d53e 4c5c 443e 4031 c5be 67f5 77be
00000140: 4ca6 d4bd efb7 9b3e 8838 a3be 09ab c13d
00000150: 114a 26be 42bf e4be ab59 04bf 0b97 2bbe
00000160: 6603 f33e 2133 e3be fc7c 823e fcdf 2d3e
00000170: 6727 f4be b21c 11be 6d31 8a3d 030f 663e
00000180: 08ee 7e3d df69 3ebe a9e5 843d cc23 b9be
00000190: 3e5e 79bd d143 4d3f 25d2 13bd bda6 d1bd
000001a0: 0c09 dc3d e364 33bc fa7b 9dbe f19d 293e
000001b0: 19ea 793e 67f0 88bc 2d32 533d 9fcc febe
000001c0: 2fda 083f 8931 dcbe 1b94 23bf 323c a03f
000001d0: 80bb f13e 6f61 0bbe 83c0 ac3e 902c afbd
000001e0: fe33 d9be ec47 54bf 0c6f 02bf b18f a53e
000001f0: deeb c23d 0fd9 f8be 23eb 373f 40f5 d9bd
00000200: 59c5 123e 8c00 a43f e6b9 073e f450 b1be
00000210: cf81 103d 7736 59be c3ec 8cbe 1790 733d
00000220: e2d4 7b3d e4d1 a33e 9f9d 0e3e 3bf1 c43e
00000230: 5b40 8bbd 9c35 89be 9628 a4bd 0012 02bf
00000240: 3b62 18bd 984c 33be f813 d73e 25ae 023d
00000250: 3b17 a2be b90c b5be 82d0 b2be deaa fb3e
00000260: ac00 be3e 2a65 f8be 90bd 733e 47b5 393d
00000270: 0634 7d3e 2389 ed3d 0e8e c23d b21d 02be
00000280: ac88 a4bd 6027 9dbe 55a2 fe3d b7c5 143e
00000290: 8862 723e ddb3 433e 394b 89bd 9200 ffbd
000002a0: b41b 80be 0fd7 afbd e714 c8be 6fa6 1abf
000002b0: 5aca fe3e 6433 c6be cf9d 003c 5623 103e
000002c0: 7b38 f9be 2b0b 843c e1cd 64bd 46f6 973e
000002d0: dcb1 e1be b32a 443e e750 32bf 8456 9e3e
000002e0: 48b5 143e 66c6 6f3e 7343 c4be 7967 c03e
000002f0: 062e 94bd 9727 003e ae4b 0bbd 9ab0 143f
00000300: a47a cdbd 2fd8 d33c f9f4 493e 384b dabe
00000310: 99f1 453f b5be ac3e e17a 45bc bf1a 593e
00000320: 6ebd 7d3d b3d5 42be a64f 33bf df52 d2bf
00000330: c8dc 613f 488a f13e 97aa 6340 65ab 99bf
00000340: c3f8 66bf 6f93 3d3f 0521 183e 776e 1dbd
00000350: 7771 debb d1de 833e a323 afbd f091 b5bd
00000360: a6d1 d33d ccbc 503d a9ce cdbc 5cde 613e
00000370: 785c c5bd 779d 4bbe 72b8 41bc f209 e33d
0.51488364 -0.040938597 0.07663084 1.1898263 0.3527114 -0.4893843 0.21826997 0.28246802
-0.2507268 -0.4462705 -0.3044357 0.08239443 -0.3413517 0.3613367 -0.91074884 0.30204234
-0.06799262 -1.5262109 -0.2381538 0.1708256 -0.30496478 0.22366548 -0.22802153 0.68838376
-0.10725676 0.31062156 0.4379548 -0.24925287 -0.16511402 0.10350961 0.020097427 0.20439884
-0.044894006 0.13679731 0.089221515 -0.29677233 0.07697371 -0.11569084 0.35779953 -0.20733868
0.08051092 -0.04487401 0.23730148 0.058357824 -0.14788993 -0.4941677 0.094046906 -0.38023335
0.04209023 -0.3221996 -0.055181935 0.2897896 -0.07886244 0.27217573 -0.7244777 0.69825536
-0.1772974 -0.43819505 0.17613886 0.38887948 -0.13779421 0.07827868 0.44110572 0.20794442
-0.21867357 -0.27014193 -0.26316273 0.15241192 1.00358 -0.8539005 -0.33073488 0.04426432
-0.45210007 -0.7992147 0.0097670825 0.08896921 0.4161101 0.19175833 -0.38514137 -0.24214707
-0.10383281 0.30413768 -0.31879067 0.094564505 -0.16239192 -0.44677168 -0.5169932 -0.16756837
0.4746353 -0.44374946 0.2548598 0.16979975 -0.47686312 -0.14171103 0.067477085 0.22466664
0.062238723 -0.18595074 0.06489117 -0.36160123 -0.060880892 0.80181605 -0.03608908 -0.10236881
0.10743913 -0.010949346 -0.3075865 0.16564156 0.24405707 -0.016716195 0.051561523 -0.49765489
0.5345792 -0.43006542 -0.63897866 1.251837 0.47213364 -0.13611387 0.33740625 -0.085534215
-0.4242248 -0.82922244 -0.50950694 0.3233619 0.09517644 -0.48603103 0.71843165 -0.10642481
0.14333095 1.2812667 0.13254508 -0.34632075 0.035280045 -0.21212183 -0.27524385 0.059463587
0.061482318 0.3199607 0.13927315 0.38465294 -0.06799384 -0.26798713 -0.08015554 -0.50808716
-0.037203055 -0.17509687 0.42007422 0.03190436 -0.31658348 -0.3536127 -0.34924704 0.491538
0.37109888 -0.48514682 0.23802781 0.045338895 0.24726877 0.115984224 0.09499751 -0.1270664
-0.080338806 -0.30694103 0.12433306 0.14528547 0.23670399 0.19111581 -0.06703801 -0.12451281
-0.25021136 -0.08585941 -0.39078447 -0.6041021 0.49763757 -0.38711083 0.0078501245 0.1407598
-0.48675904 0.016118607 -0.055860404 0.2968008 -0.44081008 0.19156913 -0.696547 0.3092538
0.14522278 0.23415527 -0.3833271 0.37578943 -0.07235341 0.12515102 -0.03400772 0.5808197
-0.100331575 0.02585992 0.19722356 -0.42635512 0.77321774 0.33739248 -0.012053222 0.21201609
0.061948232 -0.19026832 -0.7004341 -1.643154 0.8822751 0.47175813 3.557287 -1.200543
-0.9022333 0.7405309 0.14856346 -0.038435426 -0.0067884284 0.25755933 -0.08551719 -0.08865726
0.10342722 0.0509613 -0.025122957 0.2205748 -0.09636778 -0.19884287 -0.01182376 0.11085881

subnets.1.hidden_layers.0.bias f4 [16]
00000000: a52d 2f3e c585 093f beee 72be 9a16 bd3e
00000010: 2921 8ebd 5b71 603d 0bb4 6d3e 173d 043e
00000020: 5f17 2fbe d879 b03e 2705 d2bd e48c 75be
00000030: 2397 ef3b 23e3 013f 5937 debe 6d6e 92be
0.17107256 0.5371974 -0.23723885 0.36931306 -0.069399185 0.054795604 0.23213212 0.12913929
-0.17098759 0.3446796 -0.10254889 -0.23979527 0.007311718 0.5073721 -0.43401602 -0.28599873

subnets.1.hidden_layers.2.weight f4 [16, 16]
00000000: b013 f73d 4069 5abe 4a80 65be 9e68 0cbe
00000010: 60cf 553e 2801 04bd 14cf b4bd 4854 6c3e
00000020: 26f0 6dbe 66e6 2d3e 98c8 3cbe 6697 7fbe
00000030: fc51 85bd a4cb 963d 1883 2abd 68ee 253e
00000040: c3ae 02be 58f1 573d ac53 47be 36ef d3bd
00000050: ebbf a13d 30a1 94be 30d1 0a3e 315a 86be
00000060: 8c6d bcbc a5c5 643c 7ecb 22be 20f4 5fbd
00000070: 4884 80be d6ee 93be ca54 47be 20a2 bcbc
00000080: 5ab9 1cbe c637 813e 60a6 73be 50ec a63e
00000090: da9f e8bd b751 583e de40 ea3c a383 bd3d
000000a0: 0324 903e 7466 6abe bb4e 523e 3db8 2dbe
000000b0: 23f9 6b3e c519 34be ca5b f83f c234 d63a
000000c0: 45c3 793e e74b ff3e a182 1d3e c71f 693e
000000d0: df4e dd3c 0d45 523e d9b5 823e 4c11 07bd
000000e0: 4926 8a3e 45fe 8c3e 5d45 3f3e 03bf 603e
000000f0: b3de d53e 318e 34bf 0b4c 533e 680a f1bd
00000100: 3390 383d 53d4 f8bd 5848 20bd 8498 66be
00000110: ef33 63be 1304 5dbe e518 14be a80b a93d
00000120: e2c2 4e3d a13c e8bb 2e4c c8bd 582e 5dbe
00000130: 8243 acbe 3083 453c 107f 03be 4e45 0abe
00000140: 3408 16bf 9168 6ebe 8821 9fbc 8e8d 26bf
00000150: c047 ee3e 3bb1 083f 56d4 783e b1ad 17be
00000160: 25c8 393f 416d 1bbf 46fa 303f 7755 073e
00000170: 915d 0a3d 8630 f6bd 0cb5 d23e 6ab9 1b3e
00000180: e62b a33e 242d 17be 44ef f6bd 3db7 19be
00000190: 86da d83e 1c94 383e 3672 f93e 4c6e ae3e
000001a0: 491d d53e ea5b 7b3e 037f c43e aefe 14be
000001b0: 9988 f83e f9ec cabf f3f9 e53e 0054 b1bc
000001c0: 2d8a 08bf 24d6 453f e36c bdbd 782b 023f
000001d0: c5a0 013e e050 953e b3f9 263e 36a7 1ebd
000001e0: c776 213e 0b3f 51be 4a19 ac3e 7fd2 483e
000001f0: e94f b13e d84e a1be 3250 37be 4741 adbd
00000200: 0b15 203e 8a56 6cbe 6e52 43be 0ca7 96be
00000210: 065a cdbc 5ec0 3abe 0215 023d 648d 903d
00000220: 1aa4 f5bc 6303 f5bd d71b 3abe 0029 ffba
00000230: b32b 153d c86b c23d ff1c 31be 92fa 463e
00000240: 9a7f aabe b956 4b3f 25c5 f53b 2c3b 01bf
00000250: 5abe 103f 7669 153d 8968 bb3e 428b d53e
00000260: 3842 253f 7693 85be b6b0 df3d 0633 97bd
00000270: e2b5 f6bc 0eee 663f 31ca a73f c2f8 61be
00000280: a0b6 a3be 47ea db3f 79a9 893d 1c04 a9bc
00000290: 42d5 08bd 701f 073d 1569 e3bd 7492 b8bd
000002a0: d408 bebe b83f 1dbf 8798 74bd 6637 843e
000002b0: 71a2 2abe 9955 7e3f d431 1b40 7f82 6dbd
000002c0: 26a6 6d3e 5268 413c 0ff6 27bd f188 9bbd
000002d0: 748e db3d e03f abbe 7785 00bd 381a f03d
000002e0: 0502 dd3e f7c0 9d3e 2eb6 8dbe 42de 0bbe
000002f0: e431 3dbe bba2 1a3f 91cc 2740 79b2 223e
00000300: 2029 70be e0aa 2b3d 46eb 4bbe bd49 84be
00000310: 6a2e 9fbd db7a 50be 2f13 063e 5f95 38be
00000320: 20ba 0abc f1f6 cdbc 5434 29be 5aa9 1bbe
00000330: 807e df3b 3bb9 a2bd 08c6 87bd 76e2 543e
00000340: 61a1 aebe 054f 88be 8307 963c b468 84be
00000350: 5ef9 d9bd 514d c93d 7f39 bf3d d48b 2bbe
00000360: 318b 2fbe 71f0 09bd 8d1b 823d 2e8f 0d3e
00000370: cd7c b93d f788 dcbd a413 a63d 6034 6dbe
00000380: f44e 0fbf 25d5 ba3f 64ba eebd 8e51 36be
00000390: c4a4 c33e 7d95 573e 8736 283e 98de cb3e
000003a0: b2ff ad3e 182e 4bbe 6f14 db3e d722 62bd
000003b0: e3fc 183d 0c4a 853f d53f b03f 372e f3bc
000003c0: a621 2e3e 6072 f4bd 12fd 61be 663d 57be
000003d0: 5cf9 63be c825 0ebe 3a36 39be b4c1 3a3e
000003e0: 5237 003e 1c7f 3abe 381d 29bd 147c af3d
000003f0: 00b5 5c3b d2d0 3cbe 5e9a 273e 9ea6 7bbe
0.12064302 -0.21329212 -0.2241222 -0.13711783 0.20879889 -0.032227665 -0.088285595 0.23079026
-0.2323614 0.16982421 -0.18435895 -0.24960098 -0.06509778 0.0736306 -0.041628927 0.16204226
-0.12761979 0.052720398 -0.19465512 -0.1034836 0.078979336 -0.29029226 0.13556361 -0.26240686
-0.023001455 0.013963138 -0.15897939 -0.054676175 -0.25100923 -0.28893155 -0.19465938 -0.023026526
-0.15305081 0.25237864 -0.23793936 0.32602167 -0.11358614 0.21124922 0.028595384 0.09253623
0.28152475 -0.22890645 0.20537846 -0.16964813 0.23044257 -0.17587955 1.9403012 0.0016342627
0.24390896 0.49862596 0.15381862 0.22766028 0.027015148 0.20534153 0.25529364 -0.03297548
0.26982334 0.27537742 0.18678804 0.21947865 0.4177147 -0.70529467 0.20634477 -0.11769563
0.045059394 -0.12149873 -0.039131492 -0.22519118 -0.2218778 -0.21583585 -0.14462622 0.082541764
0.050478823 -0.0070873057 -0.09780155 -0.2159971 -0.33645254 0.012055203 -0.12841439 -0.13503
-0.58606267 -0.23282076 -0.019425169 -0.65059745 0.46539116 0.5339543 0.2429975 -0.14812352
0.7257102 -0.60713583 0.69131887 0.13216196 0.033780638 -0.12020974 0.41153753 0.15207449
0.3186943 -0.14763314 -0.12057355 -0.15011306 0.4235422 0.18025249 0.4871995 0.34068525
0.41623905 0.24546781 0.38378152 -0.14550278 0.48541716 -1.5853568 0.4491726 -0.0216465
-0.5333584 0.7727988 -0.09249284 0.5084758 0.12658985 0.29163265 0.1630619 -0.038733684
0.15767966 -0.20434205 0.33613044 0.19611548 0.3463128 -0.31505466 -0.17901686 -0.08459716
0.15633027 -0.23079887 -0.19074413 -0.29424322 -0.02506734 -0.18237445 0.031758316 0.07058218
-0.029985476 -0.119635366 -0.18174683 -0.0019467175 0.036418628 0.09493214 -0.17296217 0.19431522
-0.33300477 0.79429203 0.007500308 -0.50480914 0.56540453 0.03647753 0.36603191 0.41707808
0.64554167 -0.26089066 0.10922377 -0.07382779 -0.030116025 0.9020699 1.3108579 -0.2206755
-0.3197527 1.7180871 0.067217775 -0.020631842 -0.033406503 0.032988966 -0.11104027 -0.09012309
-0.3711611 -0.6142535 -0.059715774 0.25823516 -0.16663529 0.9934936 2.4249163 -0.05798578
0.23207912 0.011804657 -0.041006144 -0.07594479 0.1072053 -0.3344717 -0.031377282 0.11723751
0.43165603 0.30811283 -0.27678055 -0.13659003 -0.18476063 0.60404557 2.6218607 0.15888394
-0.23453188 0.041911006 -0.19913968 -0.25837508 -0.07772525 -0.20359366 0.13093255 -0.1802573
-0.008467227 -0.025142165 -0.16523868 -0.15201321 0.0068205 -0.07945486 -0.06629568 0.20789513
-0.34107497 -0.26622787 0.018314129 -0.25861132 -0.10643266 0.098292 0.093371384 -0.16752559
-0.17142941 -0.03367657 0.06352911 0.1382415 0.09057007 -0.107683115 0.08109215 -0.2316451
-0.5597985 1.4596297 -0.11656645 -0.17804548 0.38211644 0.21053119 0.1642705 0.39818263
0.33984143 -0.19841802 0.42789027 -0.055209007 0.037350547 1.0413222 1.376948 -0.029685123
0.17005023 -0.11935878 -0.22069195 -0.21019515 -0.22263092 -0.138816 -0.18087092 0.18237954
0.12521103 -0.18212551 -0.04128763 0.08568588 0.003367722 -0.18439034 0.1636748 -0.24575278

subnets.1.hidden_layers.2.bias f4 [16]
00000000: e4ac 7dbe fae1 1abe 6c06 65be 51b1 7cbe
00000010: bcb7 8bbe edcd a5be b8e0 acbe 2338 56be
00000020: f23d 81bd 672d 593e b14f 6fbe c9a1 39be
00000030: 35e2 3dbc 12dc d83c 701c 133e 4ae1 7ebe
-0.24772984 -0.15125266 -0.22365731 -0.24677016 -0.27288616 -0.3238367 -0.33765197 -0.20919852
-0.06310643 0.21208726 -0.23370244 -0.18128122 -0.0115895765 0.026472125 0.14366317 -0.24890628
