trained_pth_model/fold_3_model.pth (torch, 35587 bytes, 40 tensors)

subnets.0.attn.in_proj_weight f4 [42, 14]
000000 72 66 a3 be b4 ce a0 be 13 84 af 3d b9 d6 9c 3e
       -0.31914097 -0.31407702 0.08570113 0.3063257
000010 d3 87 28 3e 90 4f 96 3c 7b 2a 99 3b f8 79 92 bd
       0.16458063 0.018348485 0.0046742535 -0.0715217
000020 e2 40 8c 3e 23 0f 94 3a fd fa 5f 3c 6e 22 35 3d
       0.27393252 0.0011296015 0.01367068 0.044222288
000030 94 8d 10 be 11 3c 3e 3e 95 90 26 be 60 8b 89 be
       -0.14116508 0.18577601 -0.16266091 -0.26864147
000040 48 8e b3 3d 64 41 d5 bd 07 7c e7 bd 77 df 20 be
       0.08767372 -0.10412863 -0.11302953 -0.15710245
000050 12 42 19 be a1 9a 9b 3e 2e c4 0f 3e 11 32 a0 3e
       -0.1496661 0.3039141 0.1403968 0.31288198
000060 60 ae 43 be ce 64 5f 3e fe 62 29 bd 73 23 d6 bd
       -0.19109488 0.21815798 -0.041354172 -0.1045598
000070 2b 94 a1 bd de dd 8b be 8b 76 be 3d fd fc 76 bd
       -0.07889589 -0.2731771 0.09299954 -0.060299862
000080 f8 a0 d9 bd e3 77 6a bb 9c b5 9b be bd cc 4b be
       -0.106264055 -0.0035777024 -0.30411994 -0.1990232
000090 6f b9 9f be bc 68 e7 bd 7b 1c 9e be cf 30 2a 3e
       -0.31196162 -0.11299273 -0.30881104 0.16620182
0000a0 e8 3e 8e bd c7 36 6a be d5 ea 55 be 86 9d 10 3e
       -0.06945592 -0.22872458 -0.20890363 0.1412259
0000b0 35 ba 5c 3e cf 3a 00 be ec d7 7e bd 36 2e 08 3e
       0.21555407 -0.12522434 -0.062217638 0.13298878
0000c0 01 c5 51 be 2e 49 1e 3e 1d f8 9b 3e 51 21 84 be
       -0.20485307 0.15457603 0.30462733 -0.25806668
0000d0 26 5c f2 3a 9b e8 8d 3e 43 d6 74 3d bb f5 9b 3d
       0.0018490597 0.27716526 0.05977465 0.07615229
0000e0 68 4d 23 bd ee 7e a3 be 6a d5 38 3e 0d 4e 8f 3e
       -0.039868742 -0.31932777 0.18050161 0.27989236
0000f0 25 f0 15 bd 81 92 81 be 7b a5 77 3d aa 65 9f 3e
       -0.036605973 -0.25307086 0.06046055 0.3113225
000100 6d dd 61 3e 55 40 23 be e2 bd f1 bd 94 04 af bc
       0.22057123 -0.1594251 -0.118037954 -0.021364488
000110 89 78 9b 3e 3a 84 9a be b6 df 83 bd e4 2b fe 3d
       0.303654 -0.30179006 -0.06439154 0.12410715
000120 85 e6 5e 3e 7d 92 b4 bd 5c 72 90 bc 05 00 64 be
       0.21767624 -0.08817003 -0.017632656 -0.22265632
000130 ee af 3e 3e 78 20 70 3c 54 cb 5b be e8 93 74 3e
       0.186218 0.014656179 -0.21464282 0.23884547
000140 a6 23 95 3d 61 67 98 3e 92 08 7e be a4 fb 2e be
       0.0728219 0.29766372 -0.24807957 -0.17088181
000150 5c e9 4c 3e b1 c6 95 3e 7e d3 b7 3d 31 ff 37 3e
       0.20010895 0.29253152 0.08975886 0.17968442
000160 da 59 63 3e 89 5f a4 3e 1d 22 37 3e 72 a4 48 3e
       0.22202244 0.32104138 0.17884107 0.19593981
000170 bf 0a 30 3e c2 9a 6d be 48 e9 92 bd 69 53 49 3d
       0.171916 -0.23203567 -0.07173401 0.04915181
000180 d8 48 73 bd 81 d2 66 3e f0 86 90 3d ff e6 f8 3d
       -0.05939564 0.22541238 0.07056987 0.12153434
000190 e2 c4 ab 3d 04 bb 39 be 7b a7 19 3e fc 03 88 bd
       0.08387162 -0.18137747 0.15005295 -0.06641385
0001a0 0c 16 1f bd 09 cd f2 3d 14 62 c1 bd e9 59 9b 3e
       -0.038839385 0.118555136 -0.09442535 0.30342034
0001b0 6f 81 76 3e c6 dd 16 3e 65 c1 50 be a1 07 8d 3e
       0.24072812 0.14733037 -0.20386274 0.27544883
0001c0 47 eb a0 3e fd 31 61 3d 6c 45 60 3e 51 dc 54 3e
       0.31429502 0.054979313 0.21901482 0.20787169
0001d0 12 05 04 bd 49 27 9b 3e fd 6a f1 bc b3 78 2d 3e
       -0.032231398 0.3030341 -0.029469961 0.16940574
0001e0 36 30 e3 3d ca ae 75 bd 35 f4 ec 3d 12 0a 2e be
       0.1109318 -0.059981145 0.11570016 -0.16996029
0001f0 26 87 24 bd ab 3a a7 bd b1 06 e8 bd 56 8c ad 3d
       -0.04016795 -0.08165487 -0.11329401 0.084740326
000200 c3 54 06 be 6e 0b 2a be 75 2a a2 be c6 b5 f4 bc
       -0.13118272 -0.16605923 -0.31673017 -0.029871833
000210 65 d6 0c 3b cb f0 69 3e 58 83 4b 3d a7 df 32 3e
       0.0021490094 0.22845761 0.049685806 0.17468129
000220 1a c9 84 be 6d 4f a1 3e b9 4b 7a be ff ed 58 3e
       -0.25934678 0.3150591 -0.24442948 0.21184538
000230 10 5d dc 3d 8e 03 51 be eb d4 1d be f7 d7 1c 3e
       0.10759938 -0.20411512 -0.15413253 0.15316759
000240 ce d5 16 3d e9 42 9c 3e 3c ce e0 bd c0 84 12 bd
       0.036824994 0.30519798 -0.10976836 -0.03577113
000250 c2 1f 7e 3e 69 d3 54 be 12 af 90 3e 97 5e c4 bd
       0.24816802 -0.20783772 0.28258568 -0.09588354
000260 05 39 45 bd 36 d1 59 3e e8 c4 35 be ba 43 97 bd
       -0.04815008 0.21271214 -0.17750895 -0.07385965
000270 b5 e2 81 3e d1 59 4f 3e 7e 93 13 3e 7e 35 02 be
       0.25368276 0.20249106 0.14411733 -0.12715718
000280 92 4d f3 bd 3b cb 6b be b9 8b 06 3e 71 56 b6 3d
       -0.1188003 -0.23026745 0.13139237 0.08903206
000290 49 a4 79 be b6 e9 5d 3e e1 cd 97 bb df dd 76 be
       -0.24379076 0.21671185 -0.004632697 -0.24108075
0002a0 30 e2 29 3e 22 8b a0 3e 37 20 9f 3e 42 38 85 be
       0.1659019 0.3135615 0.31079265 -0.26019484
0002b0 2a c7 8d 3d 12 11 89 3d 5b af 42 3e 06 4b 78 be
       0.06922753 0.06692709 0.19012205 -0.24247369
0002c0 5b f0 76 be bb 89 3a be 1c d1 0e be 56 0e ad 3d
       -0.24115126 -0.18216603 -0.13946956 0.0845
0002d0 db 36 dd 3d aa 0b 9f 3e f7 66 39 bd ab 1d 84 be
       0.108014785 0.31063586 -0.04526421 -0.25803885
0002e0 e0 3b 8a 3e 0e 70 d9 bd 15 46 68 3e 91 18 0b be
       0.26998806 -0.10617076 0.22682984 -0.1358359
0002f0 70 0f a2 3e d9 a5 32 be a2 01 53 be ab b0 95 be
       0.31652403 -0.17446078 -0.20606092 -0.2923635
000300 cb 63 a1 be 5e 9e a6 3c ea dc 95 3c 36 7a 4b 3e
       -0.31521448 0.020339187 0.018293817 0.19870839
000310 13 3e 77 3e 9c 90 a1 be 5b 14 a2 be 62 57 7c 3e
       0.24144773 -0.3155564 -0.31656155 0.24642709
000320 8d ec 81 be 7e a6 93 3e b5 be 13 be c0 8e 72 3e
       -0.25375786 0.2883796 -0.14428218 0.23687267
000330 7f ce a1 be aa 19 19 3e 6b 33 8f bd 70 8b 89 be
       -0.31602857 0.14951196 -0.06992229 -0.26864195
000340 22 d7 5c be cb a6 89 3e 62 19 fb bd 89 a5 1d be
       -0.21566442 0.26885065 -0.12260701 -0.15395178
000350 11 6d 93 be 83 c9 8c be eb a4 7d be 8d 46 16 3e
       -0.2879415 -0.2749749 -0.24769942 0.1467535
000360 ad ae 7b 3e 67 80 96 3e 48 66 67 3e dc 02 25 3e
       0.24578352 0.29394838 0.22597611 0.16114372
000370 2e 73 66 bd 1e c3 42 3e 5c 9e a2 3e a3 1b 34 3e
       -0.056262188 0.19019744 0.31761444 0.17588668
000380 ae de 2d 3e 10 2d ca bd 2e 37 87 3e 21 c9 33 3e
       0.16979477 -0.09871876 0.26409286 0.17557193
000390 8f 86 7a be 33 26 f0 3b 68 bf 18 3d e0 9c 96 3e
       -0.24465393 0.0073287725 0.037291914 0.2941656
0003a0 fd f3 55 3e c7 bc 97 bd cc 98 88 3e 13 1b a7 3e
       0.20893855 -0.07409053 0.26679075 0.32637843
0003b0 c9 fc d3 bd 31 0d d6 bd 34 91 46 bc 44 9e cd bd
       -0.10350949 -0.10451735 -0.01211958 -0.100399524
0003c0 7d d0 c1 3d 9e fc 24 3d 62 7b 8f be b7 ec d6 3d
       0.09463594 0.040279977 -0.2802382 0.104943685
0003d0 12 7f a7 3e a7 5f 1b 3e 32 9b 9a 3e a2 44 7f 3e
       0.32714134 0.15173207 0.3019653 0.24928525
0003e0 7e a2 00 be b3 af 32 be 54 c2 12 bd a5 81 48 be
       -0.12561986 -0.17449836 -0.035829857 -0.19580705
0003f0 3e d2 8e bd eb 66 72 3e 93 6c 73 3e a4 b2 1c bd
       -0.06973694 0.23672073 0.23771887 -0.038256302

subnets.0.attn.in_proj_bias f4 [42]
000000 00 00 00 00 00 00 00 00 00 00 00 00 00 00 00 00
       0.0 0.0 0.0 0.0
000010 00 00 00 00 00 00 00 00 00 00 00 00 00 00 00 00
       0.0 0.0 0.0 0.0
000020 00 00 00 00 00 00 00 00 00 00 00 00 00 00 00 00
       0.0 0.0 0.0 0.0
000030 00 00 00 00 00 00 00 00 00 00 00 00 00 00 00 00
       0.0 0.0 0.0 0.0
000040 00 00 00 00 00 00 00 00 00 00 00 00 00 00 00 00
       0.0 0.0 0.0 0.0
000050 00 00 00 00 00 00 00 00 00 00 00 00 00 00 00 00
       0.0 0.0 0.0 0.0
000060 00 00 00 00 00 00 00 00 00 00 00 00 00 00 00 00
       0.0 0.0 0.0 0.0
000070 11 fd b1 bd 50 dd 4f 3c b0 d2 5a 3e 6b 16 9f 3d
       -0.08690847 0.012687042 0.21369433 0.07767948
000080 3f 75 18 bc 7d a5 06 3e 10 8d f4 3c 8a f0 03 be
       -0.009305297 0.13149066 0.02985242 -0.12884727
000090 8f c5 84 bd 9d cf 06 3c 20 6c 20 3b 80 67 b5 bd
       -0.06482994 0.00822821 0.002447851 -0.08857632
0000a0 a9 50 d1 bc 6a 85 49 ba
       -0.025551157 -0.0007687422

subnets.0.attn.out_proj.weight f4 [14, 14]
000000 ee 54 d7 bd 66 50 9f be 1a 44 cb be ec 20 53 3f
       -0.10514246 -0.31116027 -0.39700395 0.8247211
000010 80 33 37 be 90 86 c7 3d a4 23 ea bd ae 8f 36 3e
       -0.1789074 0.09742463 -0.11432579 0.17828247
000020 67 6b 17 bf c8 fd 70 3d 06 e7 57 bf 1e 50 6a be
       -0.5914826 0.058835775 -0.8433689 -0.22882125
000030 6e d0 04 be 30 19 97 bd 1c 0b fe bd 30 09 f6 3e
       -0.12970135 -0.07377851 -0.12404463 0.48053885
000040 f0 a5 03 be c3 4e 2f bf bd 74 99 3d 20 ab 81 3d
       -0.12856269 -0.68479556 0.07492969 0.06331468
000050 29 8b 67 3e 89 eb 15 bf 19 a8 b1 3b 0a 44 35 3e
       0.22611679 -0.58562523 0.00542165 0.17701736
000060 34 e0 8d bd 59 c9 19 3f f8 94 a9 bc 9b ad d9 3d
       -0.06927529 0.6007286 -0.020700917 0.10628816
000070 21 4c dc bd dd b4 e6 bd 4b 47 29 3e 08 5d 08 bf
       -0.10756708 -0.11264966 0.16531102 -0.53266954
000080 50 52 13 3e b8 b5 1d be 70 f3 2c be c5 90 e7 bd
       0.14386868 -0.15401351 -0.16889739 -0.113069095
000090 f1 f1 26 3f 06 f5 e0 bd 71 b4 53 3f 95 d7 5b 3d
       0.65212923 -0.109842345 0.82697207 0.053672392
0000a0 8e 2d fc bd 02 cc 03 bc be c2 36 be 27 25 f7 be
       -0.12313376 -0.008044245 -0.17847726 -0.48270532
0000b0 b3 94 bb 38 37 59 e5 be f5 b8 13 3e a7 38 94 be
       8.944552e-05 -0.44794628 0.14426024 -0.28949472
0000c0 a0 cf a8 3d ac 47 1b be c4 a5 af 3e 60 44 39 3e
       0.08242726 -0.1516406 0.34306157 0.18092489
0000d0 14 66 1a 3f d1 fe 28 3e 83 2c b7 bd 28 5c ca 3e
       0.6031201 0.16503455 -0.08944037 0.39523435
0000e0 89 af c8 3b f2 9d 14 3f b0 27 05 be 68 5a 65 be
       0.006124441 0.58053505 -0.13003421 -0.22397768
0000f0 04 1d 83 be 9d 30 ce be 80 dc 95 be cd 26 49 bd
       -0.25608075 -0.40271464 -0.2926979 -0.04910927
000100 46 69 9d ba bd f7 35 bd f8 38 2f be 41 d1 9c 3e
       -0.0012009523 -0.044425715 -0.17111576 0.30628398
000110 40 7e 29 3e 6f d0 fa be a0 ff 81 be 0d 16 f1 be
       0.16552067 -0.48987147 -0.2539034 -0.47087136
000120 39 11 99 3d 40 67 01 3f e6 2a 34 bc 82 3e e8 3e
       0.07473988 0.5054817 -0.010996556 0.4536019
000130 11 9b a5 bd 30 46 c6 3d ba 09 95 3e a4 f7 5d 3e
       -0.08086217 0.09681356 0.29108983 0.21676499
000140 b4 51 a5 be af 82 16 be 0e fe 2e be 40 35 21 3e
       -0.32288897 -0.1469829 -0.17089102 0.1574297
000150 30 1c 1f 3e f7 38 ec 3e cd 45 78 bb 39 df 63 3e
       0.15538096 0.4613721 -0.0037883401 0.22253121
000160 8d 95 54 bd ab 32 cb 3e 02 8a 0d 3e 78 55 d7 3d
       -0.051900435 0.39687094 0.13822177 0.10514349
000170 67 4f eb be 66 96 cc 3d 55 1d fb bd 44 00 2e 3d
       -0.45959017 0.09989624 -0.12261454 0.042480722
000180 e9 77 12 be 2e 04 ad be b7 86 1c 3f 2d 8f 1d 3d
       -0.14303555 -0.3379225 0.6114306 0.03846662
000190 bf 31 97 3e ee 49 d7 bd ad 7a e2 be b4 84 9d 3c
       0.2953014 -0.10512148 -0.4423422 0.019228317
0001a0 12 b7 38 3d 1e 50 41 be 32 47 87 3f 29 d4 1b bf
       0.045096464 -0.18878219 1.0568602 -0.60870606
0001b0 e7 75 7f 3e 54 a2 88 bc b5 21 be 3e 8d b4 d5 be
       0.2494732 -0.016678967 0.3713509 -0.41739312
0001c0 18 f9 8a 3e 72 42 49 3e 3a 17 a1 be 6d a0 3f 3d
       0.27143168 0.19654253 -0.31463033 0.046783853
0001d0 83 69 34 3e 49 db ac be e4 70 95 3d 48 7d e1 3e
       0.17618375 -0.3376105 0.07296923 0.44040895
0001e0 b3 83 c3 3e 5d 68 4a be 87 87 20 3e 01 b0 0a bb
       0.38186416 -0.19766374 0.156767 -0.0021162035
0001f0 12 e1 51 bd 35 22 58 be 8c a8 8d 3e fa 77 84 be
       -0.051240034 -0.21106799 0.27667654 -0.25872785
000200 48 b6 3a be 17 f1 87 be ad c8 b5 3d 19 7e a8 be
       -0.18233597 -0.26551124 0.088761665 -0.32908705
000210 24 6f 44 3a 23 75 85 3e 93 ea 99 3d 21 9e 8d bd
       0.0007493368 0.2606593 0.075154446 -0.06914926
000220 d2 23 d5 3d c7 24 6b be 67 65 88 3e e2 33 8f 3e
       0.10407223 -0.22963248 0.26639864 0.2796927
000230 d7 c5 2e be 9f 55 c5 3e 71 8a 5b b8 62 a6 52 bf
       -0.17067657 0.38541886 -5.2342602e-05 -0.8228513
000240 f1 26 34 be 07 f7 b7 3c 79 30 32 be 9a 19 e1 be
       -0.1759298 0.022456659 -0.17401303 -0.43964845
000250 2c 69 af bd 16 40 e1 3d 2d 07 af 3e 61 8d d4 3e
       -0.08564982 0.109985515 0.34185162 0.41514114
000260 80 08 c2 be 23 bb 2e 3d c2 7d f3 3d 7d 93 4b be
       -0.3789711 0.042658936 0.11889221 -0.19880481
000270 dd e5 61 be f2 14 21 be 14 7c 7d be 03 49 e5 bd
       -0.22060342 -0.15730646 -0.24754363 -0.111955665
000280 e0 ba 11 3d 57 ac 6c bb 1f ed b7 3e 28 07 4e 3e
       0.03557861 -0.0036113465 0.35923097 0.20119917
000290 86 14 28 3e f6 98 74 be 75 12 1a 3e 2e ed 8b 3d
       0.16414079 -0.23886475 0.15046103 0.06832348
0002a0 58 19 cc bd 90 2e 9b 3d 23 24 80 3e 99 fb 36 3d
       -0.099657714 0.075772405 0.2502757 0.044673536
0002b0 06 03 5b 3e 43 9d 11 3f 87 75 57 bd d7 88 39 be
       0.21387872 0.5688059 -0.052602317 -0.18118607
0002c0 aa f4 16 bd e1 1d c8 bd 17 87 8e be 57 9b dd bd
       -0.036854424 -0.09771324 -0.2783744 -0.10820644
0002d0 57 61 9b bd 4a a3 46 3e 7a b3 60 be 84 ee d6 be
       -0.075869255 0.19398227 -0.21943465 -0.41978848
0002e0 83 6a 1e be de 00 f7 be 47 68 ef 3d 55 72 fe be
       -0.15470318 -0.4824285 0.11689811 -0.49696603
0002f0 00 2b 5e 3b 1c d8 e2 3d 2d b9 66 3d 24 a5 11 3e
       0.0033900142 0.11076376 0.05632894 0.14223152
000300 7d cc 1a 3f bd dc 94 3e 16 96 98 be 08 91 77 3e
       0.60468274 0.2907466 -0.29802006 0.24176419

subnets.0.attn.out_proj.bias f4 [14]
000000 c7 bd 56 3c a2 4f 91 be c9 07 91 3d 28 0f cb 3c
       0.01310677 -0.28381068 0.07081563 0.0247875
000010 a2 b4 ab be 67 b7 67 3e 52 2d b3 3d 59 20 14 3e
       -0.3353625 0.22628556 0.087488785 0.14465465
000020 a0 e3 6b be 5e bd 5d be 7a ae c0 be ce b2 c6 bd
       -0.23036051 -0.21654269 -0.37633115 -0.09702073
000030 7c 57 11 3e ad 6d 83 bd
       0.14193529 -0.06417403

subnets.0.hidden_layers.0.weight f4 [16, 14]
000000 e2 cc 34 3f b2 08 fb bd 34 9e dd be ba 4e 2a 3e
       0.70625126 -0.12257518 -0.43284762 0.16631594
000010 c2 bc 86 be cc 75 99 3e 83 7b fd bd 01 cc 6d be
       -0.26315886 0.29972684 -0.123770736 -0.23222353
000020 60 9c 1d be 41 99 8c bd e3 1a bd bd 1d 91 0e 3d
       -0.15391684 -0.06865168 -0.09233644 0.03480636
000030 8b a5 41 3d ce 1d 12 be 46 e7 dd be 8c dc 7e bd
       0.047277015 -0.14269182 -0.4334051 -0.06222205
000040 1d 67 0c 3f 62 8b d5 3e f2 63 aa be 15 dc 58 3e
       0.5484484 0.41707903 -0.33279377 0.21177705
000050 d0 79 bb be f4 ec e5 3e a8 97 e3 bd 14 be b4 3d
       -0.36616373 0.44907343 -0.111129105 0.08825317
000060 db 1f a6 3d aa 59 43 3d f5 cb 50 3e cd f2 85 3e
       0.08111545 0.047692932 0.20390303 0.26161805
000070 d4 e1 89 3e d7 0e fa be fa e5 59 bd 1d 32 4c 3e
       0.26930106 -0.48839447 -0.05319784 0.19940992
000080 e4 b3 66 be a2 cf 41 3e 23 94 2f be f1 f3 b7 be
       -0.2252956 0.18926862 -0.17146353 -0.359283
000090 c1 4b ae bd 78 48 c7 3d 34 8e 0f bf 28 17 5c bd
       -0.08510543 0.09730619 -0.5607636 -0.05373302
0000a0 97 f0 89 be 08 3f 69 3e bb 41 0e 3f 1b 86 af be
       -0.26941368 0.22777951 0.55569047 -0.34282002
0000b0 68 5c ed be d2 1b a6 be 27 45 bc be c7 db be 3e
       -0.46359563 -0.324431 -0.3677151 0.37277052
0000c0 71 dc 98 3e 13 2a ae 3d b3 3b e2 bd 2c bc 40 be
       0.29855683 0.08504119 -0.11046543 -0.18821782
0000d0 0c 97 04 bf ca c1 5f be a2 be 46 3e ce 56 0b bf
       -0.5179298 -0.21851268 0.19408658 -0.5442933
0000e0 45 4f 91 3e 37 f3 c0 be c7 64 38 be 1b 4d 3a be
       0.2838079 -0.37685558 -0.18007194 -0.18193476
0000f0 2f 1c 80 be c0 6f 7d 3e 0a fa 29 3a 8f a7 43 3e
       -0.25021502 0.2474966 0.0006484097 0.19106887
000100 30 0a 20 be fd ff 54 bd 15 8c 05 bf 41 86 3d 3e
       -0.15628886 -0.052001942 -0.52166873 0.18508245
000110 2a 7d 80 bd 01 79 22 3c ab 18 cd bd e3 82 13 bd
       -0.06273873 0.009916545 -0.10014471 -0.036013495
000120 56 dd fe 3b cf ae 86 bd 30 a0 d7 bd de c4 8b bc
       0.00777785 -0.06576311 -0.105286 -0.017061647
000130 f7 2f 85 3e 93 54 a2 3e 36 c5 19 be ae a5 4f be
       0.26013157 0.3170515 -0.15016636 -0.20278046
000140 64 3b 3f 3e a9 d8 7c be 9a 4e 37 3e 72 59 a8 be
       0.18675 -0.24692024 0.17901078 -0.3288074
000150 77 88 68 3d 3c 08 dc be 28 c1 0e 3e 95 c9 77 bd
       0.056770768 -0.42975032 0.13940871 -0.060494978
000160 b3 06 bc be 58 df 4b 3e a1 b5 75 3d 30 2d f0 3c
       -0.3672386 0.19909418 0.059987668 0.029318422
000170 35 a1 00 be 2d 9d 37 bc b0 eb bb be f3 d2 ce bd
       -0.12561496 -0.011206907 -0.36703253 -0.10098829
000180 59 9b 33 bd 46 27 a2 3e 97 0b 14 3f 9b 8d 83 be
       -0.043849323 0.31670588 0.57830185 -0.25693974
000190 3a 6d fc be 03 bd 11 bf b1 90 3c 3f ef fb 24 3d
       -0.49302083 -0.56929034 0.7365828 0.040279325
0001a0 a8 e7 d2 3e 8a a4 29 3e 41 31 76 3f d8 e7 d8 3e
       0.41192365 0.16566673 0.96168905 0.42364383
0001b0 10 3c db bd b4 06 4c 3e 76 2a 2b bf 1b 1e 4f bf
       -0.107048154 0.19924432 -0.66861665 -0.8090531
0001c0 5c f9 37 3e ed b4 7b 3d 66 4f eb 3d 11 5e f9 3d
       0.17966217 0.06145184 0.114897534 0.12176145
0001d0 1f d6 48 be 75 dc 0a 3e 4b 81 f0 3d 3d 2d c2 be
       -0.1961293 0.1356066 0.11743411 -0.3792514
0001e0 ac 2c 4a 3d 7b 2f b2 3e 34 11 7d be 8b 5b 54 3e
       0.04935901 0.3480185 -0.24713594 0.20738046
0001f0 91 66 1c 3d 9f 75 3f bd b3 34 54 3e 62 b2 ff be
       0.038183752 -0.04674303 0.20723228 -0.49940783
000200 8c 3d 55 bb 81 65 3d 3e 20 8b 54 be 45 1c 8c 3e
       -0.0032537905 0.18495752 -0.20756197 0.27365318
000210 9c 6c 86 bc 30 11 77 3e 93 bd a2 be 79 42 c2 be
       -0.01640921 0.2412765 -0.3178526 -0.3794134
000220 77 80 fb be b8 39 24 bd aa 48 e6 bd 19 7f d1 3d
       -0.49121448 -0.040094107 -0.11244328 0.1022932
000230 f3 d1 c9 3e 8e e5 90 be 4f e4 84 be e1 f2 21 be
       0.3941799 -0.28300136 -0.25955436 -0.15815307
000240 e6 ec 7a be 9f 3d b7 3e 33 5c 6b 3d 21 bf 9e 3d
       -0.24504432 0.357892 0.057460975 0.07751299
000250 b2 d6 25 3e 29 3a 10 bd 48 27 a6 be 40 1e 49 bc
       0.16195181 -0.035211716 -0.32451844 -0.012275279
000260 27 47 4e bd a9 11 9e be 92 05 88 bd 79 cb ae be
       -0.050360825 -0.3087285 -0.066416875 -0.34139612
000270 07 86 63 3e 3c 7f b4 be 9b 1f c3 be b6 9f 2b 3e
       0.22219096 -0.35253322 -0.3811005 0.16760144
000280 15 ef 02 3e fe 8b 4e 3f 33 f2 ea 3c 0c 50 90 be
       0.12786515 0.8068236 0.028679943 -0.2818607
000290 eb 77 8c be 59 dc f5 bd 90 54 02 3f 76 bb 1d bf
       -0.2743524 -0.120049186 0.5091028 -0.6161417
0002a0 14 c0 2a 3f 29 e2 bd bd 93 7e 48 bf a2 d3 ad be
       0.6669934 -0.09271652 -0.78318137 -0.33950526
0002b0 ef c7 e3 bd 5b a7 2e 3e 78 a8 f3 3d 06 ce 0c bf
       -0.11122119 0.17056029 0.11897367 -0.55001867
0002c0 3e 20 f9 3d da 70 5b 3d f0 28 cb bd ee 98 59 bd
       0.12164353 0.05357442 -0.099199176 -0.05312436
0002d0 e7 5c e1 bb c8 57 fb 3d 41 8a 84 3e 6c 45 ee bd
       -0.00687753 0.12272602 0.2588673 -0.11634335
0002e0 95 d2 48 bf 8f 21 52 bf 54 3e c2 3c 60 21 2d 3e
       -0.7844632 -0.82082456 0.023711361 0.16907263
0002f0 28 25 80 3e a9 15 60 be eb fe 82 be f7 ef b6 be
       0.25028348 -0.21883263 -0.25585112 -0.35729954
000300 7a 8b bf be bf e5 d8 bd 90 0f ea 3e 83 26 0d bf
       -0.374111 -0.105906956 0.45714998 -0.5513689
000310 23 97 d6 3e db 93 c0 be 6b a3 c0 bc 25 f0 3f be
       0.41912183 -0.37612805 -0.023515424 -0.18743952
000320 83 78 83 be a3 60 c1 3e 89 1f 19 3c 4d 0b ec be
       -0.2567788 0.3776904 0.0093458975 -0.46102372
000330 cf a9 1d bd dc d5 ce bc 4b 59 34 be 34 43 b7 bd
       -0.03849202 -0.02524846 -0.17612188 -0.08948365
000340 40 03 ff 3d df 66 d1 3c bf 8f 34 3e 40 59 b2 be
       0.12451792 0.025561748 0.1763296 -0.34833717
000350 3d 44 a7 bd 78 a4 8d 3d 2e 59 c7 be 40 7f 2a 3e
       -0.08167312 0.069161355 -0.38935226 0.16650105
000360 ff ac 87 bd 83 b8 9f bd 41 11 b1 bd 93 77 1b be
       -0.06624793 -0.07798865 -0.08645869 -0.15182333
000370 2a 03 c3 be fc d8 01 3e 44 c0 33 be 97 44 c4 3d
       -0.3808835 0.12680429 -0.17553812 0.09583395

subnets.0.hidden_layers.0.bias f4 [16]
000000 43 56 49 3e 38 5b 59 3e 52 a7 85 3e 0e f4 f9 3d
       0.19661812 0.21226203 0.26104218 0.12204753
000010 65 40 30 3e fe ef 87 be 93 a5 fa 3e e6 a8 31 bf
       0.17212065 -0.26550287 0.48954448 -0.69398344
000020 38 ef 85 bd 68 08 49 3f e7 17 d9 3e f2 10 f3 3e
       -0.06539768 0.7852845 0.4240105 0.47473866
000030 ca 10 55 bf 23 a8 f4 be ea 4e 8c 3e c8 e2 dd 3e
       -0.83228743 -0.47784528 0.27403957 0.43337083

subnets.0.hidden_layers.2.weight f4 [16, 16]
000000 c6 69 89 be 0f 55 3a 3f 26 0b 1f be 45 27 9c be
       -0.2683851 0.7278604 -0.15531597 -0.3049871
000010 ba 6f 4d bd 2f 09 87 3d 03 6e 98 3d 07 ba 2f 3f
       -0.05015538 0.065935485 0.07442858 0.6864323
000020 17 a1 23 be 8f 7c 91 bd 9a 06 e4 bd 8f 76 be 3e
       -0.1597942 -0.07103836 -0.11134072 0.37199828
000030 94 0c 94 bd ed 8c 9b 3e 6c 29 c8 3d 5b f2 98 bc
       -0.072289616 0.30380955 0.097735256 -0.018670252
000040 b6 6a 79 be 19 df e8 3e 0f ff 4d 3e 0f 35 f8 bd
       -0.24357113 0.4548271 0.20116828 -0.12119495
000050 6b 53 b1 3d 27 2e c5 3c aa 88 20 3c 6d 92 40 3e
       0.08658489 0.024069859 0.009798208 0.18805857
000060 95 62 0d be d3 da 55 3e ac 80 b8 3e a8 9e d8 3e
       -0.13807137 0.20884256 0.3603567 0.42308545
000070 27 b4 a3 bf 58 78 d8 bf 98 df 95 bd f0 13 50 3e
       -1.2789353 -1.6911726 -0.07318038 0.20320106
000080 a0 7c b5 bd 4a 89 c9 bd 3c 6b 78 3e 16 00 7e 38
       -0.08861661 -0.09840639 0.24259657 6.05584e-05
000090 3d 02 86 3e b2 8d 7d 3e 23 d3 16 3f f5 3c b7 bd
       0.26173583 0.24761084 0.5891592 -0.089471735
0000a0 dd e2 43 bc 03 54 0c 3f 4a 4d c8 3e fa 44 42 3f
       -0.011955944 0.5481569 0.39121467 0.758865
0000b0 2f 14 e1 bf 44 2c 4b bf 45 95 42 3e 04 0d a6 3e
       -1.7584285 -0.7936442 0.19002254 0.32431805
0000c0 4a b9 58 3e 8d 37 f0 be 90 a3 96 bf 99 b4 8b bd
       0.21164432 -0.46917382 -1.1768665 -0.06821556
0000d0 7a 16 79 be 19 a0 ec 3d 52 43 96 be 9f a5 e0 3d
       -0.2432498 0.11553974 -0.29348236 0.1096909
0000e0 3d 8b ae 3d 66 6b 0e bf f3 11 fa 3d 1b 9d 87 3e
       0.08522651 -0.55632627 0.12210455 0.2648705
0000f0 7e 86 4f 3d 91 1d cb 3d 0f 17 57 bd e4 50 b3 be
       0.05066537 0.09917749 -0.052512225 -0.35022652
000100 f8 33 d8 bf 10 3c a4 3e 89 01 11 3f 98 cb e4 bf
       -1.689086 0.32077074 0.5664297 -1.7874632
000110 5e 4a 8b bf ec ad b7 3c b3 b7 e4 3e 7e 97 4b 3e
       -1.088207 0.0224218 0.446714 0.19882008
000120 09 05 32 bf cc 4d 50 3f 19 85 31 bf f3 9d 03 be
       -0.69538933 0.8136871 -0.69343716 -0.12853222
000130 80 9a 46 bd db 20 3e bf b8 14 53 bf d6 48 34 3f
       -0.048487186 -0.74268883 -0.8245349 0.7042364
000140 ce b0 19 3e d7 a4 ac be 54 ee 77 3e 77 65 b9 3d
       0.15008852 -0.33719513 0.24212009 0.09052556
000150 7a 3e 0c 3e 33 a0 9a 3c cc 44 12 be a4 e9 5a be
       0.13695708 0.018875217 -0.14284056 -0.2137819
000160 02 d3 c1 3d ff 06 41 bc 24 25 b4 3c e7 12 f6 be
       0.09464075 -0.011781453 0.021990366 -0.48061296
000170 25 cc c8 3e 64 a5 23 3e ad b3 82 3e bd be 2a bd
       0.3921825 0.1598106 0.25527707 -0.04168581
000180 f1 3d 82 be ed b3 d8 bf 63 74 f9 be 1c 20 fd bd
       -0.25437883 -1.6929909 -0.4872161 -0.1235964
000190 32 1e db 3d 84 68 b6 3d 00 2e 9a be 7b 72 f5 3d
       0.10699119 0.089066535 -0.3011322 0.11984726
0001a0 4c 8a db bd d6 a9 21 bf 1c d0 1c 3d 62 55 1b be
       -0.107197374 -0.63149774 0.038284406 -0.1516929
0001b0 28 6f 75 bd 8b 95 f3 bd a0 b5 e2 bd 4a 2d c0 bf
       -0.05992046 -0.118937574 -0.110697985 -1.5013821
0001c0 d8 6c 4b be 80 5c 8f 3c 80 96 d1 bd 20 ea bc bc
       -0.1986574 0.017500162 -0.10233784 -0.023060858
0001d0 58 b2 1a bd d8 0f 40 be 5c 39 f0 bd 34 e3 22 3e
       -0.037767738 -0.18756044 -0.117296904 0.15906984
0001e0 a8 f4 89 3d a8 ac ce bd 68 04 7e be f0 1c f9 bc
       0.067361176 -0.10091525 -0.24806368 -0.030409306
0001f0 d0 f6 b8 bd d8 68 d8 bd 98 5b 79 bd a4 9c fd 3d
       -0.09031451 -0.10566872 -0.060878366 0.123833925
000200 cb bf 27 bf 76 d0 41 3d 3e e3 04 3f c1 0e 3c bf
       -0.6552703 0.047317944 0.51909244 -0.7346001
000210 d7 1c 1a bf 84 ad 5b 3d f0 07 a1 3e 6f bd 89 3f
       -0.60200256 0.053632274 0.31451368 1.0760936
000220 49 f4 a3 be 41 78 44 3f 9f 10 4b bf 09 b8 c8 3d
       -0.32022312 0.7674599 -0.79322237 0.09800727
000230 f1 8f 9a 3f 16 59 00 3f c3 90 41 bf 22 00 8d 3e
       1.2075177 0.50135934 -0.75611514 0.27539164
000240 8c d8 6c be ba bf 6e be 30 e9 81 bc 88 32 8c bd
       -0.23129481 -0.23315325 -0.015858263 -0.068455756
000250 b4 62 fc 3d 4c b0 79 be e6 f3 57 3e e6 da 03 be
       0.123235136 -0.24383658 0.21089134 -0.12876472
000260 52 e2 3e be 00 79 90 bc 74 da 20 3e 42 ac 6d be
       -0.18641022 -0.017635822 0.15708333 -0.23210242
000270 68 56 3d 3d c0 3a 63 be b8 0e 3b be 0c 0b 7b be
       0.04622498 -0.2219038 -0.18267334 -0.24515933
000280 c1 d6 07 3e 53 f3 c6 be 39 e3 f4 3d 6e 39 e2 bd
       0.13265516 -0.38857517 0.11957402 -0.1104611
000290 f2 18 83 be 14 33 b0 bd e3 6d 1d 3e 19 08 41 3f
       -0.2560497 -0.086034924 0.1537395 0.7540298
0002a0 75 a5 a2 3b 85 26 ea 3d 80 57 e8 3c 7f 5a 50 be
       0.0049635717 0.11433128 0.028362036 -0.20347022
0002b0 bf 30 66 3e 51 21 0c be 84 99 28 3e 84 82 30 3e
       0.22479533 -0.13684584 0.16464812 0.17237288
0002c0 ef b0 3e be 4c e3 0e be 09 dd 6a be 25 27 87 be
       -0.18622182 -0.13953894 -0.2293588 -0.26397052
0002d0 ca e1 16 3d 80 4c da 3c 34 46 7a bd 9d 55 90 3d
       0.036836423 0.026647806 -0.061102107 0.070475794
0002e0 a8 4a fd 3d e6 44 cc 3c 49 26 2b bc a8 78 d3 bd
       0.12367755 0.024935197 -0.01044614 -0.10325748
0002f0 3d e4 eb 3d 39 d3 2d 3e fe 2e 9a be b4 bb fd bd
       0.11518142 0.16975106 -0.30113977 -0.12389317
000300 b7 ff 75 be f9 5c 82 3d 33 3b 17 3f 8f 69 f4 be
       -0.24023329 0.063653894 0.59074706 -0.47736785
000310 02 ca 86 be 5e b5 3f bc 22 68 e4 3e cd 23 96 3f
       -0.26325995 -0.011700956 0.44610697 1.1729676
000320 6f de 11 3c 07 87 58 3e 12 f3 65 be b5 a2 e5 3d
       0.00890313 0.21145259 -0.22456005 0.112126745
000330 fe f8 93 3e b6 3c 42 bf 8f ea 94 be 03 69 00 3f
       0.28900903 -0.7587389 -0.29085204 0.50160235
000340 f1 ef 2e 3b ed 97 fd be f3 2c 49 3b 7e 0d 9e bd
       0.002669331 -0.49529973 0.0030696958 -0.07717417
000350 14 0f 0b bd 58 02 3d 3e 58 31 26 be 76 f8 62 bc
       -0.033949926 0.18457925 -0.1622976 -0.013853183
000360 09 ad 1a 3c bd 64 32 be 2e 07 50 be 57 4e 09 3e
       0.009440669 -0.17421241 -0.20315239 0.1340879
000370 b0 26 92 be f1 41 00 3e 49 a6 d7 3d 81 08 a4 be
       -0.2854514 0.12525155 0.10529763 -0.32037738
000380 00 d3 0d bd 94 cc 81 be ce 32 13 bd 0e ff 0a 3e
       -0.034625053 -0.25351393 -0.035937123 0.13573858
000390 60 b1 02 3c 8a c0 19 be 6c 9d ff bd bc aa 0a be
       0.00797686 -0.15014854 -0.12481198 -0.13541692
0003a0 ce 3b 5c be 7b 40 ab bc 36 24 62 be d6 4b 46 be
       -0.21507189 -0.02090477 -0.22084126 -0.19364867
0003b0 e0 d9 6a 3c 88 29 76 bd 02 0c 51 be 15 0c 6b be
       0.014334172 -0.0600982 -0.20414737 -0.22953828
0003c0 ef f1 a9 bb 9e 91 7d be ef 30 7a be 10 1d 22 3e
       -0.0051863114 -0.2476258 -0.24432729 0.15831399
0003d0 be 1d 13 3e e7 ea 24 3e e4 26 0a 3b 32 39 66 bd
       0.14366814 0.16105233 0.002108031 -0.05620689
0003e0 6b 2e f1 3d 76 b9 ee 3d b5 9c 4d 3e 5c 80 3a be
       0.11776432 0.116564676 0.2007931 -0.18213028
0003f0 3a e6 b9 bd ac e2 ab bd 06 01 52 be c8 db 8a be
       -0.09077115 -0.083928436 -0.20508203 -0.27120805

subnets.0.hidden_layers.2.bias f4 [16]
000000 9d ea ce be 6d c2 e0 be 9c 9e 39 3d 72 d8 db 3e
       -0.4041337 -0.43898335 0.045317277 0.42938572
000010 25 e7 8f 3f ae 26 11 3e ba f9 9b 3e 28 38 56 be
       1.1242415 0.14174911 0.30463964 -0.2091986
000020 17 e6 6b bd 46 3e 0d bd 2a bf 68 3d 78 4b 90 be
       -0.057592478 -0.034483217 0.056822933 -0.28182578
000030 5e 41 e1 3d de aa 9c be 5b 12 92 bd 72 fa 0b be
       0.10998796 -0.3059911 -0.07132407 -0.13669756

subnets.1.attn.in_proj_weight f4 [42, 14]
000000 28 5c eb bd d8 c8 32 be 4e f3 34 be b1 e4 44 3e
       -0.11492187 -0.17459428 -0.17670938 0.19227864
000010 2d 95 f5 3c 43 ac 85 3e e0 1a e9 3c 9c 47 fa bb
       0.02997836 0.26107988 0.028455198 -0.007637931
000020 db ba a7 bd f6 55 5a 3e 5e 25 3d 3e e5 e0 39 3e
       -0.08189937 0.21321854 0.18471286 0.18152197
000030 f6 8d 00 3e 19 58 01 be 5c 27 3a 3e af d0 3f be
       0.12554154 -0.12631263 0.18179077 -0.1873195
000040 39 09 d8 3c 3d 40 92 3e 35 65 41 bd a0 da ed bd
       0.026371585 0.28564635 -0.04721566 -0.11613965
000050 bf d1 3b 3e 5e 15 95 3e 0d d0 25 3e 91 66 a7 3e
       0.1834173 0.29117864 0.16192646 0.3269544
000060 53 d3 2b bd 5c fe 2a bd f4 83 b7 bd 8e 93 89 3e
       -0.04194958 -0.041746482 -0.08960715 0.26870388
000070 75 57 e4 3d de 84 a7 be ba 55 7e bd 93 b9 5e be
       0.111494936 -0.32718557 -0.062093474 -0.21750478
000080 fc 22 6a 3d be 17 9c be 71 0a 3b be f9 29 82 3e
       0.05716227 -0.30486864 -0.18265702 0.25422648
000090 95 9d 77 bd 99 4c 9e 3e 26 b1 9c 3d da a2 28 be
       -0.060453016 0.30917814 0.07650976 -0.16468373
0000a0 6c 0b 57 3d 9f 1d 7d 3e a5 3d 2f 3e c7 de 1a 3e
       0.052501127 0.24718331 0.1711336 0.15124045
0000b0 43 76 00 3e 71 9c 92 3c ee 83 88 be 65 6a 4c 39
       0.12545113 0.017896863 -0.26663154 0.00019494591
0000c0 53 a0 26 3e b4 c7 8e be 2b 31 d5 3b c6 39 8a be
       0.16272096 -0.27886736 0.0065061054 -0.26997203
0000d0 a2 6b 81 3e bb d4 16 be e5 31 88 3d 5c 7c cc bd
       0.2527743 -0.14729588 0.066501416 -0.09984657
0000e0 cb a5 a2 be 23 a2 78 be 20 e7 89 3e 43 8f a5 bd
       -0.31767115 -0.242806 0.26934147 -0.08083966
0000f0 10 39 d5 3d 30 13 80 3e 57 fc eb 3d 05 67 9e be
       0.104112744 0.2501464 0.115227394 -0.30937973
000100 82 08 9a be 9d df df bd 27 9e 70 be 52 d8 83 be
       -0.30084616 -0.10931323 -0.2349783 -0.25750977
000110 de ea 5e 3e 68 b5 74 3e 88 6f 71 bd 0c 7a 89 3e
       0.21769282 0.23897326 -0.058944255 0.26850927
000120 21 e9 ba 3c f0 71 5c be 52 97 20 be 45 49 3d 3e
       0.022816243 -0.21527839 -0.15682724 0.18484981
000130 7c 20 9d 3e 4e 7a f6 3c 5a 38 e9 3d 26 6c 95 bc
       0.30688846 0.030087616 0.11387701 -0.018240046
000140 d6 a5 4b be 11 94 6c be b1 2e 75 3e 39 1d 17 3e
       -0.1988748 -0.23103358 0.23943593 0.14757241
000150 a0 fa 75 3e 07 8f a6 bd 0c 34 1b be 95 39 9e 3e
       0.24021387 -0.08132749 -0.15156573 0.30903307
000160 19 aa 8b 3e 0b f6 97 3e e6 99 4e be 53 57 34 3e
       0.27278212 0.29679903 -0.20175895 0.17611437
000170 2a 52 76 be 95 9d 28 be 5d 52 9c 3e d1 37 fa bc
       -0.2405478 -0.16466363 0.30531588 -0.030544193
000180 92 22 ce bc ac eb 90 3d 9e 8f cb bd 6e 27 a3 3e
       -0.025162969 0.07076201 -0.09939502 0.3186602
000190 9f 4d 72 bd 28 8c 5b 3e 37 65 5c 3e 66 4d 4d 3c
       -0.059156056 0.21440184 0.21522985 0.01253066
0001a0 43 95 1a 3e b8 2c bb 3c 95 c6 5c 3e e2 b4 a5 bd
       0.15096001 0.022848472 0.21560128 -0.08091141
0001b0 1d 3f 98 3e e0 9b 76 be 2e 05 6d be 1b f4 8c 3e
       0.29735652 -0.24082899 -0.23146507 0.27529988
0001c0 78 45 84 bd 43 c6 2c be c9 a6 3f 3e 4e cb a9 bd
       -0.064585626 -0.16872506 0.18715967 -0.082907304
0001d0 92 db 9c 3e fe 93 a3 be 00 0d 8d bd 25 3a 41 3e
       0.3063627 -0.31948847 -0.06887245 0.18869837
0001e0 fd 3c 68 be 62 48 70 3e 15 91 06 be 70 56 6b 3e
       -0.22679515 0.23465112 -0.13141282 0.22982192
0001f0 aa 3f 39 3e f3 24 47 be d2 43 bf bd 04 fe 89 3e
       0.18090692 -0.19447689 -0.093391076 0.2695161
000200 62 ce a1 be 02 5d 7d be 42 77 61 3d 2b 6a 69 bd
       -0.3160277 -0.24742511 0.055045374 -0.056986015
000210 43 20 11 be 66 3e 1c 3e d9 ab 3f 3e 3d 64 ca bd
       -0.14172463 0.15258178 0.18717898 -0.098824
000220 b8 9e 54 3e e7 3b 47 3d d2 d6 1d bd 6d 22 84 3d
       0.20763671 0.04864111 -0.038534947 0.06451879
000230 3a 7f 39 3d dc 0c ed 3d f9 7f 3a be e4 fb 45 3e
       0.04528735 0.11574718 -0.1821288 0.1933437
000240 17 76 8d be 9f f8 31 3c df 06 39 3e e3 10 97 3d
       -0.27629158 0.010862499 0.18069027 0.07376268
000250 c6 b2 8c 3e 93 ac 90 be c3 4a 7e 3c a9 71 fb bd
       0.27480143 -0.28256664 0.015520754 -0.12277538
000260 0f 8c 43 3d 63 74 40 be d8 62 3d be af cb a3 be
       0.047740992 -0.18794398 -0.18494737 -0.31991336
000270 0e c7 da 3d 8b f7 a0 3e 1f 47 a3 be 3c 93 12 3e
       0.10682498 0.3143886 -0.318902 0.14313978
000280 ed a4 f7 3d 95 e8 29 3e 54 31 a4 bd ae 7f bf 3d
       0.12092004 0.16592629 -0.08017221 0.09350525
000290 3c 4f 85 3e e0 2f a7 be e8 82 d0 bc 7f e1 84 3e
       0.26037014 -0.32653713 -0.025453046 0.2595329
0002a0 7b a2 51 be 74 4c e4 bd 26 c8 a1 3e e9 27 34 be
       -0.20472138 -0.11147395 0.31598014 -0.1759335
0002b0 9d a6 ac 3d a6 ce ea bd a7 00 5c 3e 70 3d 8e 3e
       0.084302165 -0.11465196 0.21484624 0.27781248
0002c0 b7 36 3e 3e da c7 58 be 61 6b 9a be f2 70 77 bd
       0.1857556 -0.21169987 -0.3016005 -0.060410447
0002d0 83 02 f7 3d 68 cf a5 3e 93 b5 36 3e f5 0f 96 3d
       0.12061026 0.323848 0.17842703 0.07327262
0002e0 ee 45 4f be 9e ae b2 bd 7a b7 11 3c b9 83 a0 be
       -0.2024152 -0.08724712 0.008893842 -0.31350496
0002f0 20 56 34 3e b8 4b 4e be 8d 4e ca 3d ac 7a 85 be
       0.17610979 -0.20146072 0.098782636 -0.26070154
000300 77 3b a7 3d 4f 36 8f 3e 3c 1f b1 bd a1 38 9a be
       0.08165639 0.27971122 -0.086485356 -0.3012133
000310 17 b3 9c bd 5b 54 9a 3e e3 37 ce bd 2d 26 6a 3e
       -0.07651346 0.30142483 -0.10069253 0.22866125
000320 c9 2c 93 3e 03 1f 90 bd 6d 7f 05 be b0 48 41 3d
       0.28745106 -0.07037165 -0.1303689 0.04718846
000330 d5 5a 0f 3e ed bd 04 3e 29 79 93 3e fb ce 5a be
       0.13999493 0.12963076 0.28803375 -0.2136802
000340 be e2 d5 3d 63 6c 3b bd bc ec cc bd 2f f8 8b be
       0.10443638 -0.045757663 -0.10006091 -0.27337787
000350 51 61 39 bc a9 ed 62 be ed 04 a6 3e 1d a4 16 3e
       -0.011314706 -0.22160973 0.32425633 0.14711042
000360 fd 67 98 3d b3 4b ae bd c4 87 30 be 39 2f f2 3c
       0.07441709 -0.08510532 -0.1723929 0.029563533
000370 c1 c2 2f 3e 5f 5a 5f be 8e cb 96 bd b8 fe 8a 3c
       0.17164136 -0.21811818 -0.07363044 0.016967162
000380 36 91 96 3e 55 52 3c 3d 3c 7b 7d 3c 2f e8 2b 3e
       0.29407662 0.045976955 0.015471276 0.1678779
000390 e8 ac 05 be 7b 9e 25 3e 31 13 a0 be 73 5f 9d 3e
       -0.1305424 0.16173737 -0.31264642 0.30736884
0003a0 8f 51 00 3e 62 7f 49 be 9b 64 24 3e bb fb 00 be
       0.12531112 -0.19677499 0.16054003 -0.12596028
0003b0 97 2f 77 be a5 04 e8 bc bf 51 88 bd 40 3f 4d 3e
       -0.24139248 -0.028322527 -0.06656217 0.20043659
0003c0 1e ad 1a 3e 09 f3 56 be 26 8a 9c be 01 4d ea bc
       0.15105101 -0.20991148 -0.3057415 -0.028601171
0003d0 b7 a7 82 3e cb 54 54 3d 38 a3 aa 3d b3 53 4d be
       0.2551858 0.051838677 0.08331913 -0.2005146
0003e0 44 fe a6 3e 20 f2 7b 3e 48 e6 a1 be 0e 16 94 be
       0.32615864 0.24604082 -0.31621003 -0.28923076
0003f0 35 5b 52 be db d1 3c be a5 ed 29 3e 13 35 50 3e
       -0.20542605 -0.18439429 0.1659456 0.20332746

subnets.1.attn.in_proj_bias f4 [42]
000000 00 00 00 00 00 00 00 00 00 00 00 00 00 00 00 00
       0.0 0.0 0.0 0.0
000010 00 00 00 00 00 00 00 00 00 00 00 00 00 00 00 00
       0.0 0.0 0.0 0.0
000020 00 00 00 00 00 00 00 00 00 00 00 00 00 00 00 00
       0.0 0.0 0.0 0.0
000030 00 00 00 00 00 00 00 00 00 00 00 00 00 00 00 00
       0.0 0.0 0.0 0.0
000040 00 00 00 00 00 00 00 00 00 00 00 00 00 00 00 00
       0.0 0.0 0.0 0.0
000050 00 00 00 00 00 00 00 00 00 00 00 00 00 00 00 00
       0.0 0.0 0.0 0.0
000060 00 00 00 00 00 00 00 00 00 00 00 00 00 00 00 00
       0.0 0.0 0.0 0.0
000070 0f d7 c2 be 54 bd 00 be 47 6e 8f be b4 a2 b7 3e
       -0.38054702 -0.12572223 -0.28013822 0.3586632
000080 58 0d 3b 3e a8 bd 4e be 03 e9 ac 3d 4e ce 13 3e
       0.18266809 -0.20189536 0.08442881 0.14434168
000090 23 af 90 bd 2e 54 b7 3e 18 96 64 be fe 95 40 be
       -0.07064655 0.35806412 -0.22322881 -0.18807217
0000a0 66 df 8d be 3d ea df 3d
       -0.27709502 0.10933349

subnets.1.attn.out_proj.weight f4 [14, 14]
000000 31 65 f0 3d 77 22 57 be df 94 69 be 00 12 15 3e
       0.11738051 -0.21009241 -0.22810696 0.14557648
000010 8e 31 5a be c7 37 fa bf 4c 4c 15 3e 67 e1 48 3d
       -0.21307966 -1.9548272 0.14579886 0.049043085
000020 ea 1f 1e bf a9 8b a0 3e 80 ca 7e be 62 a9 52 3e
       -0.61767447 0.31356552 -0.24881935 0.20572427
000030 fe e6 58 bf 2e 8f a6 3e 0f 64 46 bd 8b dc 00 bf
       -0.84727466 0.32531112 -0.048435267 -0.5033652
000040 f0 ed a8 be 63 2a 66 be 10 d2 b0 3e 44 13 d5 be
       -0.32994032 -0.22477107 0.34535265 -0.4161626
000050 25 d9 a9 bb dc 75 de 3e e7 c5 c0 3d 2f e1 b4 be
       -0.0051833563 0.43449295 0.09412747 -0.3532805
000060 d4 22 27 bf 4e 80 16 be 01 ca 26 bf 7d d5 1f 3e
       -0.6528752 -0.14697382 -0.65151983 0.15608783
000070 03 80 30 3e 5b cb 86 3e f5 10 af be e3 d0 de be
       0.17236333 0.26327023 -0.34192625 -0.43518743
000080 8c c9 0b bf 35 87 33 bf ef 4f d3 be a6 37 d4 3e
       -0.5460441 -0.70128185 -0.41271922 0.41448706
000090 83 2f 2d 3f 2a 14 66 3f 65 a4 a9 be 94 d9 78 be
       0.6765062 0.8987452 -0.33133236 -0.2430175
0000a0 21 5f c4 be 6f 7f 59 3e 3f c5 0a bf fa 4f 0c 3c
       -0.38353828 0.21240018 -0.54207224 0.00856399
0000b0 ab 87 74 be 00 77 c3 3e fb 79 64 3e af b2 0f bf
       -0.23879878 0.38176727 0.22312157 -0.56132025
0000c0 42 88 b9 be 23 58 a6 3e 0d 66 ec 3e 8a 29 a4 3f
       -0.3623677 0.32489118 0.4617161 1.2825177
0000d0 3a 2f b2 be 56 0e 66 3b 6f fd 19 bf 24 44 83 3d
       -0.34801656 0.003510376 -0.60152334 0.06409481
0000e0 9d 22 0f 3e f1 b3 94 3e 04 20 2e 3e 8f 67 c1 3d
       0.13978048 0.29043534 0.170044 0.0944358
0000f0 76 28 fd 3e ff fa b8 3f 36 95 cc 3e 57 a3 bb be
       0.49444932 1.4451598 0.3995759 -0.36648056
000100 9c df 61 3f fb bb 31 3e ed 04 e6 bb 08 ce d0 3d
       0.88231826 0.17356865 -0.00701963 0.10195547
000110 3c e4 78 3e ac ef 2c 3c 05 5f 7f 3e f5 32 d7 be
       0.24305815 0.010555189 0.24938591 -0.42031065
000120 80 70 21 be d3 cc 40 3e eb c8 c7 be 19 ea b7 3f
       -0.15765572 0.18828134 -0.39020476 1.4368316
000130 d9 10 a5 be 63 4c 74 bf 0f a3 a6 3e 28 1d f6 be
       -0.32239416 -0.95429057 0.3254628 -0.4806912
000140 83 c9 56 bf e9 bc 8a 3e bf 37 a5 be 02 10 35 3e
       -0.8390123 0.27097252 -0.32269093 0.17681888
000150 b8 a4 fc 3e 7c 08 ba be d7 89 9e bd 7e af 10 bf
       0.4934442 -0.36334598 -0.077411346 -0.5651778
000160 f7 71 91 be 29 bc 62 bf 16 b5 40 bf 4b 67 08 be
       -0.2840726 -0.8856836 -0.75276315 -0.13320653
000170 12 a8 0d 3e e6 60 86 be c4 8a 55 be 76 44 47 be
       0.13833645 -0.26245803 -0.20853716 -0.1945971
000180 4f f7 39 3f 35 34 84 3e 5b 9b 4e 3f e9 ed c0 3e
       0.7264299 0.2582108 0.80705804 0.3768151
000190 1d 5c cc bd 2b 2d d2 3d df 2d 90 bf 33 ad 02 c0
       -0.09978507 0.10262521 -1.1263999 -2.0418212
0001a0 22 4d 2b bf cb 45 40 bf 20 10 80 bf 84 3a 70 3f
       -0.6691457 -0.75106496 -1.0004921 0.9383929
0001b0 86 7d e7 bd 28 7b b3 3e 3d 36 26 bf 68 57 1e 3e
       -0.113032386 0.35054898 -0.6492651 0.1546303
0001c0 03 d4 9f 3e bc a7 1a be 53 55 2a bd ef be d6 be
       0.3121644 -0.15103048 -0.041585278 -0.41942546
0001d0 e9 ba 8b 3e 45 ba 29 bf 2e 58 cf 3b 8f 72 af 3e
       0.2729104 -0.6629985 0.0063276505 0.3426709
0001e0 5c 20 34 bf ae 61 06 bf f4 76 41 bf 58 28 ac be
       -0.70361876 -0.524928 -0.75572133 -0.3362453
0001f0 2b 54 16 bf 0e cf d4 3d 3f 08 8f bd 5d a6 85 be
       -0.5872218 0.10391055 -0.06983995 -0.26103488
000200 40 96 f3 bd cf 0e 1f be 6f 4b eb 3e ba 63 9a bf
       -0.11893892 -0.15532993 0.4595599 -1.2061684
000210 a3 e2 92 3e a7 6c d3 3d 51 12 21 bf 15 a5 7d 3e
       0.28688535 0.10323458 -0.62918574 0.24770005
000220 bd 95 34 bf ea 09 61 3d b3 9b 08 bf 37 6e 38 3e
       -0.7054098 0.054941095 -0.5336258 0.18010794
000230 7f 22 14 be e3 28 b0 be 2f 82 51 be 85 54 14 be
       -0.14466284 -0.34406194 -0.20459817 -0.14485367
000240 82 a1 c5 3e 61 08 14 bf 85 90 64 bd 25 84 13 3f
       0.38599783 -0.57825285 -0.055801887 0.5762351
000250 ec 49 67 bd 88 af 32 be 07 d5 f1 be 16 21 eb bd
       -0.05646698 -0.17449772 -0.4723284 -0.1148092
000260 e0 9f d1 be 3f 2a c3 bd 18 1e e4 3e e7 b1 8e 3d
       -0.40942287 -0.09529542 0.4455421 0.06967526
000270 a4 8d db 3e 91 27 10 3e 2a dd ab be 77 81 6e 3f
       0.428815 0.14077593 -0.33567172 0.931663
000280 75 a7 8d bd 0b e2 04 bf 92 8d 6b bd 5c a7 d9 be
       -0.069167055 -0.51907414 -0.05750806 -0.42510498
000290 40 12 20 3f 3e 01 b4 bd cd 21 45 3f 86 e0 be be
       0.6252785 -0.087892994 0.770047 -0.37280673
0002a0 8d 39 05 3f c6 c8 83 be 2f 2c eb 3e 71 26 10 bf
       0.5204094 -0.25739115 0.45932147 -0.56308657
0002b0 0e 10 63 bb f7 c6 ab be 52 5b 95 be 77 f4 b0 3e
       -0.003464702 -0.33550236 -0.29171234 0.34561512
0002c0 a8 06 00 bf 40 4a 0f bf 67 6a 1f 3f 4a 41 16 3e
       -0.50010157 -0.5597267 0.6227173 0.14673343
0002d0 7b 57 a6 3f 2e 04 e7 3e 26 37 98 be 5c f8 bd be
       1.2995447 0.45120376 -0.29729575 -0.37103546
0002e0 9c 8b 7f be 98 38 2d 3e 80 52 a5 3d 61 36 a2 bf
       -0.249556 0.1691612 0.08072376 -1.2672845
0002f0 ac c3 a7 bd 6f a6 b9 3e 0f 0e e7 be 33 18 d7 bd
       -0.08191618 0.3625979 -0.45127913 -0.105026625
000300 6a 91 1f bf b0 53 1e be 4f f2 10 bf df 53 2a be
       -0.6233126 -0.15461612 -0.56619734 -0.16633557

subnets.1.attn.out_proj.bias f4 [14]
000000 aa 27 f5 3d 90 72 bb 3d 6d f4 85 3e d4 f0 86 3e
       0.11970456 0.091527104 0.26163045 0.26355612
000010 d4 e0 a1 bc 68 9c 08 bd 79 2b 56 be 0d b6 8b 3e
       -0.019760527 -0.033352286 -0.20915021 0.2728733
000020 6c f7 12 3d d0 f1 1e 3e 8e c1 57 3d de 5c f8 bd
       0.03588049 0.15521932 0.052674823 -0.12127088
000030 87 08 a1 be 8e 45 1a 3e
       -0.31451818 0.15065596

subnets.1.hidden_layers.0.weight f4 [16, 14]
000000 4f 08 a4 3e c5 2c c3 be f6 80 7e 3e e2 9a 95 3e
       0.3203759 -0.38120094 0.24853882 0.2921973
000010 0d 9f 57 3e 09 37 51 bd 2f 78 d8 be 3e fe 97 3e
       0.21056767 -0.051077876 -0.42279193 0.2968616
000020 35 01 24 bf 83 29 ae be bd df 01 be 4c 75 e1 bc
       -0.6406434 -0.34016046 -0.12683006 -0.027521752
000030 be 40 88 bf b1 57 7e be 22 6e bf 3e 8e e4 54 be
       -1.0644758 -0.24838139 0.37388712 -0.20790312
000040 d4 0b 9c be 9f 06 9c bd 41 db 15 3e 1e e2 34 3f
       -0.30477774 -0.076184504 0.1463442 0.7065753
000050 49 44 6e be 5d 0e f5 3d f0 cf ab 3d f6 4a 1f 3e
       -0.23268236 0.1196563 0.0838927 0.15555939
000060 2d 25 8d be 71 7f 9c 3e 55 20 7a bf 32 a7 df 3d
       -0.27567425 0.3056598 -0.97705585 0.10920562
000070 67 31 b0 3d c4 19 6b bd 68 9c 4d 3e 41 62 40 3e
       0.08603173 -0.05739762 0.20079195 0.18787481
000080 72 4d bd 3e ea c8 1c 3f 78 ff 2e bf 17 3b 3c 3f
       0.3697315 0.6124407 -0.68358564 0.73527664
000090 08 81 2e 3e 89 19 36 3e 7f 9a 8e be 5c 37 26 3c
       0.17041409 0.17783178 -0.27852246 0.010145035
0000a0 95 1d 99 bf fd 3b 20 bd 0b 38 2c bf 59 28 cd be
       -1.1962153 -0.03911971 -0.67273015 -0.40069845
0000b0 fe a2 ee be 6d 77 9b 3d 3c 6d 2a 3f b3 be 77 3e
       -0.46608728 0.07591138 0.6657293 0.2419384
0000c0 01 20 8a be f1 e8 36 bf d4 ad 1f be 69 28 e5 3d
       -0.26977542 -0.7144919 -0.15593654 0.11189348
0000d0 c2 05 94 be eb 3f 5b 3e da 3d 85 3d 37 81 76 be
       -0.28910643 0.21411102 0.06505938 -0.24072729
0000e0 f7 eb 03 bf 88 6c bd be 65 91 a0 3e 77 98 ad 3d
       -0.5153193 -0.36996865 0.31360927 0.08476346
0000f0 72 db a8 3e 08 55 03 3f 09 ea 34 3d ad 7d 24 3e
       0.32979923 0.5130162 0.044168506 0.16063567
000100 df 14 3f bf 10 91 4d bf 42 dd b7 be 7b 5c a1 3e
       -0.7464122 -0.8029947 -0.35910994 0.3151587
000110 05 2e b2 be 9a 7f 1a bf 00 ea 4d be 7a 5b 06 3e
       -0.34800735 -0.60350955 -0.20108795 0.13120833
000120 04 77 6e 3e 19 75 74 be c5 98 85 be e3 ad 23 3e
       0.23287588 -0.23872794 -0.26093116 0.15984301
000130 c4 77 76 3e c9 32 52 be 78 6d b2 3d c0 55 85 be
       0.24069124 -0.20527185 0.08712286 -0.26041985
000140 5e c2 5a 3e 27 5d 03 be 42 18 70 be e2 91 38 be
       0.21363208 -0.12828504 -0.23446754 -0.180244
000150 f4 8b fc bd bc 79 d1 3e 6b 95 05 bf 48 d3 be be
       -0.123313814 0.40913188 -0.5218112 -0.3727057
000160 2c 2f 00 3f 2c 34 64 bf d7 5b a1 be 63 b9 ca bf
       0.5007198 -0.8914211 -0.3151538 -1.5837826
000170 8d 58 00 3f c1 2e aa 3e e5 8a 1e 3f 09 88 1f bc
       0.5013512 0.33238795 0.61930686 -0.009737023
000180 fd f5 c8 3d 74 41 c7 3e 49 11 18 bd 13 88 fa 3d
       0.098125435 0.38917124 -0.03712586 0.12232985
000190 2b 02 09 bd 6d e1 8c bd e8 eb 35 3d 02 cd 77 be
       -0.033449333 -0.06878934 0.04441443 -0.24199298
0001a0 8c 2c ec 3d 01 4a 60 bd e0 51 ee 3d ab 83 ab be
       0.11531934 -0.054758076 0.1163671 -0.33498892
0001b0 cc dd 0b 3e 40 c5 88 be ef 57 76 3d 2f 4e f2 3c
       0.13658828 -0.2671299 0.060142454 0.029578296
0001c0 91 48 9c 3e d7 7c d5 3e 57 28 63 3d f3 76 31 3f
       0.30524114 0.41696808 0.055458393 0.6932213
0001d0 48 48 a7 bc 0b d4 8b 3e 55 14 ad bc 45 12 68 3d
       -0.020420209 0.27310213 -0.02112786 0.05665805
0001e0 d9 3b e6 3d 44 19 a1 3e 44 70 9b 3e 9d 37 cb be
       0.11241884 0.3146459 0.3035909 -0.39690867
0001f0 58 53 57 bf 3f cb 34 3f 4a 95 3a bf 0f 2e ac be
       -0.8411155 0.7062263 -0.7288405 -0.3362889
000200 e0 0e ca be d9 17 26 be 8c 49 22 3f 16 59 85 3e
       -0.39464474 -0.16220035 0.63393474 0.2604453
000210 47 8a b0 be 50 1e fc 3d d0 6e 15 bf b4 3b ce be
       -0.34480497 0.12310469 -0.5837221 -0.40279925
000220 3d a1 83 be e8 89 0c 3f 1d ec 1d 3e 80 ba fe be
       -0.25708953 0.5489793 0.15422101 -0.49751663
000230 ad e1 22 3b 85 d5 05 3f d1 5a 62 be c5 1f f9 3e
       0.0024853752 0.5227893 -0.22104956 0.4865705
000240 95 5b 3a 3e 45 bb 66 3d 14 51 2a bf e6 47 34 bf
       0.18198998 0.056330938 -0.66529965 -0.7042221
000250 e3 e8 34 3d c4 de 45 3e ac 32 c0 3e c2 c8 0d bf
       0.04416741 0.1932326 0.3753866 -0.5538446
000260 cb a4 85 bf 0e eb e0 3e a5 d8 1a 3e 26 0d a1 3e
       -1.0440916 0.43929332 0.15121706 0.31455344
000270 be 07 6c 3e ac 48 a8 bd 44 ed 16 3e ed 2b 16 3e
       0.23049828 -0.08216986 0.14738947 0.14665194
000280 0d d5 16 3e a4 6b 5e be 80 41 aa bd ba 77 55 3b
       0.1472971 -0.21720749 -0.083132744 0.0032572583
000290 b5 21 1a 3e 4f b9 98 bc d5 c2 9f 3d f3 df 56 be
       0.1505192 -0.01864305 0.07800833 -0.20983867
0002a0 bf d3 27 be 87 61 6b 3e bc 20 5d 3c bc fc 6e 3e
       -0.16389368 0.22986422 0.013496574 0.23338598
0002b0 d3 8d 61 bd a5 01 40 be 23 12 ae 3c 1a e6 20 bd
       -0.055066895 -0.18750627 0.021248883 -0.039281942
0002c0 51 0c 88 bd 41 eb 6f be e7 88 f5 3c 4f 14 0e 3e
       -0.06642974 -0.23429586 0.029972507 0.13874935
0002d0 94 39 0c be 3c d1 22 3e f5 7d 2b 3f 12 db ac bd
       -0.1369384 0.15900129 0.6698907 -0.08440222
0002e0 d7 68 aa be a3 2e b4 3e 98 e1 8d 3e 01 cd e0 bd
       -0.3328311 0.3519183 0.27711177 -0.109766014
0002f0 b8 0f 87 bf d3 8f 87 3f 2d ee c3 3e 15 4c 67 3f
       -1.0551672 1.0590767 0.3826765 0.90350467
000300 00 b3 94 be 9d 87 b4 3d 15 e0 62 bf b4 b0 ce 3e
       -0.29042816 0.08814929 -0.8862317 0.4036919
000310 23 55 da be c0 13 6d be 3b 32 51 be 84 1a ee be
       -0.4264308 -0.23152065 -0.20429318 -0.46504605
000320 24 24 e0 3e a3 10 b5 3e 0a 8f 2f 3e bb be b0 3d
       0.43777573 0.35364255 0.17144409 0.08630129
000330 2a eb 1f 3f f1 9f bc 3e 83 d7 9c be 3b d3 94 3e
       0.62468207 0.36840776 -0.30633172 0.29067406
000340 a3 00 d8 bc e8 19 e9 be d9 ae 01 3d e5 90 ee 3c
       -0.026367491 -0.45527577 0.03166089 0.029121825
000350 9a 4d 72 3f 86 5b b2 3f 6d ca bc bc 02 6d 47 bf
       0.9464966 1.3934181 -0.023045743 -0.7790071
000360 6b 61 9f bd 95 b4 79 bd f2 aa e6 be 12 f2 1f 3d
       -0.07782253 -0.060963232 -0.45052296 0.039049216
000370 c8 fe d9 3d e9 f5 00 bf a2 c0 26 bf 91 80 9b 3d
       0.10644299 -0.5037523 -0.65137684 0.075928815

subnets.1.hidden_layers.0.bias f4 [16]
000000 7a 1f 58 3e 2d 45 12 bd 26 d3 20 3f 06 4e c9 3c
       0.21105757 -0.035710502 0.62822187 0.024573337
000010 fc 3d 21 3d 64 37 67 be 3f ab 85 3d 7d 2a 17 be
       0.039365754 -0.22579724 0.06526803 -0.14762302
000020 19 73 ba 3e 9b c7 b4 bd d3 50 af 3e 42 a7 51 be
       0.36415938 -0.08827134 0.3424135 -0.2047396
000030 06 e3 65 be 3d ee f6 3e ba 3a ae 3d 1a ec cc 3e
       -0.22449884 0.48228636 0.08507295 0.4002388
