trained_pth_model/MFNet_fold_2_model.pth (torch, 35587 bytes, 40 tensors)

subnets.0.attn.in_proj_weight f4 [42, 14]
00000000: 00bc 4abe 7ff5 9c3e 704c 313e 24ba a23e
00000010: 305a 113c 9e0d 943e cbc0 7fbe 3f8b 3f3e
00000020: e1be 793e 41c6 d0bc 7536 b3bb 9e4b 85be
00000030: 69a5 13bd 7850 a6be 3411 3c3e c601 76be
00000040: db11 2c3e 982c 03be 2b6e 9ebc d242 8f3e
00000050: 31be 48be d966 583e e121 b9bd 3601 903e
00000060: f468 f63d 4372 6dbe 32f8 37bd d242 913e
00000070: f022 273d 0a5e 493e 5bfb 64be e0af 963d
00000080: de70 97be 2357 0abe 8fb3 413d b059 623e
00000090: aa60 84be e526 753e 2331 8ebe dc35 95be
000000a0: 1661 f13d 9bb1 e73d cd45 903e 6897 a0be
000000b0: 86fa d6bd 40a5 6cbe 5a9f 04be 532c 45be
000000c0: 83ed 0abe 2a61 d93b 547c 29be ddd0 39be
000000d0: e5c0 54be 068f 1ebe 8d75 91be d826 28be
000000e0: 1118 8d3d ed2d 153e a855 5cbe f0c2 293d
000000f0: 475f f83d 2343 a73d 2028 78be 8cce 9fbe
00000100: bea3 10bd 7436 a23e bf04 413e 4893 02be
00000110: 52a3 78bb 57a0 a13e e810 373e 196b 67be
00000120: ba3c 2e3e a2bd 9fbe d501 42bd 0554 64be
00000130: 2679 88be 7084 1f3e 6ae5 bbbd 8abc 7e3e
00000140: 242f 873e 846c 2c3e 1cb2 a13e 2208 9dbd
00000150: c2b1 3d3e bd45 863e 81a2 323d deca cf3c
00000160: 6b33 12be be8e 87be 4c4f 913e c735 28be
00000170: 1bba 813e 5739 58bd a3e9 ddbd 5f01 393d
00000180: 48c1 4d3e 787f 013e 4917 83be 1e52 92bd
00000190: dfa8 973d 4d77 ddbc e261 49be ca6a 5e3e
000001a0: 0791 6bbe 330c d73d 5e3f d7bd b269 87be
000001b0: f540 f23d 426b fd3d 79e5 083e ef55 bc3c
000001c0: 4135 a53e 7abb 8a3e 4089 15be 1bd7 15be
000001d0: 025f 62bd e393 0abd 8875 92be fa28 b3bd
000001e0: 9f14 bbbd d152 4d3e d13b a73e 8ae6 0ebc
000001f0: 0e43 51be caf4 3d3e aa7c 50be 12dd 43be
00000200: daf6 8b3d ac2a 8ebe 831f 0bbe 61e5 8f3e
00000210: a63b 4a3d c427 f53d 85ab 8abe 14cb 653e
00000220: 33e9 c1bd 9e81 563d 089e f3bd a49f 8c3e
00000230: 3a6c 473d 1620 9dbe 8277 023e 92ca 7fbe
00000240: a678 563e f900 a1be 3690 963e 759b 9cbe
00000250: ee71 88be 4c8c 0cbe 5e6e 35bd 9a05 2ebe
00000260: 9df7 6a3e 28dc febd 4973 70bd bb93 513e
00000270: 8cdd ba3d fea9 a63e 5245 5fbc 2582 8f3e
00000280: fa42 de3c e392 0e3e 83fa 6cbe d56c 0c3c
00000290: 3428 83be 13f6 f6bd c725 3fbe 940d 293e
000002a0: fdbb 12be 609d a3be abee 2cbe 4538 c2bd
000002b0: 8326 423e 7ea3 eb3d 3175 8abe 8a29 1b3e
000002c0: e33a 3a3e cb39 ffbd 0f94 83bd 59d4 28be
000002d0: f3cf ab3d ca45 85be 4d41 393e ba3e 263e
000002e0: c818 8fbe 90af 6dbd 3a7c 28be 0701 a73e
000002f0: a1e0 1f3e 2269 60bd 5152 50be 19e0 c5bd
00000300: 2b1f 13be a63c bc3c 6aa9 91be 5a0b a13e
00000310: 8da9 563e 8fd9 5cbe 7067 193e 9ee9 7abe
00000320: 1664 803e b728 f23d b3c0 4f3e 7208 9f3e
00000330: 762a 5d3d 01fa 09be d4f4 0a3e 07c9 913d
00000340: c875 83bc 842a 99be 4c02 28be 81af 9b3e
00000350: 5fef 48be cdf9 1a3e f956 943e 80d2 8bbe
00000360: 9b86 4bbe 9e2c 8fbe 5236 26be d34b d13d
00000370: 09d2 6a3e 00aa 53be 018f 27be 5b96 3e3d
00000380: e9f2 03be 4924 49be a6d0 0ebd a648 6c3e
00000390: 874c 29bc 3681 33bd c4ff 463e 02c9 0ebe
000003a0: 9d4e 6bba 79c7 813e d5c0 d2bd 488f 8e3e
000003b0: 67a1 b6bb 0ad2 113e bc8d bfbd 111e 69be
000003c0: 6d38 9cbd 9ee6 d2bd 607f 283e e124 693e
000003d0: dc9d 553e 9809 3e3e 3add 523e 13ce a33e
000003e0: 0b2e 253c 492d 6ebe 39c8 843e 027c c4bd
000003f0: d8db 8ebe 9343 eabd 3c17 a7be f3ba f4bd
-0.19798279 0.3065605 0.17314315 0.3178264 0.0088716 0.2891664 -0.24975888 0.18705462
0.24389221 -0.02548516 -0.0054691383 -0.26034254 -0.03604642 -0.32483268 0.18365937 -0.24024114
0.16803686 -0.1280998 -0.019339642 0.27980667 -0.19603802 0.21132983 -0.09039665 0.28125924
0.12031737 -0.23188119 -0.044914432 0.28371292 0.040804803 0.1966478 -0.2236151 0.07357764
-0.29578298 -0.13509803 0.04729038 0.22104526 -0.25855 0.23940618 -0.27771863 -0.29142654
0.11786096 0.113131724 0.28178254 -0.31365514 -0.10497002 -0.23109913 -0.12951413 -0.1925519
-0.13567166 0.0066338973 -0.16551334 -0.18146081 -0.20776708 -0.15484247 -0.28409997 -0.16421068
0.06889356 0.145683 -0.2151705 0.041445673 0.12127548 0.08167102 -0.24234056 -0.3121227
-0.035312407 0.3168217 0.18849467 -0.12751496 -0.0037939143 0.31567642 0.17877543 -0.22599448
0.17015353 -0.31199366 -0.04736503 -0.22297676 -0.2665493 0.15577865 -0.09174617 0.2487661
0.26403153 0.1683827 0.315812 -0.07667567 0.1852484 0.2622508 0.043612007 0.02536529
-0.14277427 -0.2647609 0.2838081 -0.16426764 0.253373 -0.05278906 -0.10835578 0.045167323
0.20093262 0.12646282 -0.25603703 -0.07144569 0.074052565 -0.027034426 -0.19666246 0.21720424
-0.23004542 0.10500374 -0.10510133 -0.26447827 0.11828796 0.123739734 0.13368787 0.022990195
0.32267192 0.27096158 -0.14603138 -0.14632837 -0.055266388 -0.033832442 -0.28605294 -0.0874805
-0.091347925 0.20051123 0.32662824 -0.008721957 -0.20435736 0.18550411 -0.20360056 -0.191273
0.068341926 -0.2776693 -0.1358624 0.2810469 0.04937329 0.11970475 -0.27083984 0.2244075
-0.09468307 0.052369706 -0.118953764 0.27465546 0.048687197 -0.30688542 0.12740901 -0.24979618
0.20944461 -0.31446055 0.294069 -0.30587354 -0.2664942 -0.13725394 -0.044294707 -0.16994324
0.2294602 -0.12444335 -0.058703694 0.20466511 0.09124288 0.3255157 -0.013627367 0.2802898
0.027131546 0.1392322 -0.23142438 0.008570869 -0.2561661 -0.12058654 -0.18666755 0.16509086
-0.14329524 -0.31956005 -0.1688792 -0.09483389 0.18960004 0.11505793 -0.27042535 0.15152565
0.18186526 -0.12462195 -0.06424724 -0.16487254 0.083892725 -0.26029807 0.18091317 0.16234866
-0.27948594 -0.058028758 -0.16453639 0.3261797 0.15613033 -0.054787762 -0.20343901 -0.09661884
-0.14367358 0.022978138 -0.28449565 0.31453973 0.20963116 -0.21567367 0.14980865 -0.2450318
0.2507636 0.11824172 0.20288353 0.3106113 0.053995572 -0.13474275 0.13569957 0.07118421
-0.016047373 -0.2991525 -0.16407126 0.30407336 -0.19622563 0.15134354 0.28972605 -0.27309036
-0.19875567 -0.27963728 -0.16231659 0.102195404 0.22931685 -0.20670319 -0.16363145 0.04653011
-0.12885632 -0.19642748 -0.03486695 0.23074588 -0.010333187 -0.043824397 0.19433504 -0.13943866
-0.0008976253 0.25347498 -0.10290686 0.2784369 -0.00557344 0.1424028 -0.093532056 -0.22765376
-0.0762795 -0.10297893 0.1645484 0.22767974 0.20861 0.18558347 0.20592204 0.3199316
0.010081778 -0.23259462 0.25934008 -0.09593965 -0.27902102 -0.1143867 -0.32634914 -0.1194972

subnets.0.attn.in_proj_bias f4 [42]
00000000: 0000 0000 0000 0000 0000 0000 0000 0000
00000010: 0000 0000 0000 0000 0000 0000 0000 0000
00000020: 0000 0000 0000 0000 0000 0000 0000 0000
00000030: 0000 0000 0000 0000 0000 0000 0000 0000
00000040: 0000 0000 0000 0000 0000 0000 0000 0000
00000050: 0000 0000 0000 0000 0000 0000 0000 0000
00000060: 0000 0000 0000 0000 0000 0000 0000 0000
00000070: b4c7 b13d df82 5f3e b34c 53be 5bde 0bbe
00000080: 887f 8d3e 0ad4 123e 9092 323e afd8 58be
00000090: b71b 5a3e b54c 193e fddf 18bd f4f8 853e
000000a0: 4b60 583e 7272 483e
0.0 0.0 0.0 0.0 0.0 0.0 0.0 0.0
0.0 0.0 0.0 0.0 0.0 0.0 0.0 0.0
0.0 0.0 0.0 0.0 0.0 0.0 0.0 0.0
0.0 0.0 0.0 0.0 0.086806685 0.21827267 -0.20634727 -0.1365904
0.2763636 0.14338699 0.17438722 -0.21176408 0.21299635 0.14970668 -0.037322987 0.261665
0.21130483 0.19574907

subnets.0.attn.out_proj.weight f4 [14, 14]
00000000: cf25 f0bd a630 b43e 0223 30bf 7651 80be
00000010: 8826 09bd 3b23 64be b716 03bf 7f68 123d
00000020: 0eeb 493f 72f5 a7be f714 a03d c9f8 5d3e
00000030: 9fb7 a7be c396 ba3e 42d6 1b3d fe4f 26bd
00000040: 5024 333e e0a8 4abc 7b09 09be f6ca 83be
00000050: a03f 173e 48ec 1a3e 761f a1be 35ca bf3c
00000060: 6fb6 3abd ee7f 89bd 2281 ce3d 2d8b 95bd
00000070: 4e5a c23e b1ed 883e e5ab 84be b81e 11be
00000080: 5396 873e f53c 893d c2e7 0e3e d931 4bbe
00000090: fba5 bc3e 92e3 253e 43e3 58bb 932d 5b3d
000000a0: d100 01be c9a0 893e ffa5 1f3d eaef c03e
000000b0: c876 d7be 2241 3fbd 0397 a23e ab38 cf3d
000000c0: 656e e8bd 4442 77be d298 823f 4517 963d
000000d0: 5e56 493d b276 6a3e 310b 25be 042f 133f
000000e0: 42f0 88bd 4bf5 19be ffd0 8a3e 92ab 833e
000000f0: 2702 ed3d f226 fabd dd73 90be 50a7 903d
00000100: 5ad6 60bf 605b 1cbe 18a6 81bd c67c f9bd
00000110: 1acf 63be f270 eabe a82f 1b3c 48b6 65be
00000120: 30f3 5abe b520 d53e 6bc8 583d 5757 6bbe
00000130: 9d16 6a3e d170 e33d 0760 3c3d 23ca 9ebe
00000140: 761d 923d d1ba 1a3c 85be 303e 3e55 ec3d
00000150: 19c3 babe 99a7 77bd cf74 8c3e e4d7 293f
00000160: b512 a83e fd52 46bf 6b5b 693d 2763 b63c
00000170: 58d6 f8be 65a5 d63d 4abf 563f 2180 f03c
00000180: 3eed 493e 9bcf c63d 84aa 46be 199b c03e
00000190: dbf4 b73d 9cf5 02bf e900 bbbd 7b43 053d
000001a0: 4e31 2fbf ab29 40be 5024 8dbe f8d1 f9bd
000001b0: 73f6 913e 00f0 7bbe 46d9 18be b0c7 17be
000001c0: 4cc1 8f3e 2615 4b3e 37e1 143e ce13 51bd
000001d0: 3d8a ad3e 3a69 11be e864 b23e ef75 69bd
000001e0: c9a9 4dbe 6bdd 7c3d 1552 383d 7e66 c43e
000001f0: fa77 943e b068 853d 56bd a13e 96d7 a93d
00000200: af26 9f3e a573 2c3e 96d4 cc3d 7543 b8bc
00000210: 1cc6 a5bd 3afd 2f3e 8e93 0ebf cadc 2b3d
00000220: bab8 453e 9ce2 e53c 8f2d 9abe f072 22be
00000230: 47dd f43d ddc8 8b3e 6a05 9b3e bf1d 2c3e
00000240: 6025 69be 740f 1ebe 81ea d4bc c0b4 a33c
00000250: cef6 f1be 605a 1bbd 3970 da3e dc52 34be
00000260: 6543 c7be afd2 5cbe 4f5c 6cbe 1ce2 f3be
00000270: 9553 e8bc cb7f 83be 1230 cabd 5f74 ae3e
00000280: 31f8 bbbe 2f5a 363d 6692 23be 4d1d f2bd
00000290: 8342 053e 1cb5 98be f936 85be f04a b9bd
000002a0: 4323 5a3d dac3 2c3e 4694 083f 9de4 883d
000002b0: 5154 b3be 7a4a 36bd 1c5d 2bbe b646 f43d
000002c0: 497d 91bf de15 04bd 505f d4bd 7437 babe
000002d0: 92d8 22be a962 3bbf 1efc bd3d df91 7f3d
000002e0: 724c e93c 85e9 f7be 884a 37be 29fb 3b3f
000002f0: ad17 9dbc 39c3 0f3d 68e0 333d f149 c13d
00000300: 67ba 6ebf ff43 953c 5c8a d7bd a8dc 423d
-0.117259614 0.35193366 -0.6880342 -0.2506215 -0.033484012 -0.22279064 -0.51206535 0.035744186
0.7887429 -0.32804447 0.07816499 0.21676935 -0.3275728 0.36443147 0.03804613 -0.04060363
0.17494321 -0.0123693645 -0.13382523 -0.25740784 0.14770365 0.15129197 -0.31469315 0.02341185
-0.04558414 -0.06713854 0.10083224 -0.07301936 0.37959522 0.26743844 -0.25912395 -0.14171875
0.26481876 0.0670108 0.13955596 -0.19843234 0.36845383 0.16200092 -0.0033094443 0.05351026
-0.12597968 0.26880482 0.038976666 0.3768304 -0.4208281 -0.046692975 0.31755838 0.101182304
-0.11349181 -0.24146372 1.0202887 0.07328657 0.04915463 0.22896841 -0.1611755 0.57493615
-0.066864505 -0.15034978 0.27112576 0.25716835 0.11572676 -0.122144595 -0.28213397 0.07063162
-0.87827075 -0.15269232 -0.06330508 -0.12182002 -0.22246972 -0.45789295 0.009471811 -0.22432816
-0.21381831 0.41626516 0.05292551 -0.22982536 0.22860189 0.111055024 0.045990016 -0.31013593
0.071345255 0.009443955 0.17260177 0.11539696 -0.36476973 -0.060462568 0.27432868 0.6634505
0.32826772 -0.7747038 0.05697195 0.022264076 -0.4860103 0.10480765 0.83885634 0.029357972
0.19719407 0.09707566 -0.19400984 0.3761833 0.08982249 -0.5115602 -0.09131033 0.032535058
-0.6843461 -0.18765895 -0.27566767 -0.121982515 0.28508338 -0.24603271 -0.14926633 -0.14822268
0.2807716 0.19832286 0.14539038 -0.051044278 0.3389453 -0.14200297 0.3484261 -0.056997236
-0.20084299 0.061734598 0.045000155 0.38359445 0.28997785 0.06514108 0.31589764 0.08293073
0.310842 0.1684099 0.10001485 -0.022493104 -0.08094427 0.17186442 -0.556939 0.041958608
0.19308749 0.028062157 -0.30112883 -0.15864158 0.11956268 0.27301684 0.30277568 0.16808222
-0.22768164 -0.15435582 -0.025990726 0.01998365 -0.4725861 -0.037927985 0.42663744 -0.17609733
-0.38918605 -0.21564744 -0.23082088 -0.47633445 -0.028360168 -0.25683436 -0.0987245 0.3407316
-0.36712793 0.0445196 -0.15973815 -0.11821995 0.13013653 -0.29825675 -0.26018503 -0.09047496
0.053256284 0.16871586 0.5335125 0.066842295 -0.35025266 -0.04450462 -0.16734737 0.119275495
-1.1366359 -0.032247417 -0.10369742 -0.36370432 -0.15902928 -0.7319742 0.09276603 0.062394973
0.028478835 -0.4842035 -0.17899525 0.73430115 -0.019176329 0.03509829 0.043915182 0.09437931
-0.9325318 0.0182209 -0.10524437 0.047573715

subnets.0.attn.out_proj.bias f4 [14]
00000000: a298 183e c5ae d1be 81fd c53d b2cd 093e
00000010: ec21 97bd ab0a 1d3e ef1c 94be ee09 07be
00000020: b657 f4bd 5b06 45be 104b 3abe 153b 27be
00000030: 6995 38be 7de5 a63e
0.14901975 -0.4095365 0.09667493 0.13457373 -0.07379517 0.15336101 -0.28928325 -0.13187382
-0.11930792 -0.19240706 -0.18192697 -0.16331132 -0.18025745 0.3259696

subnets.0.hidden_layers.0.weight f4 [16, 14]
00000000: 748f 4abe 93e7 b7be a32d ae3e b934 823e
00000010: a98a f4be f117 91be 0d98 8c3c e0e7 3bbe
00000020: 5a8e c6bc ecb4 acbd d3ae 78be f374 a33e
00000030: 3aa3 06bf 01f4 893d 28d8 3cbd f340 7e3e
00000040: 5429 ed3c c748 ca3d c316 c1bd 743b d3bd
00000050: e9f3 e93d 76a3 86be c468 833e dfd3 ac3d
00000060: c8b7 9b3d 5491 fcbd 5e0f 6ebe feba 5b3e
00000070: fb24 9e3f 3cce 4cbe 8e5b cc3e 9c23 863f
00000080: 710c 13bf eeaa 6bbe 811b a73c 0202 cfbd
00000090: 792d 3d3d 86ce cabe 79a7 fcbe 756b 8b3e
000000a0: 5dbc 98bf 1093 6a3d 7dfe ff3d a6a2 543f
000000b0: ee8d 5e3e 1cb4 873e 1a48 c6be a598 98bd
000000c0: a46c 693f 02e3 833e 038b d43f b1b8 083f
000000d0: 02db 193d 3d82 79bf cce3 31bf a9f1 f0be
000000e0: a503 f6bb c85f ddbd a169 afbd 9c0d 53be
000000f0: 2017 5d3e 1c4c e8bc ef7f a93e f6ba 873e
00000100: d27d 4d3d 4fb7 473e 02f7 663e 217c cebd
00000110: d277 343e e4d5 073b cc43 4a3e 94fb 13be
00000120: 9fc8 48bd 77ab 0b3d 4c8a 213e 115d 49be
00000130: 1f50 1ebd 26b8 483e 54d1 02bd 20e7 683e
00000140: 5c31 88bb 7ef2 bebd e67d 21be ddb5 b83d
00000150: 7083 033f f7f6 6f3e b213 aebe f18b a53e
00000160: 740b 1e3e f8e3 823d 101d fa3e 220c 1d3f
00000170: 1d96 74bc 63ee 2e3e fa4f 8e3e 7acd e03d
00000180: e3c7 bbbe 16c3 dabe 05a4 013e 5175 4e3e
00000190: 83ad 713d e17e c8bd 683b 1fbc 9c66 4ebe
000001a0: 83ca e0bd 2aac 1ebe 33a8 0b3d e0bd 3dbe
000001b0: fc82 74bd 130b 48be aa32 0cbe fe79 b3bd
000001c0: de76 84be 8e1a e4be 259a 56be c48a 84bd
000001d0: 17a1 b93d 181a 523e f1fc f8bc 65bb b5be
000001e0: 274e b0bd 0522 94be e1a9 b2bd e49c 893c
000001f0: f2c9 56be 7939 a13e 5aad 2fbc c23e 3ebe
00000200: 287b 143e 7233 783e 5647 86be 47bb 3a3e
00000210: d1f3 5fbe 38be abbd 2fbe 7ebd 6faa 45bd
00000220: 6e0e 07be ad41 84be c87a d4be a9ec 5d3e
00000230: 7dfe 0cbd 5b23 bd3e ac99 5ebe 05c9 603d
00000240: bdf4 923e bea5 adbd 078e f73f b2e3 243f
00000250: e18a 923e f96a bb3e 7df2 0a3f fa49 6d3e
00000260: bb5e d13c b8bd 05c0 e669 23be 8470 04bd
00000270: f6b6 db3d a14d 65bd 74ca 0dbe c192 f63d
00000280: 77e6 12be 1b1f 5a3e dd2e c93d 8480 20be
00000290: a50a a23e dd6f 54be 2f6c 80be c898 a73c
000002a0: 912f 483f a716 8cbe ae5e a83e 47c5 863f
000002b0: ae71 66bf d612 f13c 7108 6dbe b0d1 0a3c
000002c0: 20ff afbd cb03 85be 2641 4cbd dcc5 893c
000002d0: 09cf 66bf a928 60bd 78c1 60bd 415a b9bd
000002e0: c4d7 67bc ace5 273e db14 53bb 19b0 223e
000002f0: fe9d 673d 6eba a0be 219c a63e a244 063e
00000300: 2f06 39bd 83aa c43c 6d01 5abe 147d b53d
00000310: 1157 af3d 1ce1 50be 653e 6b3e 1856 4ebe
00000320: 2335 05be 74bc 1fbe 779b e4be 3c79 883d
00000330: 4eaa babe 5b4f 76be 47dc efbe 4952 8e3e
00000340: b0c8 873d c0f0 833e 359a 5abe a3a6 373e
00000350: 45c6 70bc 9e82 db3d aac7 b23d 598a 263e
00000360: 2a26 593f 13cb 73be 81cd 123f f3de 383e
00000370: 0789 0c3b 0a5e c4be bbba 53be adbe 0bbf
-0.19781286 -0.35918865 0.34019193 0.2543085 -0.4776204 -0.28338578 0.017162347 -0.18350172
-0.0242378 -0.084329456 -0.2428544 0.31925163 -0.52592814 0.06735993 -0.04610458 0.24829464
0.02895037 0.098771624 -0.094281696 -0.10314074 0.11423475 -0.26296586 0.25665867 0.08438849
0.07603413 -0.12332407 -0.2324805 0.2145805 1.2355036 -0.20000547 0.399136 1.0479617
-0.5744086 -0.23014423 0.020398857 -0.10107805 0.046185944 -0.3961069 -0.49346521 0.2723042
-1.1932484 0.057269156 0.12499712 0.8306068 0.2173383 0.265046 -0.38726884 -0.0745099
0.911814 0.2575913 1.6604923 0.53406817 0.037562378 -0.9746435 -0.69488215 -0.47059372
-0.0075077587 -0.108092844 -0.08565069 -0.2061066 0.21590853 -0.028356604 0.33105418 0.26509827
0.05016882 0.1950352 0.22555164 -0.100822695 0.17623833 0.0020726854 0.19752425 -0.14451438
-0.049019452 0.03409907 0.15775412 -0.19664408 -0.03865063 0.19601497 -0.031937912 0.22744417
-0.0041562747 -0.093235955 -0.15770683 0.09019063 0.5137243 0.23434053 -0.339994 0.3233333
0.15434057 0.06391138 0.48850298 0.6134664 -0.014928368 0.17083125 0.27795392 0.109766915
-0.3667594 -0.42726964 0.12660225 0.2016194 0.059003364 -0.09789825 -0.009718753 -0.2015633
-0.10976126 -0.15495363 0.034095954 -0.18529463 -0.05969523 -0.19535474 -0.13691202 -0.087635025
-0.25871938 -0.4455151 -0.20957239 -0.0647178 0.090639286 0.20517766 -0.03039405 -0.35494533
-0.086086564 -0.28932205 -0.08723808 0.016798444 -0.20975474 0.3148916 -0.010722483 -0.18578628
0.14500105 0.24238375 -0.262263 0.18235503 -0.21870352 -0.08385891 -0.062193092 -0.04825824
-0.13189098 -0.25831357 -0.41499925 0.2167231 -0.034422386 0.36941037 -0.21738309 0.054879207
0.28702345 -0.084788784 1.9340218 0.64409935 0.2862158 0.3660505 0.5427626 0.23172751
0.025557866 -2.0897045 -0.15958366 -0.032333866 0.107282564 -0.055982236 -0.13846761 0.1203971
-0.14345728 0.21300928 0.098233916 -0.15674025 0.31648746 -0.20745797 -0.25082538 0.020458594
0.7819758 -0.27361032 0.32884735 1.0528954 -0.9001721 0.029427927 -0.23147751 0.008472845
-0.08593583 -0.25979456 -0.049866818 0.01681798 -0.9015966 -0.054726277 -0.054872006 -0.09050418
-0.014150564 0.16396207 -0.0032208476 0.15887488 0.056547157 -0.31392235 0.32540992 0.13112119
-0.045171913 0.024007088 -0.21289606 0.088617474 0.085615285 -0.20398372 0.2297302 -0.2015003
-0.13008551 -0.15599233 -0.4464986 0.066637486 -0.36458057 -0.24053709 -0.46847746 0.27797154
0.06630075 0.25769615 -0.21347888 0.1793466 -0.014695709 0.107182726 0.08729489 0.16263713
0.8482386 -0.23807935 0.57344824 0.18053798 0.002144398 -0.38352996 -0.20676701 -0.54587823

subnets.0.hidden_layers.0.bias f4 [16]
00000000: 2aa7 3dbd a1f6 b4be f5bf 993e 0ee1 2fbf
00000010: d924 523f ee17 ca3e cad5 a9be 57b0 7dbe
00000020: 9a6a 293f 5ffe c93e 359c e7be 8591 8ebe
00000030: 5744 0e3f 078c 97be 08b1 323e 512e fbbe
-0.046302 -0.35344413 0.30029264 -0.6870278 0.82087475 0.39471382 -0.3317092 -0.247743
0.66178286 0.39451882 -0.45236364 -0.27845398 0.5557303 -0.2959902 0.17450345 -0.49058774

subnets.0.hidden_layers.2.weight f4 [16, 16]
00000000: 2d26 b1be 3ce6 abbd bcde 1bbe a8eb 53be
00000010: 7467 78be 551e 0c3e 4088 cdbd c6dc 69be
00000020: 00a0 5abe 0369 41be 7add 45be 1c25 c43d
00000030: d85e bbbd 1ced dfbd d208 693c 0c9d 753e
00000040: 4c5b 63be 3630 a4bd ee7f 15be 1c88 4ebe
00000050: a18a 013f 4fd4 5d3e 2c06 bb3e bb1e cfbc
00000060: ba5b 1dbd 817e a9be ee4b 91bf 00cb 53bd
00000070: de06 523c 634d b13d b695 463e 1201 863d
00000080: 240e 413e 3cb3 073e eee6 ae3d 4940 833f
00000090: d512 acbe 78ca 6c3e af4b 53be eb7a 17bd
000000a0: c9c4 b93e 756e 1a3f 8f1c a8be 6e82 163e
000000b0: b7ae 903e 4bff 833d 6497 0c3e 9bcb 38ba
000000c0: 6f33 babd 27a8 943e cf42 973e af71 6d3f
000000d0: 60cc 733d b6ea 4a3e 9188 093f f635 e43d
000000e0: f8e9 9b3c e895 8a3d c299 903e 4378 07be
000000f0: 4562 1e3e 2cb2 c5bd ad3e 75bc e16b 1ebf
00000100: 0e92 823c fe49 3b3e 1a24 2f3d c762 0ebf
00000110: 46cc d1bd a3ca c6be 7fb1 5abf 2b9f 493d
00000120: b4c4 a0be f769 3bbe c50a 603e 58dc 0f3d
00000130: 9db7 d33d 2107 c0bd 7e2d 18be ec94 bb3e
00000140: 12ce b13d 50f0 1e3e 8b28 b9be 0cf0 0ebf
00000150: 88c8 9ebe d644 c23c ae11 b5be f68f 143e
00000160: b489 bb3e f868 04bd dcf5 593e 630e 783e
00000170: 3c34 98be d743 b4bc e6bb f13e 5e9c 073f
00000180: 0adf 59bf dd4f e33d 565b 50bf 6120 35be
00000190: 2cc3 89be d120 b13e 0035 983e 0d25 0b3c
000001a0: 3cd2 f83e c21b e93b 411c 4bbd d9da 68be
000001b0: 4c0f b6bf 6cc6 45be f789 cf3e 477a a6bd
000001c0: 1106 22be d04c 7c3d bdda ae3c 30ec 943e
000001d0: 8eac 673d acab efbd 0982 93be cc9f aebd
000001e0: faf3 efbc 62ca aa3d 645a 64be 8c72 593e
000001f0: 2505 a73c ac6b c63d c139 29be 0084 ea3b
00000200: e234 73bc e46d 343e 1c3d a3be 5812 29bd
00000210: 6ad4 adbe a06f 59bd 6970 56be f456 b2bd
00000220: 55eb 733d 5714 e4bd e833 d1bd e107 553e
00000230: 6dc5 97bd 402d 09bd c485 2bbd 8003 a0bc
00000240: d44d edbe ad5c 04be d1ba 9ebf 1636 2abd
00000250: 7605 cdbd de78 363e 4d83 c4be 94a5 f53d
00000260: 71b9 953e a0dc 89be d001 0dbe 1f79 f9bd
00000270: ce5b e1bf a9d3 5dbe 24fc 1e3f b773 37be
00000280: e2dc 1ebc 7012 0ebd 96f7 c03c 783e 013e
00000290: 3258 8cbe b794 f63d 7135 593d c8c4 cc3d
000002a0: 10c9 893d 91e4 4abe a63d a6bc 78f1 3b3d
000002b0: 7f8a ae3c 0ca4 4f3e e2df 6cbe 5285 153d
000002c0: 515f 61bf 73e6 29be a2d0 88bf 5bf2 b2be
000002d0: 53e9 263f c567 b63e 0d08 16bf 4eb0 6f3e
000002e0: ed67 b53e dfa9 7abf e252 e4bf 04f8 313e
000002f0: 030b 32bf b0c1 8ebc a6b5 a5be a8c5 d7bc
00000300: 0839 a63d 40c0 22bc e231 383e 606e d1bd
00000310: 1092 46be 80bc 46be 50fd 593d 805c 2fbe
00000320: f04b d53c 3c35 2dbe 2046 07bd 78e6 3b3e
00000330: 482e e4bd a8f3 453d 028c 69be 2c4d 51be
00000340: b064 e63c 9c6f 05be 34e9 923d 8085 fdbb
00000350: 6e15 65be b8b6 20be 2c36 003e 1418 103e
00000360: 086d 15bd a843 4bbe 2ca4 11be c479 0bbe
00000370: 147e 74be bc8d ccbd a86e a4bd d6be 5a3e
00000380: c071 a83e 8c6e 3e3d 1ff4 a6be 18fe 2ebf
00000390: 865a b03e 7646 aa3d c489 753e 654c f5bd
000003a0: 06f4 463d 6216 713b a301 c5bc 511b 50bc
000003b0: 4577 96be f2da b33d b5f1 9b3d 3f6a 84be
000003c0: 4731 73be 7918 e9bd 7e1e 8ebe 2cd4 6dbc
000003d0: 2e0f d73e 40f1 023e 4747 67bf 82f7 44be
000003e0: 8e5a f73e 230e 5dbe 2231 cbbf 3819 08be
000003f0: f2c8 89be aad5 23bd 6311 853e 47a9 6e3c
-0.34599438 -0.08393523 -0.15221685 -0.20695364 -0.24258214 0.13683446 -0.10035753 -0.22838125
-0.21350098 -0.18887715 -0.19322768 0.095773906 -0.091489494 -0.10933897 0.014223294 0.2398569
-0.22202796 -0.08017008 -0.14599583 -0.20169109 0.50602156 0.2166302 0.36528146 -0.025283208
-0.038417555 -0.33104327 -1.1351297 -0.051707268 0.01281902 0.086573385 0.19393048 0.06543173
0.1885305 0.13251966 0.0854014 1.0253993 -0.33608118 0.2312411 -0.2063434 -0.036982458
0.36282948 0.60324794 -0.32834288 0.14698192 0.28258297 0.06445178 0.13729626 -0.00070493825
-0.090918414 0.2903454 0.29543158 0.9275159 0.05952108 0.19816098 0.5372401 0.11143105
0.019032463 0.067668736 0.28242308 -0.1322947 0.15467174 -0.09653124 -0.014968556 -0.6188336
0.015938785 0.18289945 0.04275904 -0.5561947 -0.1024404 -0.38826475 -0.8542709 0.04922406
-0.31400073 -0.18302141 0.21879108 0.035122246 0.10337756 -0.0937636 -0.14861104 0.36637056
0.08681883 0.1552136 -0.36163744 -0.5583503 -0.31012368 0.023714464 -0.3536505 0.14508042
0.36628497 -0.03232667 0.21285194 0.24224238 -0.29727352 -0.022005005 0.47213668 0.5297297
-0.85105956 0.11099217 -0.8138937 -0.17688133 -0.26906717 0.3459535 0.29727936 0.00849272
0.48597896 0.0071139047 -0.049587492 -0.22739734 -1.4223418 -0.19313973 0.40534946 -0.08128791
-0.15822627 0.06159669 0.021344537 0.29086447 0.056561045 -0.11702666 -0.28810146 -0.085265726
-0.029291142 0.08339383 -0.22300106 0.21235102 0.020388195 0.096885055 -0.16525938 0.007156849
-0.014844151 0.17620045 -0.3188256 -0.04127726 -0.33951122 -0.05308497 -0.20941319 -0.08707991
0.059550602 -0.11136692 -0.102149785 0.20803787 -0.07410703 -0.03349042 -0.041875616 -0.019532919
-0.4634844 -0.12925978 -1.2400762 -0.041555487 -0.10010807 0.17819545 -0.38381425 0.11994472
0.29243043 -0.26926136 -0.13770223 -0.12181305 -1.7606142 -0.21662773 0.62103486 -0.17915235
-0.009696217 -0.034685552 0.023555558 0.12621486 -0.27411038 0.12040084 0.05302948 0.099984705
0.06727803 -0.19813754 -0.020293068 0.04588458 0.021306274 0.20277423 -0.2313228 0.036504097
-0.88036066 -0.16591816 -1.068867 -0.34950528 0.65199775 0.35626045 -0.58606035 0.23407099
0.35430852 -0.9791545 -1.7837794 0.17379767 -0.6954805 -0.017426342 -0.3236515 -0.026339367
0.081163466 -0.009933531 0.17987779 -0.102261305 -0.19391656 -0.19407845 0.053220093 -0.1712513
0.026037186 -0.16914839 -0.03302586 0.18349636 -0.1114164 0.04832807 -0.22807315 -0.20439595
0.028124183 -0.13030857 0.07173386 -0.0077368617 -0.22371456 -0.15694702 0.12520665 0.14071685
-0.036480933 -0.19850028 -0.14222783 -0.13620669 -0.2387622 -0.09987971 -0.080289185 0.2136186
0.32899284 0.046492144 -0.32608125 -0.68356466 0.34444064 0.083142206 0.23978335 -0.11977462
0.048572563 0.0036787023 -0.024048632 -0.012701825 -0.2938787 0.08781995 0.07614461 -0.2586231
-0.23749267 -0.11381621 -0.2775764 -0.014515918 0.4200377 0.12787342 -0.90343136 -0.19235042
0.48311275 -0.21587424 -1.5874369 -0.1329087 -0.26911122 -0.039998688 0.25989828 0.014566726

subnets.0.hidden_layers.2.bias f4 [16]
00000000: 67a6 86be 5494 183f 8ed9 923e c083 2a3e
00000010: ffba 07bf 9038 243e 01f0 69be a2f7 8abe
00000020: 7b59 b5be fb7a 593e c38e a4be 1b5e 5d3f
00000030: 9a33 3dbe 2059 77bd 7b82 2f3f 6ccd 293f
-0.2629883 0.5960133 0.28681606 0.16651821 -0.5301971 0.16037202 -0.2284546 -0.27142054
-0.3541983 0.2123832 -0.3214017 0.8647172 -0.18476716 -0.06038773 0.6855847 0.66329074

subnets.1.attn.in_proj_weight f4 [42, 14]
00000000: eecd 18be 4de6 71be a8a5 553d 19dd 593d
00000010: 4abd 213d 5961 b83d 5331 153e 540a 9fbe
00000020: b249 06be 0bdf 82be 1575 3dbd a01c eebd
00000030: ee68 6bbe 989e c73b bf76 573d 4a30 8dbe
00000040: 8ada 91be 0174 d33d 6569 263e af7b f13d
00000050: 35ca 9a3d 1d02 31be 9457 943d 778b 493d
00000060: 0511 fd3d 0a47 10be b370 d43c fc81 05be
00000070: 7881 9e3e 76fe 01be adcb 9b3e cad3 3cbc
00000080: cad8 503d d5b8 93be 006f fd3d 9ce8 1b3e
00000090: ec71 9b3e f3b4 12bd dfbc eabc 4f05 36bd
000000a0: 147e 7bbc 9888 fd3d 8756 c43d 5871 773e
000000b0: 0630 fc3d 8459 24be aa63 8b3e b3cb 903e
000000c0: 9006 793e 4a74 81bd 7dd4 1c3e 5da7 53be
000000d0: 641a 3f3d bea4 77bd f7eb 433c 3696 dbbc
000000e0: 6db6 a6bd da4f 74bd 4181 5e3c 24b0 55be
000000f0: 9457 b3bd 4889 37be a196 fbbc 57ec df3d
00000100: b98b 30be 6111 89be 6514 353e e065 4b3e
00000110: 4e5d 78be b906 6dbe bc8b fabd c5c1 8c3e
00000120: 88e5 a33e 3ad4 953e e937 7fbd 8d9f 413d
00000130: 2fa5 0b3e 0418 16be 001d 8b3e 48a6 a5be
00000140: 8f07 593d 46bd 90be 6204 a73e 9edc b33d
00000150: 7277 85be 1e27 6d3e f1f9 32be 043c 1ebe
00000160: 8aed 6c3e 9d9e 4dbd e7d7 403e 19d4 9c3e
00000170: 89ec 44be 4878 5f3e a4db 963e 7830 963e
00000180: 6941 05be 1b23 3ebe 284e 883e 7ecf 883e
00000190: 7774 803e f148 bc3d d74d 8abd 9c21 07be
000001a0: ae88 39bd 2b7e cdbd 5219 433e 925d 73be
000001b0: 0737 0abe 4311 523e 1e56 173e 897b 1b3e
000001c0: 009f 47be 100f 913e d35c 8bbe 7f23 8e3e
000001d0: 456d 97be a26f 6bbe 35fc 1e3e 7e17 db3d
000001e0: 5e86 b9bd ede7 ed3d a11c dfbd c379 4e3e
000001f0: 89c9 24be cd1c af3d 39df 89be ee92 6abd
00000200: ec19 e8bc e910 9bbd 513f 863e 0c08 fcbc
00000210: bff5 0b3e 0fa9 a5be 96c8 a0be 8f5a 413e
00000220: 0699 893e acef a2be 1e9a 12be 04ea adbc
00000230: 7f32 09be 4181 e8bd decb 903e 6d0b 633c
00000240: 58a7 353e 6fdc 39bd ee95 8dbe e4ec 343e
00000250: aabc 983c b1b6 91be 20e6 4bbe fd7e a6be
00000260: 0696 843e b66f c43d 7b09 353e 955e f2bd
00000270: df3d 9a3e 8db4 8fbe 0f0c 3e3d 6658 9a3e
00000280: df1b 333e 39ad 93be e37c 883e 82b6 ec3c
00000290: b614 ae3d 80df 7fbe 14f6 1dbe 33b9 4c3e
000002a0: 0035 483c 7537 75be a93f a7be 9035 ee3d
000002b0: 0b41 febd 6eec 9fbe 9f44 8b3d ae37 e9bc
000002c0: a164 09be 3d44 933e 5406 563e 9b13 8a3e
000002d0: f0d0 943e 9eec 993e 5041 6bbd 9e1a 99be
000002e0: 10a5 11bd 4177 913e 75a8 8f3e 8548 a9bd
000002f0: 094c efbc 84ce 8ebe e59f d23c 830b f3bd
00000300: 4878 84be b0dc a33e d784 a1be 92f8 0dbc
00000310: c68d 183d 79e2 ee3b 3cda 193e e45c 19be
00000320: 7471 033e 100c 703e a06a b73d 35c3 57be
00000330: dabb 31be d92f b53c 1925 0fbe 0f51 8d3e
00000340: 09a3 55be 749a 93be 8ccb c2bd c28d 7bbe
00000350: ec2d 483d 4428 47bc 12a0 0d3e 9ce2 863c
00000360: ef6c 2d3d b61d 30bd 1078 9cbe 1587 353d
00000370: 761a 98be 2cc6 02be 60bb e0bc ab87 c2bc
00000380: 4073 69be ac5a c33d 9055 8fbd be0b 10bd
00000390: 40c7 3b3e 60a9 4e3e 2088 9e3e caf6 81be
000003a0: 85f8 8e3e e730 08be 1ae3 393e f6bc a13e
000003b0: ce83 ca3d ccd6 33be 8f08 073e 28d4 2e3e
000003c0: f625 3a3e 94dc 8cbe 53ee 103e 01ed 91be
000003d0: fd71 d23c a902 683e 882b 5abd 4f2b a03e
000003e0: e049 1c3e 93d0 003e f19e 6bbe a8ac 8cbe
000003f0: e7cf 15bc 5206 dc3c 8a5b 66be 1828 0f3e
-0.14922306 -0.23623009 0.052159935 0.05318937 0.03948716 0.090029426 0.14569597 -0.31062567
-0.1311405 -0.25560793 -0.046254236 -0.116265535 -0.22989246 0.006091904 0.05260348 -0.27575904
-0.28487045 0.1032486 0.16251142 0.11791169 0.07558099 -0.17285962 0.07243267 0.04920527
0.12356762 -0.14089599 0.025932645 -0.13037866 0.30958152 -0.12694725 0.3042883 -0.011525104
0.050987996 -0.28851953 0.12374687 0.15225452 0.30360353 -0.035817098 -0.028654514 -0.044438656
-0.015349884 0.12379569 0.09586816 0.24164331 0.12313847 -0.16049773 0.27224475 0.2828041
0.2431891 -0.063210085 0.15315433 -0.20669313 0.046656027 -0.060459845 0.011958114 -0.026805025
-0.08140264 -0.059646465 0.013580621 -0.20867974 -0.087569386 -0.17923462 -0.030711474 0.1093375
-0.172408 -0.26771072 0.17683561 0.19863081 -0.24254343 -0.23147096 -0.122336835 0.27491584
0.32011056 0.2926348 -0.06230918 0.0472713 0.13637231 -0.14657599 0.27170563 -0.32353425
0.052985724 -0.28269404 0.3262053 0.08782314 -0.26067692 0.23159453 -0.17478158 -0.15452582
0.23137489 -0.050200094 0.1883236 0.30630568 -0.19230856 0.21823227 0.29464447 0.29333854
-0.13013233 -0.18568079 0.26622128 0.26720804 0.25088856 0.091936 -0.06753128 -0.13196415
-0.045296364 -0.1003383 0.19052628 -0.23766163 -0.13497554 0.20514397 0.14778945 0.15183844
-0.19494247 0.28331804 -0.27219257 0.27761456 -0.29575554 -0.22991803 0.15525897 0.1069784
-0.09058832 0.11616502 -0.108941324 0.20163636 -0.16092505 0.08550415 -0.26928118 -0.05726903
-0.028332673 -0.07571585 0.26220182 -0.030765556 0.13667963 -0.32355544 -0.31403035 0.18882202
0.2687456 -0.3182348 -0.14316604 -0.021229751 -0.13398169 -0.11352778 0.28280538 0.013857705
0.17739618 -0.045376237 -0.2765345 0.17668492 0.01864465 -0.28459695 -0.19912004 -0.3251876
0.2589571 0.0959162 0.17679398 -0.11834446 0.3012533 -0.28067437 0.04639822 0.30145568
0.174911 -0.28843096 0.2665778 0.02889562 0.08500044 -0.24987602 -0.15425903 0.19992523
0.012219667 -0.23946936 -0.32665756 0.1163131 -0.1241475 -0.3123507 0.06800198 -0.028468933
-0.13417293 0.28763 0.20900851 0.26968083 0.29065657 0.30063337 -0.057435334 -0.2990312
-0.035557806 0.28411296 0.2805821 -0.08265785 -0.029211061 -0.27891934 0.02571101 -0.1186743
-0.25873017 0.3200431 -0.3154666 -0.008665221 0.03724458 0.0072901812 0.15024656 -0.14976841
0.12836248 0.23442101 0.08955884 -0.2107056 -0.17356816 0.022117542 -0.13978995 0.27600905
-0.20862974 -0.28828776 -0.0951148 -0.24565795 0.04887192 -0.012155596 0.13830593 0.016465478
0.042340215 -0.042997085 -0.3056035 0.044318277 -0.29707688 -0.12770909 -0.027433097 -0.023746332
-0.2279787 0.09538779 -0.069987416 -0.03516745 0.18337727 0.20181799 0.3096323 -0.25383598
0.2792398 -0.13299905 0.18153039 0.31589478 0.09888421 -0.17562407 0.13186859 0.17073119
0.18178543 -0.27512038 0.14153413 -0.28501132 0.02568912 0.22657265 -0.05326417 0.31283042
0.15262556 0.12579565 -0.2300985 -0.27475476 -0.009143806 0.026858483 -0.22495857 0.13980138

subnets.1.attn.in_proj_bias f4 [42]
00000000: 0000 0000 0000 0000 0000 0000 0000 0000
00000010: 0000 0000 0000 0000 0000 0000 0000 0000
00000020: 0000 0000 0000 0000 0000 0000 0000 0000
00000030: 0000 0000 0000 0000 0000 0000 0000 0000
00000040: 0000 0000 0000 0000 0000 0000 0000 0000
00000050: 0000 0000 0000 0000 0000 0000 0000 0000
00000060: 0000 0000 0000 0000 0000 0000 0000 0000
00000070: a359 63be 5965 383e 5047 e63d a579 febd
00000080: 9bf1 10be 8944 83be 777e 4e3e f869 813e
00000090: 3d7b 74be a2c2 473e c560 6f3e a61a 893e
000000a0: 7f6a 763e 927a 8d3e
0.0 0.0 0.0 0.0 0.0 0.0 0.0 0.0
0.0 0.0 0.0 0.0 0.0 0.0 0.0 0.0
0.0 0.0 0.0 0.0 0.0 0.0 0.0 0.0
0.0 0.0 0.0 0.0 -0.22202162 0.18007411 0.112440705 -0.124255456
-0.14154665 -0.25638226 0.2016543 0.2527616 -0.23875137 0.1950784 0.23376758 0.26778144
0.24064063 0.27632576

subnets.1.attn.out_proj.weight f4 [14, 14]
00000000: 3fb0 abbe b812 923e 7578 703f 275c 25bd
00000010: 2987 6f3e 0c62 e8be 0694 473f 7e5c 183e
00000020: e3f6 07be e25b 08be 2bb7 bbbc 2da9 4ebe
00000030: bd74 243f 3342 54bd 851b c5bd e45a 3c3e
00000040: 5862 06be b524 87be d3ea a5be 2840 0a3e
00000050: 4749 773f b302 273e 79d7 b9bd 32bd d63d
00000060: b82f 2f3e 0fba 163c e41b b03e f889 5c3f
00000070: 1ed7 96be 78b5 d13e 5d79 8a3e 7bd9 0cbe
00000080: 3626 683e 0ff8 66be b056 093f 5769 ff3e
00000090: 5a4c dabe 6d1a 8b3d 4624 733d 5f79 0a3f
000000a0: fb73 3e3e e090 183f 0390 1b3e 194d 58be
000000b0: 73e7 abbd de9b 483f 26cb 7b3f 4fb0 30be
000000c0: 90c4 09bf 778e b0be ed67 793e 5c45 17be
000000d0: efd8 3e3e c343 67be 1672 45be cc99 0ebf
000000e0: 2433 123e 264c 93be 3bd4 b03e 3530 b13e
000000f0: 0f15 033f b5ee 1e3d 0370 04bf f094 d6be
00000100: b53e d03e 4869 05bf d1f9 81be 3248 03bf
00000110: 3bf6 34be c51d 59bf 7a73 10be 008c a5be
00000120: a99a 1cbf 48c9 bb3e 22e2 473f 458c ae3e
00000130: 0119 e3bd dbcb 8fbe 9cea 933e d5cb d3bd
00000140: bc6b 9d3e a0fa 35bd 06fa 7cbd 8e8f 26bf
00000150: 4897 e3be fb32 c13e 004d 27be 2121 a3be
00000160: 3048 f9bd 5517 3ebd 2a13 ea3e 21e5 8a3e
00000170: 8d0e 1bbe 9e55 113e c886 c7bd 9278 1cbe
00000180: 910e 0d3f 6c9b 6bbe af26 33be 66a5 eb3e
00000190: 4e6a 523f 18c2 19bd eae0 743d d9fc 2cbf
000001a0: 8740 debc 42b2 54bd 0f30 22bf 1409 023e
000001b0: d28b 123e 75a6 2a3a a3b4 1b3f 83b1 4d3e
000001c0: aa93 8c3e c515 bbbe d632 dbbe 3d01 e13e
000001d0: 9ced ef3e cac1 a0be 17a4 cbbe f368 993d
000001e0: b438 7dbd 569a eebd 3620 4cbd 7f21 1a3f
000001f0: 64a8 cabe 337b 3b3f 0916 f9bd f5bc c73e
00000200: f092 9abe 298c cdbe 115a 42bf f028 be3d
00000210: f2af 473f 6371 5c3e bf46 da3c 563b e73e
00000220: cf9c 313e 5ba4 b23e 7e65 c63e 5234 693e
00000230: b092 0bbd 9eb4 a13d ab42 3a3f 44c7 1bbe
00000240: 90a6 34c0 acf4 c73e 35a9 4dbf b794 74bd
00000250: 3b93 4f3e b3a3 2b3e 2e23 243e eee4 c9bf
00000260: 9b4a febd 666c 16bf 46e2 aa3e 0932 93be
00000270: 7c6f 97be d1ea 533e 4c39 a6bc c7a2 a73e
00000280: 8dfa 2bbf 8904 c0be bc81 5b3e 6f8e 61bd
00000290: ff21 a33d 4c80 76be d341 1bbf c372 d7be
000002a0: 08f3 ea3e 465b 9ebe fc6f 98be ff44 bb3e
000002b0: b1a6 0ebd 26b7 423e dc13 87be 181e 453e
000002c0: 135d e73e 701e 9abe 212e c7bd 4025 3dbd
000002d0: 8e30 bebe 906c 593e 586c 8d3d 0243 81be
000002e0: 242e 83be 5c1b 023f 28cb a03f 488b 8b3c
000002f0: 05f1 f5be 6fd8 de3d 4b74 8f3e 31d7 59be
00000300: 4669 7b3d 407c 0e3e d04f 32be bb07 c7be
-0.33532903 0.28529906 0.939338 -0.040371086 0.23391403 -0.45387304 0.7796024 0.14879033
-0.13277774 -0.133163 -0.02291449 -0.20181723 0.6424063 -0.051820945 -0.096243896 0.18394047
-0.13123453 -0.26395193 -0.3240572 0.13501036 0.9659619 0.16309623 -0.09074301 0.10485305
0.17108047 0.009199633 0.3439628 0.86148024 -0.29460996 0.40958762 0.27045718 -0.13754837
0.22670826 -0.22555564 0.536479 0.49885055 -0.42636377 0.0679215 0.059360765 0.5409145
0.1859893 0.5959606 0.15191655 -0.2112316 -0.08393755 0.78362834 0.98356855 -0.17254756
-0.53815556 -0.34483692 0.24356051 -0.14772552 0.18637441 -0.22584443 -0.19281802 -0.55703425
0.14277321 -0.28769034 0.3453692 0.34607092 0.5120401 0.038801868 -0.51733416 -0.41910505
0.40672842 -0.5211377 -0.25385907 -0.51282036 -0.17672054 -0.8481105 -0.14106551 -0.32333374
-0.6117349 0.36677003 0.78079426 0.34091392 -0.110887535 -0.28085217 0.2888993 -0.10341612
0.30746257 -0.044428468 -0.06176188 -0.650628 -0.44451356 0.37734208 -0.16337967 -0.31861213
-0.12171972 -0.04640897 0.45717746 0.27127936 -0.1514227 0.14192817 -0.09742504 -0.15280369
0.5510035 -0.23008507 -0.17495225 0.46024626 0.8219346 -0.037538618 0.059784807 -0.67573315
-0.027130378 -0.051927812 -0.6335458 0.12698776 0.1431115 0.00065097894 0.60822505 0.20087247
0.2745641 -0.36540046 -0.42812222 0.43946257 0.4686097 -0.3139785 -0.39773628 0.074907206
-0.061821654 -0.11650531 -0.049835406 0.6020736 -0.39581597 0.7323486 -0.12162406 0.3901135
-0.3019023 -0.40145996 -0.7591868 0.09285152 0.78002846 0.21527629 0.026645062 0.45162457
0.17344974 0.34891018 0.38749307 0.22773865 -0.03407544 0.07895778 0.7275798 -0.15212733
-2.8226662 0.39053857 -0.80336314 -0.059712138 0.20271008 0.16761665 0.16029045 -1.5772989
-0.124165736 -0.5875915 0.33375758 -0.2874911 -0.29577243 0.20695044 -0.020290993 0.32741377
-0.67179185 -0.3750346 0.21436208 -0.055067476 0.079654686 -0.24072379 -0.60647315 -0.42079744
0.45888543 -0.3092901 -0.29772937 0.36576077 -0.034826938 0.19015178 -0.2638234 0.19249761
0.45188197 -0.30101347 -0.09725595 -0.046178102 -0.3714642 0.2123282 0.069054306 -0.25246435
-0.2562114 0.50823 1.2561998 0.017034188 -0.48035446 0.10881125 0.28018412 -0.21273495
0.061379693 0.13914585 -0.17413259 -0.38873085

subnets.1.attn.out_proj.bias f4 [14]
00000000: a925 973e b3bb 5d3e 8612 163e 68a0 1cbe
00000010: 02fe 8fbd bbed debd 1473 903d e05c 483d
00000020: 69d2 f7bd bb42 6d3e 94f5 46be d348 9cbd
00000030: d474 98bd 8fbb 2cbe
0.2952092 0.21653633 0.14655504 -0.15295565 -0.0703087 -0.10885187 0.070531994 0.048916698
-0.121006794 0.23169987 -0.19429618 -0.076310776 -0.07444158 -0.16868423

subnets.1.hidden_layers.0.weight f4 [16, 14]
00000000: fba5 87be 87c8 18bf 7e2a b9be 82d6 d73f
00000010: 572e bf3e 19bb e33e 8b8e 553d 7a64 b2be
00000020: f4c0 9ebd 7d56 96bf 59e9 93be 780d 6d3e
00000030: d1a2 3e3d 14c5 a13f e260 d6bd 7adf 71bb
00000040: 3d00 21be fee8 4bbe 96c3 67be b94f 1c3e
00000050: 11ec a43e 09d4 853d 4327 9e3e ae2a f1bd
00000060: 2b07 063e 68a2 0bbe 0e9e 8dbd 90e7 ed3d
00000070: 8791 22bf 802e 86bc a250 bfbe 654c ce3e
00000080: 4a05 513d 9de5 d23d 6c7a 87be 5430 e9be
00000090: 6b02 143f 29c8 17bf 9436 383e 6728 cb3e
000000a0: 84c4 d83e 24cd 813e f89a 323f 61c2 403e
000000b0: da4d 103f 2608 6a3d 84eb ccbe 7ea9 d2be
000000c0: 84f5 b43b 29ef b93f 0bf6 1b3f c179 78bd
000000d0: a3d9 edbe ac31 bbbe e91a aabe 39fc 6cbd
000000e0: e958 5b3b 4d3a 533e a8c0 98bd 1652 563f
000000f0: e688 693e 6014 703e 72ed 0ebf a265 07bf
00000100: 2252 613f c26e aebe 6a99 91bf 4763 833e
00000110: f850 f43e fe03 093f 2492 2cbe 6c3f 4f3e
00000120: cc04 1cbe f979 5e3e b7a8 a0be d955 0fbe
00000130: e588 1dbc 9d44 04be 05f7 453d c3e9 223e
00000140: 9751 1d3e 34b3 32be 0092 86be 249c 243e
00000150: 6414 88be 04de c9be 53ed 24be acf6 a23f
00000160: 82fc b53d 027e 2e3e 2918 6abd 2df7 3a3e
00000170: a645 f4bc 5f47 82bf 37d7 593e e5a8 b33e
00000180: bd62 1d3e f52c 0e3f 6e47 a3bf c051 03bf
00000190: 0c75 0dbf d5f8 2e3e aa86 453d b541 1b3e
000001a0: b895 7ebe 778f 38bf 32b3 293e 492f b6be
000001b0: 7e8e 593f 70b9 e33e 7961 7b3e a860 333e
000001c0: 6056 0d3e 0e5c 093d 4006 25bd d0c1 683d
000001d0: 30ef 0e3d 8e37 003d 3c65 0ebd ca66 1b3e
000001e0: c248 0d3d 8480 90bd 957f d2bd 9754 76be
000001f0: 1624 72be 4e6d 16bd c87a 2e3e d60f b73d
00000200: dc06 e43e c9d1 ac3e a246 9ebd f8bb 22bf
00000210: 13c0 ed3e 0b14 893f 40c4 dbbe 7f5a 06bf
00000220: 97f6 2f3e 8e52 5dbf e8c5 01bf 111b 133e
00000230: 15b3 453d 5d00 853e 074d 83bd 225a 8e3d
00000240: abac 623d 41d8 37be 96cd 393e 195e 813d
00000250: dc87 563e 1b4b 813e bbd0 263d 4fcd 2abe
00000260: ca32 913d 35ee b93d 874a f0be 5843 3ebf
00000270: 6385 23be 0441 be3f e24f 913e 7942 5abd
00000280: ef90 d3be b898 d0bd bc02 f83e f54f b3bf
00000290: b3ff 993e d06f 2f3e 88f7 413e d84d 873f
000002a0: 37b0 38bd 5945 3b3e d197 143e 07bf 193e
000002b0: b183 cc3d 02c3 6cbe f423 c3bd ce6c 743d
000002c0: b8c2 df3d e003 f5bd d9e4 a6bc b84b 75be
000002d0: 3112 36be 47ca ff3c 9ab8 203f 3202 e9bc
000002e0: bfa6 bcbe e60a b23e 4182 163f aa31 04bd
000002f0: 9f63 a7be af24 e1bd 99a0 37bf 8b1c 34bf
00000300: 7f22 553f a89e bd3e 7c33 023e 6bc0 1dbf
00000310: c18b 123e d1f1 53be 0b2b 3cbc 3cb6 78bd
00000320: fd38 113e 36d4 bbbc 6c70 e33d 5565 ffbd
00000330: 900a c33d 51df 573d 3219 f53d c480 abbe
00000340: 6653 93be fa33 9f3c d5c4 423e d20d dabd
00000350: d7ce 11bd d025 e23d 9697 35be cadc 913d
00000360: 213c 453e 11c0 0b3e 5faa 5e3e f791 553d
00000370: a44c 593e 2e56 42bd 66c8 a4bd 4e5e 863e
-0.2649382 -0.5968098 -0.3616523 1.6862338 0.37340042 0.44478682 0.052137893 -0.34842283
-0.07751647 -1.1745144 -0.28888968 0.23149669 0.046541993 1.2638268 -0.10467698 -0.0036906884
-0.15722747 -0.19913098 -0.22633204 0.15264787 0.32211354 0.06534583 0.3088933 -0.11775719
0.13088672 -0.13636172 -0.06914912 0.11616433 -0.6350331 -0.016379595 -0.37366205 0.4029266
0.051030435 0.102977015 -0.26460588 -0.45544684 0.5781619 -0.59289795 0.1798957 0.39679262
0.4233743 0.25351822 0.69767714 0.1882415 0.5636879 0.057136677 -0.40023434 -0.41144937
0.005522432 1.4526111 0.60922307 -0.06066299 -0.46455106 -0.36561334 -0.33223656 -0.057857726
0.0033469743 0.20627709 -0.07458621 0.83719003 0.22806129 0.23445272 -0.5583106 -0.52889454
0.8801595 -0.34068877 -1.1374943 0.2566168 0.47718024 0.53521717 -0.16852623 0.20239037
-0.15236205 0.21726216 -0.3137872 -0.13997592 -0.009615158 -0.12916799 0.04833128 0.15909486
0.15363155 -0.17451173 -0.26283264 0.16075188 -0.26578057 -0.39427197 -0.16106157 1.2731528
0.08886053 0.17040256 -0.057151947 0.18258353 -0.029818367 -1.0178031 0.21273504 0.35089794
0.15369697 0.5553735 -1.2756174 -0.51296616 -0.55256724 0.1708711 0.04822413 0.15161784
-0.248618 -0.7209391 0.16572264 -0.3558295 0.8498305 0.44477415 0.24548902 0.1751734
0.1380248 0.033535056 -0.040289164 0.05682546 0.034896076 0.03130298 -0.034764513 0.1517593
0.034493215 -0.070557624 -0.102782406 -0.24055706 -0.23646578 -0.036725335 0.17039025 0.08938567
0.44536483 0.33753803 -0.07728316 -0.6356807 0.46435603 1.0709242 -0.42923164 -0.52481836
0.1718391 -0.86454093 -0.50692606 0.14365794 0.04826649 0.2597684 -0.06411176 0.06950785
0.05534045 -0.17953588 0.18144831 0.06316776 0.20950264 0.25252613 0.040726405 -0.16679882
0.07089765 0.090786375 -0.4693186 -0.7432151 -0.15968852 1.4863591 0.28381258 -0.05328605
-0.41321513 -0.10185379 0.48439586 -1.4008776 0.30077896 0.17132497 0.18942082 1.0570631
-0.045089927 0.18288173 0.14511038 0.15014277 0.09986056 -0.23121265 -0.09528342 0.059674077
0.109258115 -0.1196363 -0.020372795 -0.23954666 -0.17780377 0.031224383 0.6278168 -0.02844343
-0.36845967 0.3477394 0.587925 -0.032273926 -0.32693192 -0.10993325 -0.7172943 -0.70356053
0.8325576 0.37035108 0.12714952 -0.6162173 0.14311124 -0.20697714 -0.011484872 -0.060720667
0.14181896 -0.022928338 0.11105427 -0.124704994 0.09523499 0.052703205 0.11967696 -0.33496678
-0.28774565 0.019433964 0.19020398 -0.10647167 -0.03559765 0.110423684 -0.17733607 0.0712219
0.19261219 0.13647486 0.21744679 0.052141156 0.21220642 -0.04744547 -0.080460355 0.26243824

subnets.1.hidden_layers.0.bias f4 [16]
00000000: 29be 56be 17ed 98be bdd2 463e d872 1e3e
00000010: 93d0 ef3e ae78 9dbe 3f68 243d 18d0 1dbf
00000020: 3dc0 60be 08c5 aabe a949 a6be f8bf 8dbb
00000030: d93e 84be 5c0d d83e 1d07 85be 8b0c 6fbe
-0.20970978 -0.29868385 0.19416328 0.15473497 0.46838817 -0.30756134 0.04013848 -0.6164565
-0.21948333 -0.33353448 -0.32478073 -0.004325863 -0.258292 0.42197692 -0.2598199 -0.23344629

subnets.1.hidden_layers.2.weight f4 [16, 16]
00000000: ef3c 19bf c462 9abd 2c27 31bf c235 4d3f
00000010: a49a a2bf 2612 08be 1af4 98bd eb31 8dbe
00000020: 5e25 7b3e 1cdd b43e 6061 043c 5d15 a03d
00000030: e2d3 143e 2fb8 b3bf d2d2 313e 2a1f 163e
00000040: 28db cc3d 0278 153e 6f97 f33d 3888 d7bd
00000050: cbec a6be 84a5 773e 7966 54be 78e8 2cbe
00000060: 8080 ee3d 90c0 713e bae1 38be 9e8a e6bd
00000070: f004 ef3c 530b 2fbd e640 1ebe e0f4 2fbe
00000080: bb36 293f db7d af3b 39d7 94be 2e6b 043f
00000090: d8e9 e4be db39 a6bd ac0e 283f 3719 0dbf
000000a0: 8e5f 92bc c599 c93e 3127 91bc e1be a43e
000000b0: 08ca 0f3d 9257 f63e f6d3 223e a004 f5bc
000000c0: 507a 823f 522f 1c3e a4c7 f63c 06da 43bf
000000d0: 7100 4f3e 0257 4cbd 9e62 fd3e 878d 96bf
000000e0: fd65 7f3e 12ff 31c0 32db dc3c 5827 473f
000000f0: f8b5 b3bd 0ef6 04bf 3601 0d3e 801d ae3c
00000100: 3221 0ebe 285f ba3d 428f 413e a28e 4c3e
00000110: 9bd5 533f 2ed6 61be ec31 7fbe 4cfa 6ebf
00000120: 1cb8 28be 713c debf 7e22 9f3d 3ec0 39be
00000130: 92b6 72be 1c23 d2be 9faf d53d 2055 463c
00000140: 19a5 5d3d 5f54 033e 5db6 013f ecb5 abbe
00000150: e775 d6bd 8bff aebe cfb5 f9bd 4b6f ddbb
00000160: 5e9a 013e c716 183f 7400 003d 8898 8d3e
00000170: 80bd 183b a6c2 b93e b51b 82bc f89f c4bd
00000180: 0cf9 6d3e efb7 90be 7b5f adbe a915 bf3e
00000190: 3127 c73c d697 09bd ec1f 623e 5d83 1dbf
000001a0: 84c2 cd3d 9cc8 0dbe f749 dc3d 602e 3b3d
000001b0: c41f 2dbe 63c3 f83e 98c6 313e 0494 f53d
000001c0: e68c 9cbf 1ad8 2a3e 561c 803e 5cab 98be
000001d0: deb6 36bf c7e7 263e cabc 513e 9531 e5bf
000001e0: 22b8 6ebe 68f1 c4be e615 80bd 481a 2a3e
000001f0: 584d b9bd 081c b63e 849e b83d 8625 47be
00000200: 0771 74be 7876 f6bc 68db 623e f64c d0bf
00000210: d633 8fbe 2ff6 a93c 8ef7 5c3e 1217 92bf
00000220: c504 94bd 480c 253f 708f 023e eafa 383e
00000230: c650 1ebe 498c 1d3f 2e44 0f3e 14bb 923d
00000240: 5e37 df3e 3a4b b43d 7766 1b3e 7baf c03d
00000250: fb7f 8abd 9c2a f23c a4dc 9a3e 068c 4cbf
00000260: e831 4abe faef 5ebe b10f 51bd 7c3b d03e
00000270: 6246 0cbe 137f 7a3e b213 36bd 48e7 82bd
00000280: a454 a43d ea86 033e 533f dabc 52bc 2cbe
00000290: b585 ce3d ec74 54be 931f 57be 7d16 623e
000002a0: a008 2f3e d868 183e 5ca9 8f3d 5907 87bd
000002b0: a01b 04be 161c 52be 8093 d53d 2c09 193e
000002c0: 58ac ae3e 78af 1fbe 42a7 fd3e f6c3 23be
000002d0: e9a4 aa3e b6c4 b8bd 1a94 063e 140d c93e
000002e0: 50ff 41be 8dea 15be e772 083e 7060 103f
000002f0: 7813 6ebd 8093 673e 4c64 283e 00a0 b33c
00000300: 50a0 6ebe c237 643e 8c93 fe3d 34d0 d6bd
00000310: 7175 0f3c a60b 793e cbe1 1bbe f541 21be
00000320: 9cb5 12be c255 38be 0092 46bd 1338 7dbe
00000330: 92cd 0f3e 5588 833c 20b3 7a3d dc3d d03d
00000340: 9ee0 1bbe f6fd 34be b782 8dbe 00af 863a
00000350: 18fd fa3d f681 3c3e 3d88 1ebd 9e74 883c
00000360: 8071 c43b 800e dbbb 7892 5cbe 266f e13b
00000370: aa4a 213e 9882 083d d0e3 2cbe 165a 78be
00000380: 2b1a 2f3e 0f66 88be e3f0 993d 8f95 833f
00000390: 2e56 8abd 75d3 083d b0e3 e83d 0031 273f
000003a0: 3ca8 503e 55c0 123f b18e 703d e3de f4bd
000003b0: 6e69 0a3e 9fc5 283e cea0 8dbe a8ce 0ebd
000003c0: 8f4e 9c3e e3df 003e 7a31 6f3e a376 843e
000003d0: 22a3 943d 4a3d 05bf 7c1d 923d 52bb 86be
000003e0: d837 0ebe ed85 353e 36f0 47be 9451 263e
000003f0: b0ac 7abd 5a22 473e 99a4 72bd 0082 fc3d
-0.598586 -0.07538369 -0.69200397 0.8016015 -1.2703443 -0.13288173 -0.07468434 -0.27577147
0.24525973 0.35324943 0.008079857 0.07816575 0.14533952 -1.4040583 0.17365578 0.14660326
0.10002738 0.1459656 0.11894118 -0.105240285 -0.32602534 0.24184233 -0.20742215 -0.16885555
0.11645603 0.23608613 -0.18054858 -0.11256908 0.02917716 -0.04273541 -0.15454444 -0.17183256
0.6609914 0.0053555793 -0.29070452 0.51726043 -0.4470966 -0.08116504 0.6564739 -0.551166
-0.01786783 0.3937513 -0.017718883 0.3217688 0.03510478 0.48113686 0.15901169 -0.029909432
1.0193577 0.15252426 0.030124493 -0.7650455 0.20215012 -0.049887665 0.494893 -1.1761941
0.24941249 -2.7811933 0.02695999 0.7779441 -0.08774942 -0.5193795 0.13769993 0.021254301
-0.1387985 0.09100181 0.18902305 0.19976285 0.8274781 -0.2205436 -0.24921387 -0.9335067
-0.16476482 -1.7362195 0.07770251 -0.18139741 -0.23702458 -0.4104241 0.10433888 0.012105256
0.054112528 0.12825154 0.5066889 -0.33537233 -0.10471707 -0.3417934 -0.1219288 -0.006757652
0.12656543 0.59409755 0.031250432 0.27655435 0.002330631 0.36281317 -0.015882352 -0.09600824
0.23239535 -0.2826533 -0.33861908 0.37321213 0.02431068 -0.033592068 0.2208249 -0.6152857
0.100468665 -0.13846058 0.10756295 0.045698524 -0.16906649 0.48586568 0.17360914 0.11991122
-1.2230499 0.16683999 0.2502162 -0.29818237 -0.71372783 0.16299354 0.20482174 -1.7905756
-0.23312429 -0.38465428 -0.06254177 0.16611588 -0.09047955 0.3556826 0.090146095 -0.19447908
-0.23871242 -0.030085787 0.2215401 -1.6273487 -0.27969235 0.020747272 0.2157881 -1.141329
-0.07227472 0.64471865 0.1275003 0.18064466 -0.154605 0.61542183 0.13990852 0.071645886
0.4359693 0.08803411 0.15175806 0.0940847 -0.067626916 0.029561333 0.3024646 -0.7990116
-0.197456 -0.21771231 -0.051040355 0.40670383 -0.13698724 0.24462537 -0.044452377 -0.0639177
0.080239564 0.12844434 -0.026641523 -0.16868713 0.10084096 -0.20747727 -0.21008138 0.22078891
0.17093134 0.14883745 0.070147246 -0.06593198 -0.12901163 -0.20518526 0.10428524 0.14944905
0.34115863 -0.1559428 0.4954167 -0.15992722 0.3332894 -0.09021895 0.13142434 0.3926779
-0.1894505 -0.14640255 0.13325082 0.5639715 -0.058124036 0.2261486 0.1644451 0.02192688
-0.23303342 0.22286895 0.12430486 -0.1048893 0.008756028 0.2432085 -0.15222852 -0.15747817
-0.14327091 -0.18001464 -0.04847908 -0.24728422 0.14043263 0.01605622 0.061205983 0.10168049
-0.15222403 -0.17675003 -0.2763879 0.0010275543 0.12255305 0.18408951 -0.038704146 0.01665717
0.0059949756 -0.006685078 -0.21540248 0.006879705 0.15751138 0.03332767 -0.16883779 -0.24253115
0.17099826 -0.26640365 0.075166486 1.0280017 -0.06754719 0.033404786 0.11371553 0.65309143
0.20376676 0.57324725 0.05872983 -0.11956575 0.1351678 0.16481636 -0.27661747 -0.03486505
0.30528685 0.12585406 0.23358718 0.25871763 0.072576776 -0.52046645 0.0713453 -0.2631479
-0.1388849 0.1772687 -0.19525227 0.16242057 -0.061199844 0.19446698 -0.059239004 0.12329483

subnets.1.hidden_layers.2.bias f4 [16]
00000000: 4075 813e 704c 8cbe ba18 143c 417c b2be
00000010: 2b2d ebbd 1943 b0bd 09f8 b43d 8ed9 613f
00000020: 5906 6d3e 9664 40bc 15ee 99be 2d4a 77be
00000030: 7a5a 86be 3294 1fbe 03d7 893d dcc6 81be
0.25284767 -0.27402067 0.009039098 -0.34860423 -0.114832245 -0.08606548 0.088363715 0.8822259
0.23146953 -0.011742732 -0.30064455 -0.2414939 -0.26240903 -0.15583876 0.06730463 -0.2534703
