trained_pth_model/MFNet_fold_4_model.pth (torch, 35587 bytes, 40 tensors)

subnets.0.attn.in_proj_weight f4 [42, 14]
0	0x3e9fb8ba	0.31195623
1	0x3d9905e7	0.07471829
2	0xbd10b173	-0.03532548
3	0xbe0d3b7d	-0.13792224
4	0xbe824056	-0.2543971
5	0xbdc86c12	-0.09786238
6	0x3e2179fe	0.15769193
7	0xbe98eee8	-0.2986977
8	0x3ba03c46	0.0048899977
9	0x3e1120ff	0.14172743
10	0xbe68a32d	-0.22718497
11	0x3e2f2d55	0.17107137
12	0xbe1f0a60	-0.15531301
13	0x3da86a58	0.082234085
14	0x3e886411	0.26638845
15	0xbdd6e0df	-0.104921095
16	0x3e7300d3	0.23730783
17	0x3df4f024	0.11959866
18	0x3ccc81e2	0.024964277
19	0xbe2d911b	-0.16949885
20	0x3dcfa87a	0.10139556
21	0xbe54fbea	-0.20799223
22	0xbe060720	-0.13088655
23	0xbe99eced	-0.30063573
24	0xbe489a03	-0.19590001
25	0xbe6f470e	-0.23366949
26	0xbdc9aaf3	-0.09847059
27	0x3d025b2d	0.031825233
28	0x3e633084	0.22186476
29	0xbe042a82	-0.1290684
30	0x3e21702c	0.15765446
31	0xbea224e2	-0.31668764
32	0x3e041c4f	0.12901424
33	0x3e0577fb	0.1303405
34	0xb96f46a2	-0.00022819129
35	0x3d9b80e0	0.0759294
36	0x3e59b446	0.21260175
37	0xbe675574	-0.22591192
38	0xbe1492d3	-0.14509134
39	0xbd26af3a	-0.040694453
40	0xbe904664	-0.28178704
41	0x3e44fd1c	0.19237179
42	0x3e301757	0.17196403
43	0x3e38e4ad	0.18055983
44	0x3e0040a4	0.12524658
45	0xbd9dbf12	-0.077024594
46	0xbdbaf21c	-0.0912821
47	0xbd8e9d32	-0.069635764
48	0x3d1957c6	0.037437223
49	0xbe635528	-0.22200453
50	0x3e402745	0.1876498
51	0x3d7c4e03	0.061597835
52	0xbdb4ad59	-0.08822126
53	0xbe6692c7	-0.22516929
54	0xbe47de91	-0.19518496
55	0x3d662b9e	0.05619394
56	0x3e5c254e	0.21498606
57	0xbe1ff7ca	-0.15621868
58	0xbc00b536	-0.007855704
59	0xbe04e1b2	-0.12976721
60	0xbc31c4be	-0.01085013
61	0x3e94a2c6	0.29030436
62	0xbe8f222a	-0.27955753
63	0xbd62e813	-0.055397104
64	0xbcc64907	-0.024204744
65	0xbe16a5c0	-0.14711666
66	0xbb8b3f87	-0.0042495164
67	0xbd3d872a	-0.04627148
68	0xbbff6443	-0.0077939346
69	0xbe0b9f94	-0.13635093
70	0x3e9be5d5	0.30448785
71	0x3e223efe	0.15844342
72	0x3d4eebc0	0.050517797
73	0x3d98e5e8	0.07465726
74	0xbd8b4394	-0.06799999
75	0x3dd9d237	0.106357984
76	0xbe775534	-0.24153596
77	0xbdc121c7	-0.09430271
78	0x3ca23959	0.019802736
79	0x3e9a77cb	0.3016952
80	0x3db81a18	0.08989352
81	0x3db3e14d	0.08783207
82	0xbe122f44	-0.14275843
83	0xbdfc6249	-0.12323434
84	0xbe66bfc1	-0.22534086
85	0x3e092dfc	0.13396448
86	0x3e0b53e0	0.13606215
87	0x3cde747c	0.027155153
88	0x3cc74bdc	0.024328165
89	0xbe7c481a	-0.2463688
90	0x3e443188	0.1915952
91	0xbe978782	-0.29595572
92	0x3ca7ce60	0.02048415
93	0x3e90fdad	0.2831854
94	0x3e306ee9	0.17229809
95	0x3e46c5b8	0.19411361
96	0xbdf5ecfb	-0.12008091
97	0x3e52a245	0.20569713
98	0xbdbc782e	-0.0920261
99	0x3dc99922	0.09843661
100	0xbda8c5e5	-0.082408704
101	0x3e1738f7	0.14767824
102	0x3cb42514	0.021990336
103	0x3e030a1c	0.12796825
104	0xbe642362	-0.22279122
105	0x3e22422a	0.15845552
106	0xbd87e834	-0.06636086
107	0x3d8570b0	0.06515634
108	0xbcde29f0	-0.027119607
109	0x3e39e2c1	0.18152906
110	0xbd8480b7	-0.06469863
111	0x3d32b04b	0.043625157
112	0xbc9cc25a	-0.019135643
113	0x3e2c645a	0.16835156
114	0xbe7cc924	-0.24686104
115	0x3e310a2d	0.17289038
116	0xbe808e53	-0.25108585
117	0x3e9db63a	0.3080309
118	0x3e054dc4	0.13017946
119	0x3d77e9f9	0.060525868
120	0x3d0747d5	0.03302749
121	0xbe9418b8	-0.2892511
122	0xbe87f2eb	-0.2655252
123	0x3e22ea05	0.15909584
124	0x3e6c4806	0.2307435
125	0xbdf899cf	-0.12138712
126	0x3e85d50f	0.26139113
127	0x3ea10fc0	0.3145733
128	0xbe4c39f6	-0.19943985
129	0x3da4081b	0.080093585
130	0x3d7ff090	0.062485278
131	0x3cc38117	0.023865266
132	0x3d29786e	0.041374616
133	0xbdf49a7c	-0.11943528
134	0xbe8f126e	-0.27943748
135	0x3e4f63e1	0.20252945
136	0x3e0dc568	0.13844836
137	0xbe11be22	-0.14232686
138	0xbe634322	-0.22193578
139	0x3ea09738	0.3136537
140	0xbe206cd1	-0.1566651
141	0xbea70740	-0.3262272
142	0x3c9d95a4	0.019236393
143	0x3bb47158	0.0055066757
144	0xbe1335db	-0.14376013
145	0x3e891336	0.2677247
146	0x3e82b5a5	0.2552921
147	0xbe24a7ad	-0.16079588
148	0x3cf98a40	0.03046143
149	0xbe22403b	-0.15844814
150	0xbe0aa922	-0.13541082
151	0xbd11eee0	-0.0356282
152	0xbe330d2f	-0.17485498
153	0xbe10d75c	-0.14144653
154	0xbe831f1c	-0.25609672
155	0xbe43b3d6	-0.1911157
156	0xbe2a9070	-0.16656661
157	0x3e456dc2	0.1928015
158	0x3e15c6da	0.14626637
159	0x3e48c658	0.19606912
160	0x3e55ae5f	0.20867299
161	0xbea063f7	-0.31326267
162	0xbd93830b	-0.07202729
163	0xbd93942a	-0.072059944
164	0x3ea36798	0.31914973
165	0xbe8ecbcf	-0.2788987
166	0xbd6c0dda	-0.057630397
167	0x3df4bcc0	0.11950064
168	0xbdb367fc	-0.08760068
169	0x3e424119	0.18970145
170	0xba790b69	-0.00095002964
171	0xbe4f77d9	-0.20260562
172	0xbd7c1cea	-0.061551012
173	0x3c43290a	0.01191164
174	0x3e4a9f10	0.1978724
175	0x3e11cf15	0.14239152
176	0x3e2e2cf9	0.17009343
177	0xbe4835cf	-0.19551776
178	0xbe02770f	-0.1274073
179	0x3d61e2d4	0.05514796
180	0x3e02edc4	0.12786013
181	0xbd7a62d1	-0.061129395
182	0x3ded5e63	0.115902685
183	0x3e8510b4	0.25989306
184	0xbe1bcaff	-0.15214156
185	0x3d7e0ca7	0.062023785
186	0x3de63c50	0.112419724
187	0xbe871945	-0.26386467
188	0x3dda9aae	0.10674034
189	0x3e292f8d	0.16522045
190	0x3e311c45	0.1729594
191	0x3da69a1d	0.081348635
192	0xbe840f02	-0.257927
193	0x3d4c5d04	0.049893394
194	0x3e8eea5c	0.27913177
195	0xbe6acd1a	-0.22929803
196	0x3e338eb9	0.17534913
197	0x3e54a412	0.20765713
198	0xbe5d2dfa	-0.2159957
199	0xbe7785cd	-0.24172135
200	0x3d7d1d36	0.061795436
201	0xbd3d4f27	-0.046218064
202	0x3e8977b1	0.2684913
203	0xbdd7a83c	-0.10530135
204	0xbe27138b	-0.16316049
205	0xbe946e60	-0.2899046
206	0x3cfcf753	0.030879652
207	0x3e34ab53	0.1764348
208	0x3d1c8381	0.03821135
209	0xbca93b6d	-0.02065822
210	0xbca8bcd5	-0.020597855
211	0x3e0fda2c	0.1404807
212	0x3e5069ce	0.20352861
213	0xbe9636e6	-0.2933876
214	0xbd39a915	-0.045327265
215	0x3ea2b678	0.31779838
216	0xbcb6a0e9	-0.022293525
217	0xbea42438	-0.32058883
218	0x3e67c60b	0.22634141
219	0xbe077baf	-0.13230775
220	0x3e947a45	0.28999534
221	0xbe9f14e6	-0.31070632
222	0x3e586b1d	0.2113461
223	0xbe9b1052	-0.3028589
224	0xbe9357b4	-0.2877785
225	0xbe6ac29c	-0.229258
226	0x3d335e3a	0.043791033
227	0x3dab9cbe	0.083795056
228	0xbe1de404	-0.15419012
229	0x3e14b633	0.14522628
230	0x3c9f8a88	0.019475237
231	0x3b0710d8	0.0020609405
232	0xbdd38118	-0.10327357
233	0xbe56f547	-0.20992003
234	0x3e9838b2	0.29730755
235	0xbe17f8a3	-0.14840941
236	0xbe9c7217	-0.30555794
237	0xbd27878c	-0.040900752
238	0xbe9e0053	-0.30859622
239	0xbe4b535f	-0.19856022
240	0x3df166db	0.11787196
241	0x3e21114d	0.15729256
242	0xbe3a1f64	-0.18176037
243	0xbcef4ba0	-0.029210865
244	0x3ce066ec	0.027392827
245	0xbe89549a	-0.26822358
246	0x3e970f94	0.29504073
247	0xbe6593f6	-0.22419724
248	0x3bc43bd5	0.005988578
249	0x3e776d2b	0.24162738
250	0xbe3beed9	-0.18352832
251	0xbe6b1aff	-0.22959517
252	0x3db8e18a	0.09027393
253	0xbe5c916c	-0.21539849
254	0xbe26073a	-0.16213694
255	0xbdee257b	-0.116282426

subnets.0.attn.in_proj_bias f4 [42]
0	0x00000000	0.0
1	0x00000000	0.0
2	0x00000000	0.0
3	0x00000000	0.0
4	0x00000000	0.0
5	0x00000000	0.0
6	0x00000000	0.0
7	0x00000000	0.0
8	0x00000000	0.0
9	0x00000000	0.0
10	0x00000000	0.0
11	0x00000000	0.0
12	0x00000000	0.0
13	0x00000000	0.0
14	0x00000000	0.0
15	0x00000000	0.0
16	0x00000000	0.0
17	0x00000000	0.0
18	0x00000000	0.0
19	0x00000000	0.0
20	0x00000000	0.0
21	0x00000000	0.0
22	0x00000000	0.0
23	0x00000000	0.0
24	0x00000000	0.0
25	0x00000000	0.0
26	0x00000000	0.0
27	0x00000000	0.0
28	0xbe0c819d	-0.13721319
29	0xbcffe35a	-0.03123634
30	0x3dad958b	0.08475789
31	0xbab66de3	-0.0013918247
32	0x3af6f9e5	0.0018842785
33	0xbe3a6faa	-0.18206659
34	0xbc4a6618	-0.012353443
35	0x3e54dead	0.20788069
36	0x3e3996f1	0.18123986
37	0x3e2ef8ba	0.17087069
38	0x3e66e312	0.22547558
39	0xbaa3a169	-0.0012484017
40	0xbe6b9378	-0.23005474
41	0xbd4904ef	-0.04907697

subnets.0.attn.out_proj.weight f4 [14, 14]
0	0x3df1b136	0.118013784
1	0xbb3ebe6c	-0.00291052
2	0x3d918774	0.07105914
3	0xbeab8cc6	-0.3350584
4	0xbd3c052d	-0.045903374
5	0xbe0a2adf	-0.13492917
6	0xbe5c81cb	-0.21533887
7	0x3ea73b6e	0.3266253
8	0x3e0afc9d	0.13572927
9	0xbd8bdec9	-0.06829602
10	0xbe53e9bc	-0.20694631
11	0xbdeccd1f	-0.11562561
12	0xbf17ce2e	-0.5929898
13	0xbdc434c1	-0.095803745
14	0xbe7a10bb	-0.24420445
15	0xbd8ce988	-0.0688048
16	0xbe4e9a74	-0.20176107
17	0xbda9ef07	-0.08297544
18	0x3c6a0b14	0.014284868
19	0xbee4c630	-0.44682455
20	0x3ea35f88	0.31908822
21	0xbead5ac7	-0.3385832
22	0x3f0e3a76	0.55557954
23	0x3f17d1dd	0.593046
24	0x3e35cd02	0.17753986
25	0x3acc0127	0.0015564308
26	0x3ece8246	0.40333766
27	0xbd2de489	-0.042454276
28	0xbe0c5e6c	-0.13707894
29	0x3e06714d	0.13129158
30	0x3e258217	0.16162907
31	0x3802cb14	3.1183547e-05
32	0x3d9ecd16	0.07753961
33	0xbe8de813	-0.2771612
34	0x3e907b2f	0.28218982
35	0x3e7dcfea	0.24786344
36	0x3efd0e24	0.4942485
37	0x3d7584be	0.059941046
38	0x3e548014	0.20751983
39	0x3e2ad2ce	0.16681978
40	0xbec4f8aa	-0.38470966
41	0x3c704a64	0.014666174
42	0x3ddad346	0.106848285
43	0xbd026947	-0.03183868
44	0x3d8d8488	0.06910044
45	0xbec22e15	-0.37925783
46	0x3df29520	0.118448496
47	0xbeefa2d9	-0.4680393
48	0xbe734ce8	-0.23759806
49	0x3e098b0c	0.13431948
50	0x3e8f3b4a	0.2797492
51	0x3d9694a1	0.073525675
52	0x3dcd9df2	0.10039891
53	0xbdc4be73	-0.09606638
54	0xbc1e2278	-0.009651773
55	0xbd74fd38	-0.0598118
56	0xbedcabcc	-0.4309982
57	0x3ed12f7b	0.40856537
58	0x3e98c8e8	0.2984078
59	0x3f4c40bf	0.79786295
60	0x3de37a66	0.1110733
61	0x3e5ccdad	0.21562834
62	0x3e8b1fc6	0.2717268
63	0x3f2cc871	0.6749335
64	0xbefdd011	-0.49572805
65	0xbecea501	-0.40360263
66	0x3e786ccb	0.24260251
67	0xbddd7928	-0.10814124
68	0xbed2006e	-0.41015953
69	0xbe55e883	-0.20889477
70	0x3d53ad6b	0.051679056
71	0xbe6c4e9a	-0.23076859
72	0xbe4c0e56	-0.19927344
73	0x3e1d0774	0.15334874
74	0x3cbb280c	0.022846244
75	0x3de715a5	0.11283425
76	0x3ed1404b	0.40869364
77	0x3e03d268	0.12873232
78	0xbe2c7ca9	-0.16844429
79	0x3b436e2d	0.0029820309
80	0x3d0e930e	0.03480821
81	0xbe979daf	-0.2961249
82	0x3d3eeb14	0.046610907
83	0xbe54635c	-0.20741028
84	0xbe86c490	-0.2632184
85	0x3cfcde31	0.030867668
86	0x3e76f084	0.24115187
87	0xbd07a508	-0.03311637
88	0xbd129441	-0.035785917
89	0x3eb4f2f8	0.3534162
90	0x3de795ed	0.11307893
91	0xbe4f3d10	-0.20238137
92	0x3ebc5998	0.36787105
93	0x3e8ee11a	0.27906114
94	0x3cc7108b	0.02429988
95	0xbd8e3b3c	-0.06944892
96	0x3e905b90	0.28194857
97	0x3bfa5d10	0.0076404884
98	0xbe219814	-0.1578067
99	0x3ea99ee4	0.33129036
100	0x3e25dc47	0.1619731
101	0xbd29639e	-0.041354768
102	0x3d833f04	0.06408504
103	0x3d0be47f	0.034153458
104	0xbe742315	-0.23841508
105	0xbe6eff49	-0.23339571
106	0x3e42e9f2	0.19034556
107	0x3ec36106	0.3815996
108	0x3e02e33d	0.12781997
109	0xbe552f99	-0.20818938
110	0x3db4201e	0.08795188
111	0xbde1675d	-0.11006043
112	0xbcfd998c	-0.030957006
113	0xbe26f288	-0.16303456
114	0xbe23826d	-0.15967722
115	0x3e38260c	0.17983264
116	0x3d8f97db	0.07011386
117	0xbed9cc47	-0.42538664
118	0xbe6510b7	-0.22369657
119	0x3ddfd5cf	0.10929453
120	0x3f3c0473	0.7344429
121	0x3f183d99	0.5946899
122	0xbdd29bec	-0.10283646
123	0xbd329d51	-0.04360706
124	0xbe3c496e	-0.18387386
125	0xbe1372b6	-0.14399227
126	0xbe0f2b7d	-0.13981433
127	0x3e0203a8	0.12696707
128	0x3d9fe53f	0.07807397
129	0x3e044c94	0.12919837
130	0xbdcae15c	-0.09906265
131	0xbea32d71	-0.31870607
132	0x3e81229b	0.25221714
133	0x3e496c52	0.19670227
134	0x3e07e3f7	0.13270555
135	0xbcff250b	-0.031145593
136	0x3d9dce67	0.07705384
137	0xbd6137cf	-0.054984864
138	0x3c1f14c4	0.009709541
139	0x3c8d6f08	0.017264858
140	0x3e5edbee	0.21763584
141	0x3ea06f04	0.31334698
142	0xbe29bff5	-0.16577132
143	0xbf0197f6	-0.506225
144	0xbdf7fe85	-0.121090926
145	0x3d7150df	0.058915015
146	0x3c271173	0.010197031
147	0x3d813412	0.0630876
148	0x3ec91505	0.3927385
149	0xbdb17f22	-0.08666827
150	0x3e3093c8	0.17243874
151	0x3d36d36f	0.044635233
152	0x3e8b469e	0.27202314
153	0x3dd9d0f7	0.1063556
154	0x3e62e391	0.22157122
155	0x3da322bb	0.07965609
156	0x3d640abf	0.05567431
157	0x3cfe281a	0.031024981
158	0x3dc2737e	0.09494685
159	0x3d929d49	0.07158906
160	0xbdc3f02b	-0.09567293
161	0xbd3e7862	-0.046501525
162	0x3e41ea50	0.1893704
163	0xba2954f6	-0.00064594985
164	0x3ce78a67	0.028264238
165	0x3c7cf93c	0.0154402815
166	0xbe216184	-0.15759856
167	0x3e28438e	0.1643202
168	0x3d72a5fa	0.05924032
169	0xbe15a1f7	-0.14612566
170	0xbe9f552f	-0.31119677
171	0xbec7d4de	-0.39029592
172	0x3e108130	0.14111781
173	0x3f16ca3b	0.5890233
174	0xbbcf1674	-0.0063198153
175	0xbebb55e9	-0.36588982
176	0xbece7cab	-0.4032949
177	0xbee6efe9	-0.45104912
178	0x3cc5e39c	0.024156384
179	0xbc32be20	-0.010909587
180	0x3eb42cee	0.3519053
181	0xbe160153	-0.14648943
182	0xbe7cc3c4	-0.24684054
183	0xbd496a0d	-0.049173404
184	0x3c3129b8	0.010813169
185	0x3e762b4f	0.24039958
186	0xbdee1200	-0.11624527
187	0x3dbc3769	0.09190256
188	0x3ef3d42b	0.4762281
189	0x3dcb43fa	0.09925075
190	0xbe5dc543	-0.2165728
191	0xbdddf2c6	-0.10837321
192	0x3eae699e	0.34064955
193	0xbdb8f7c7	-0.09031635
194	0xbee46fe7	-0.44616625
195	0x3dbf3ecd	0.0933815

subnets.0.attn.out_proj.bias f4 [14]
0	0x3e83f027	0.2576916
1	0x3bfd0782	0.0077218423
2	0x3d9e7715	0.07737557
3	0x3de78b4d	0.113058664
4	0xbe0d6355	-0.13807423
5	0xbdfea15b	-0.1243312
6	0xbd3d09d2	-0.046151944
7	0x3d0f0266	0.034914397
8	0x3daf0f7e	0.08547877
9	0x3dfbedd8	0.123012245
10	0xbb6cd203	-0.003613592
11	0xbd23f62f	-0.0400297
12	0xbdf9fdc1	-0.12206603
13	0xbdfa9693	-0.12235751

subnets.0.hidden_layers.0.weight f4 [16, 14]
0	0x3ecfd39f	0.40591142
1	0xbe4f2ad4	-0.20231181
2	0xbd0302ad	-0.031984974
3	0x3ea1ba6b	0.31587538
4	0xbe8fa327	-0.28054163
5	0xbe5a4e96	-0.2131904
6	0xbe177e5b	-0.14794295
7	0x3e0a3f49	0.13500704
8	0x3e07fe89	0.13280691
9	0x3d8d8d74	0.06911746
10	0x3e043c6a	0.12913671
11	0xbd1ce77f	-0.03830671
12	0xbd415b6f	-0.04720634
13	0xbe0a13bd	-0.13484092
14	0xbe7a4778	-0.24441326
15	0x3ec8a062	0.39184862
16	0xbd2e8192	-0.042604037
17	0x3dbc8c4f	0.09206449
18	0xbe02cfda	-0.12774602
19	0xbdb32158	-0.08746594
20	0x3ebdd9ba	0.37080175
21	0x3e86af56	0.26305646
22	0x3d0dab2d	0.034587074
23	0xbd9448fd	-0.07240484
24	0x3e95416b	0.29151472
25	0xbd4fe32f	-0.05075377
26	0x3e99ba8b	0.30025133
27	0xbd629a5e	-0.055322997
28	0x3e2bdbd5	0.16783078
29	0x3e13dc56	0.1443952
30	0xbcdc1720	-0.026866496
31	0xbe243b40	-0.16038227
32	0xbe42671b	-0.18984644
33	0xbe1e713b	-0.15472881
34	0x3e20766c	0.15670174
35	0x3e0a8af8	0.13529575
36	0xbdf8e12a	-0.12152322
37	0xbe658862	-0.22415307
38	0x3df51ce1	0.11968399
39	0xbd752faf	-0.059859928
40	0xbe264fee	-0.16241428
41	0xbe45c67c	-0.19313997
42	0xbe808cfd	-0.25107566
43	0xbe3caa3f	-0.18424319
44	0xbe033963	-0.1281486
45	0xbf08e32b	-0.5347163
46	0x3eee768f	0.46574828
47	0x3ed84c94	0.42245924
48	0x3d429ee4	0.04751481
49	0xbdbae0a2	-0.091248766
50	0xbe46a778	-0.19399822
51	0xbe8996f9	-0.26872995
52	0xbe225609	-0.15853132
53	0xbd090e3c	-0.03346084
54	0x3d8ca9b7	0.06868308
55	0x3ea4ece9	0.32211998
56	0xbe357a7d	-0.17722507
57	0xbe0a1e0c	-0.13488024
58	0x3df2f60c	0.11863336
59	0x3e270c27	0.1631323
60	0x3d23912b	0.039933365
61	0x3e236f9d	0.15960546
62	0xbe0c7694	-0.13717109
63	0x3d20a498	0.03921947
64	0x3e8f0b8d	0.279385
65	0x3ea4a43f	0.3215656
66	0x3e1f98fa	0.155857
67	0x3dc8d34b	0.09805926
68	0x3d8709b1	0.06593645
69	0x3d7dde59	0.061979625
70	0xbedd71ec	-0.43250978
71	0xbc293b2c	-0.010329049
72	0xbe0b8bf4	-0.13627607
73	0xbd952a2e	-0.07283436
74	0x3e99742b	0.29971442
75	0x3df01669	0.117230244
76	0x3cb5c934	0.022190668
77	0xbe4b23d2	-0.19837883
78	0xbe6b1fe7	-0.22961389
79	0xbd9ad3a3	-0.07559898
80	0xbb0f27b6	-0.0021843738
81	0x3e42bb5b	0.19016783
82	0x3e6c9a05	0.23105629
83	0x3e2761b6	0.16345868
84	0xbe31f4fe	-0.17378613
85	0xbd84a9d4	-0.06477705
86	0x3f0cde96	0.5502714
87	0xbed4c347	-0.41555235
88	0x3f3d1e33	0.73874205
89	0x3ef1db56	0.47237653
90	0xbe9c72e9	-0.3055642
91	0xbec9bdbd	-0.3940257
92	0xbd54a9e4	-0.051919833
93	0x3dda4ba3	0.10658958
94	0xbe9039dd	-0.28169146
95	0x3d9f619b	0.07782289
96	0xbe86758f	-0.26261565
97	0x3f496898	0.7867522
98	0x3c7105e6	0.014710879
99	0xbf06b283	-0.5261614
100	0xbeeeb48e	-0.46622127
101	0xbea082a4	-0.3134967
102	0xbd31680c	-0.043312117
103	0xb9ef9f2e	-0.0004570423
104	0x3e0eb5b6	0.13936505
105	0xbd9b62f2	-0.07587232
106	0xbf0d7f32	-0.5527221
107	0xbe8b3042	-0.27185255
108	0x3b9446b9	0.0045250324
109	0xbd25882f	-0.040413078
110	0x3f198a2b	0.5997645
111	0xbe4553d7	-0.19270264
112	0x3dd8007d	0.10546968
113	0xbc974882	-0.018467192
114	0xbdace2f2	-0.08441724
115	0x3e672359	0.22572078
116	0xbd5dc239	-0.054140303
117	0x3e222249	0.15833391
118	0x3dfe8034	0.124267966
119	0x3d05ac27	0.03263488
120	0x3e4f7974	0.20261174
121	0xbe4a939a	-0.19782868
122	0x3db19140	0.08670282
123	0xbb3c3831	-0.0028720016
124	0xbe004523	-0.12526374
125	0xbe37aad4	-0.1793626
126	0xbdda379e	-0.106551394
127	0x3e3f6dc5	0.18694218
128	0x3dfd0875	0.12355129
129	0xbdcde09a	-0.10052605
130	0x3de72ecf	0.11288225
131	0x3cb19e02	0.02168179
132	0xbd24df98	-0.040252298
133	0xbcc69326	-0.024240088
134	0x3d4a7f81	0.049438003
135	0x3e47f693	0.19527654
136	0xbdd94a13	-0.10609832
137	0x3e4b6d85	0.19865997
138	0xbe5da0d8	-0.21643388
139	0xbe9d91e7	-0.30775377
140	0xbf66c8c5	-0.901501
141	0x3e1537c7	0.14572059
142	0xbca11811	-0.019664796
143	0xbedfff1e	-0.43749326
144	0x3e387e68	0.1801697
145	0x3e6309ef	0.22171758
146	0x3d08d537	0.033406463
147	0xbe836513	-0.2566305
148	0xbebf082a	-0.37310916
149	0xbe40c160	-0.18823767
150	0xbe4c8f28	-0.19976485
151	0xbe817f33	-0.25292358
152	0xbcd50bd8	-0.026006624
153	0x3ddb1386	0.10697083
154	0xbdbe9916	-0.093065426
155	0xbe09f39b	-0.13471834
156	0x3f554fd9	0.8332496
157	0xbe87a52a	-0.26493198
158	0x3f336521	0.70076185
159	0x3ef84352	0.4848886
160	0xbecb6b0e	-0.39730114
161	0xbe241573	-0.16023807
162	0xbecb9709	-0.39763668
163	0x3f82268a	1.0168011
164	0xbf36031e	-0.71098506
165	0xbe143bd6	-0.1447595
166	0xbf9f14fd	-1.242828
167	0x3eb848bd	0.35992995
168	0xbb24f171	-0.0025168324
169	0x3f2eac23	0.6823141
170	0x3e3498c4	0.176364
171	0x3e7299d3	0.23691492
172	0xbee2b23c	-0.44276607
173	0xbdd63670	-0.10459602
174	0x3e0c13ff	0.13679503
175	0x3e910115	0.28321138
176	0x3f09761f	0.53695863
177	0xbc0989d5	-0.008394678
178	0x3e8e22d8	0.2776096
179	0x3d3bdd42	0.045865305
180	0xbe10d4a6	-0.14143619
181	0xbe57a149	-0.21057619
182	0x3e0a76d5	0.13521893
183	0xbe9ce927	-0.3064663
184	0x3c10949f	0.0088244965
185	0xbe20f86e	-0.15719768
186	0x3e4f3a7b	0.20237152
187	0xbcd2d752	-0.025737438
188	0xbd830108	-0.06396681
189	0x3c3e6931	0.011621759
190	0xbe9436ba	-0.28948003
191	0xbe49dc89	-0.19713034
192	0xbd09a42d	-0.033603836
193	0x3b499fd1	0.0030765424
194	0x3e773224	0.24140221
195	0x3e39f959	0.18161525
196	0xbd4d52ad	-0.050127674
197	0x3e89653a	0.26835042
198	0x3dd4fc8f	0.10399734
199	0x3e0c034b	0.13673131
200	0x3cad5f59	0.02116363
201	0xbddea851	-0.108719476
202	0xbe6d475a	-0.2317175
203	0xbe39f72c	-0.18160695
204	0x3e93273a	0.28740865
205	0x3c0b33a2	0.008496197
206	0x3c775d1a	0.015097881
207	0x3e8f235a	0.2795666
208	0xbd715dbb	-0.05892728
209	0xbc1bbebe	-0.009505926
210	0xbce54bad	-0.027990187
211	0x3e968317	0.2939689
212	0x3e1e3d64	0.15453106
213	0x3dd358ee	0.10319696
214	0xbe032cd4	-0.1281007
215	0xbc977fd4	-0.01849357
216	0x3d86dbbb	0.06584879
217	0x3dbe696b	0.09297451
218	0x3e035a23	0.12827353
219	0x3e815f38	0.2526796
220	0xbd9f62c1	-0.07782508
221	0xbe37fdc5	-0.17967899
222	0xbe54ee2e	-0.20793983
223	0x3c57af21	0.013164313

subnets.0.hidden_layers.0.bias f4 [16]
0	0x3edd5223	0.43226728
1	0xbeab387d	-0.33441535
2	0x3d730069	0.059326563
3	0xbf013ea2	-0.50486195
4	0xbe7a91ec	-0.24469727
5	0xbec74c4a	-0.3892539
6	0x3f0685de	0.52548015
7	0xbd65bfe6	-0.05609121
8	0x3e3f8e9d	0.18706746
9	0xbea09ad4	-0.31368124
10	0xbe7fee26	-0.2499319
11	0x3e8f75ab	0.2801946
12	0xbe946e7f	-0.28990552
13	0x3eb1521f	0.34632966
14	0x3ec1fe28	0.37889218
15	0x3ee537af	0.44769046

subnets.0.hidden_layers.2.weight f4 [16, 16]
0	0x3ecec0b3	0.40381393
1	0x3e0ffd13	0.14061384
2	0x3e17835a	0.147962
3	0xbfe833f7	-1.8140858
4	0xbe0b5d9a	-0.13609925
5	0xbfb1ff5a	-1.3906052
6	0x3f0040ea	0.5009905
7	0x3f003081	0.5007401
8	0xbd44211e	-0.047883146
9	0x3d2e1548	0.042500764
10	0xbfc50ac5	-1.5393912
11	0xbf10097b	-0.56264466
12	0x3e25ab21	0.16178562
13	0x3f004a5a	0.5011345
14	0xbf601e3e	-0.87546146
15	0xbf6f87e9	-0.9356676
16	0xc03e8498	-2.9768429
17	0xbf670c24	-0.902529
18	0x3da32d86	0.07967667
19	0xbd70f733	-0.058829498
20	0xbd57aae3	-0.052653205
21	0x3d890529	0.06690437
22	0x3e31cef1	0.17364098
23	0x3ecde42c	0.40213144
24	0x3c1a8352	0.009430723
25	0x3cd13388	0.025537267
26	0xbac2d747	-0.0014865183
27	0x3f629a5e	0.88516796
28	0x3d82053f	0.06348657
29	0x3e04c7ca	0.12966838
30	0xbec96c9e	-0.3934068
31	0xbf6c3419	-0.92266995
32	0x3ea92f0c	0.33043706
33	0xbeec243c	-0.46121395
34	0x3e38b80f	0.18038963
35	0xbdb03d05	-0.086053886
36	0x3d282fab	0.041061085
37	0xbea15567	-0.3151047
38	0xbefc8d66	-0.49326628
39	0xbefa7537	-0.48917553
40	0x3d2ebc74	0.04266019
41	0xbe50272a	-0.2032744
42	0xbf474159	-0.7783409
43	0xbe4703c1	-0.19435026
44	0x3edb7a54	0.42866766
45	0xbe9c32be	-0.30507463
46	0x3d1270f6	0.03575226
47	0x3e967f8c	0.29394186
48	0xbe0f3b9a	-0.1398758
49	0xbe1c7778	-0.15279949
50	0xbe71da92	-0.23618534
51	0x3d9994e0	0.07499099
52	0xbdeb8984	-0.115008384
53	0x3dee3668	0.11631471
54	0xbe00eea4	-0.12591034
55	0xbe6dd9da	-0.23227635
56	0x3d8089ac	0.06276259
57	0xbe74521c	-0.23859447
58	0xbe012250	-0.12610745
59	0x3cfb79f0	0.030697793
60	0xbe02c63e	-0.12770936
61	0xbe5905e4	-0.21193653
62	0xbd406d70	-0.046979368
63	0xbe439bce	-0.19102404
64	0x3ea58394	0.3232695
65	0xbee68e53	-0.4503046
66	0xbf647e46	-0.8925518
67	0x3cc224d5	0.023699204
68	0xbe45003c	-0.1923837
69	0x3d2c0414	0.041996077
70	0x3d86c572	0.065806285
71	0x3ee731f5	0.45155302
72	0xbf425630	-0.7591276
73	0x3e9123a6	0.2834751
74	0x3cf0a014	0.029373206
75	0xbf6e79a8	-0.9315438
76	0xbef4807e	-0.47754282
77	0x3e9d06d7	0.3066928
78	0xbea5593c	-0.32294643
79	0xbeb8d34b	-0.36098704
80	0x3e998b2d	0.29988995
81	0xbf7f8b1e	-0.9982165
82	0xbd0c5131	-0.034257118
83	0xbd55d134	-0.052201465
84	0x3e9ec11c	0.31006706
85	0xbd35bf82	-0.04437209
86	0xbea5b1a4	-0.32362092
87	0xbe4fa569	-0.20277943
88	0x3e2e14d6	0.17000136
89	0xbe004bb4	-0.12528878
90	0xbebe92a7	-0.37221262
91	0x3ec9d669	0.39421394
92	0xc00337bd	-2.050277
93	0x3e40485f	0.18777607
94	0x3e7667c9	0.24063028
95	0x3e779b25	0.24180277
96	0xbdc05d7d	-0.093928315
97	0x3cb83bc0	0.022489429
98	0xbdf92e8c	-0.12167081
99	0xbe17d3d6	-0.14826903
100	0x3d5d5dfb	0.054044705
101	0xbd5350f4	-0.051590875
102	0xbe06741a	-0.13130227
103	0xbe4c4515	-0.19948228
104	0xbe7ed850	-0.24887204
105	0xbd99abf4	-0.075035006
106	0x3dc2ba9e	0.09508251
107	0x3e0d8e78	0.13823879
108	0xbe619f20	-0.22033358
109	0x3e2fe808	0.17178357
110	0xbe3eaaf2	-0.18619898
111	0xba19e400	-0.00058704615
112	0x3e7d858b	0.24757974
113	0xbeb2e639	-0.3494127
114	0x3d95866d	0.0730103
115	0x3e803d01	0.25046542
116	0x3d0c36b9	0.034231875
117	0x3e9536d2	0.29143387
118	0xbf3bebbc	-0.7340658
119	0xbec4063b	-0.38286003
120	0x3e4f206b	0.2022721
121	0xbc955a7c	-0.018231623
122	0x3e84d377	0.25942585
123	0xbe33c25b	-0.1755461
124	0xbe6ed1a3	-0.23322158
125	0x3d5d0e98	0.053968996
126	0x3e82a24b	0.25514445
127	0x3e1305af	0.14357637
128	0xbbd416b4	-0.006472433
129	0xbf3c5bf9	-0.7357784
130	0xbbcc2775	-0.0062302896
131	0x3d8a0005	0.06738285
132	0xbc7bcffe	-0.015369413
133	0xbdf53c99	-0.11974449
134	0x3c933401	0.017969133
135	0xbd8ae293	-0.06781497
136	0xbe2d39d2	-0.16916588
137	0xbc9c2713	-0.0190616
138	0xbce56e08	-0.028006569
139	0x3b9defbf	0.0048198397
140	0xbf52c7f9	-0.82336384
141	0xbe6cef56	-0.23138174
142	0xbe579d9d	-0.21056218
143	0xbc42e866	-0.011896228
144	0x3e42990b	0.19003694
145	0x3dde5c2c	0.10857424
146	0xbf3eb11b	-0.7448899
147	0xbfa3c20b	-1.2793592
148	0x3e21020e	0.1572344
149	0xbf8bd454	-1.0924172
150	0x3f35124f	0.7073106
151	0x3eca2801	0.39483646
152	0xbec9ff68	-0.39452672
153	0x3dc994fe	0.09842871
154	0xbfacb503	-1.349274
155	0x3e505be0	0.20347548
156	0x3e10ab37	0.14127813
157	0x3e2a4531	0.16627957
158	0xbe637e8e	-0.22216246
159	0xbeb53cfe	-0.35398096
160	0x3e8aec67	0.27133486
161	0xbeb2abd0	-0.34896708
162	0xbd1cdbfd	-0.038295735
163	0xbf420ef6	-0.7580408
164	0x3dc885e3	0.09791162
165	0x3df297d3	0.118453644
166	0xbf96e847	-1.1789635
167	0xbebacc79	-0.36484125
168	0x3eb3d796	0.35125417
169	0xbd84a7ab	-0.064772926
170	0x3d2a8317	0.041628923
171	0xbe664b57	-0.22489677
172	0x3ad6dda1	0.0016392955
173	0x3ea4a0c4	0.32153904
174	0x3ed05b54	0.40694678
175	0x3eb33385	0.35000244
176	0x3ec8a2ff	0.39186856
177	0xbd4f8e30	-0.05067271
178	0x3d320756	0.043464027
179	0xbe8a7fd9	-0.27050665
180	0xbe85f675	-0.26164594
181	0xbe484df6	-0.1956099
182	0xbeaf4e28	-0.34239316
183	0x3f14d245	0.58133346
184	0x3e6d8feb	0.23199432
185	0x3d3cbdd3	0.046079468
186	0xbef08f57	-0.4698436
187	0xbeb6db24	-0.35714066
188	0x3efcfae6	0.4941017
189	0xbf195633	-0.59897155
190	0x3d10752d	0.035267998
191	0x3d8f1130	0.069857
192	0x3e0c88de	0.13724086
193	0xbf26f4e5	-0.6521743
194	0x3e519b00	0.20469284
195	0xbec6f2b7	-0.38857052
196	0x3e0f4c1a	0.13993874
197	0xbea2e3d0	-0.31814432
198	0xbf947ca3	-1.1600536
199	0xbec57946	-0.38569087
200	0x3c35daff	0.011099576
201	0x3e61d6e3	0.22054629
202	0xbe9e66ef	-0.30937907
203	0x3ce3ed70	0.02782318
204	0xbf299e8d	-0.66257554
205	0x3ec3610c	0.38159978
206	0x3d99e3de	0.07514165
207	0x3dd87191	0.10568536
208	0x3ec17cae	0.37790436
209	0xbf0bfe75	-0.54685146
210	0x3bd4d783	0.0064954176
211	0xbaaea488	-0.0013324181
212	0xbde151b3	-0.11001911
213	0xbf431082	-0.76197064
214	0xbf36e016	-0.7143568
215	0xbebde82f	-0.37091205
216	0x3e888427	0.26663324
217	0xbe010561	-0.12599708
218	0xbf7d85f5	-0.9903253
219	0xbdcfebbd	-0.101523854
220	0x3e1a2721	0.15053989
221	0xbebedd87	-0.37278387
222	0x3dd8ee50	0.105923295
223	0x3e9afb06	0.3026964
224	0xbc3f590c	-0.011678945
225	0x3e57b624	0.21065575
226	0x3e72bd43	0.2370501
227	0x3eafc415	0.34329286
228	0x3e2bbb6c	0.16770715
229	0x3e704f85	0.23467834
230	0x3d1814b4	0.03712912
231	0x3e3869f3	0.18009166
232	0x3e28b5aa	0.1647555
233	0xbca62225	-0.020279953
234	0x3e3f865a	0.18703595
235	0x3e8b70b8	0.27234435
236	0x3e86951a	0.2628563
237	0xbd82877b	-0.06373497
238	0xbb84c6cc	-0.0040520187
239	0x3e8cc89c	0.27496803
240	0xbd8b40f0	-0.06799495
241	0x3f06ac1c	0.5260637
242	0x3e11f9e7	0.14255486
243	0x3d6a7bfd	0.05724715
244	0x3e0bae71	0.13640763
245	0xbe3bfc98	-0.18358076
246	0xbe603036	-0.21893391
247	0xbf72cd3a	-0.948444
248	0x3cc3a24a	0.023881096
249	0xbe66b464	-0.22529751
250	0xbf1266a6	-0.5718788
251	0xbf68ce5d	-0.90939885
252	0x3f7c5af5	0.9857629
253	0xbf6cb7a0	-0.9246769
254	0x3c3ccee2	0.011523934
255	0x3df94446	0.12171225

subnets.0.hidden_layers.2.bias f4 [16]
0	0x3e0c00a6	0.13672122
1	0x3e32de07	0.17467509
2	0x3e9f8036	0.31152505
3	0xbe0e9656	-0.13924536
4	0x3e7c7075	0.24652274
5	0x3ec35dff	0.3815765
6	0xbe894360	-0.26809216
7	0x3ee7d763	0.45281515
8	0xbe24b754	-0.16085559
9	0x3e8e46aa	0.27788287
10	0x3efcea89	0.49397686
11	0xbeab9189	-0.33509472
12	0x3f120a6f	0.5704717
13	0x3eea8aa0	0.45808887
14	0xbe829274	-0.2550236
15	0xbf44c5e6	-0.7686447

subnets.1.attn.in_proj_weight f4 [42, 14]
0	0x3e265676	0.1624392
1	0x3d4cabf1	0.049968664
2	0xbdd0390d	-0.101671316
3	0xbd0f7833	-0.03502674
4	0x3e1dcabb	0.15409367
5	0x3e77af8e	0.24188063
6	0xbd23be40	-0.03997636
7	0x3e006682	0.12539104
8	0x3e9fa83a	0.31183034
9	0x3de65f5b	0.11248656
10	0x3e292233	0.16516952
11	0x3e8fe788	0.28106332
12	0xbe8f6a98	-0.28011012
13	0xbea71b6b	-0.32638106
14	0xbe46a1eb	-0.19397704
15	0xbd654a0c	-0.05597882
16	0xbda8d79c	-0.08244249
17	0x3cbac170	0.022797316
18	0xbe623c4f	-0.22093318
19	0x3de9fa17	0.11424654
20	0xbe04fd3c	-0.12987226
21	0x3e79bcea	0.24388471
22	0x3d30c9e3	0.043161284
23	0x3d4acb8d	0.049510527
24	0x3deb4d14	0.11489311
25	0xbe8a4ec0	-0.27013206
26	0xbe4f59d9	-0.20249118
27	0x3d4109c2	0.047128446
28	0x3e9ed6e6	0.3102333
29	0xbb8edf80	-0.0043601394
30	0xbe949d31	-0.29026178
31	0x3d8f6b4a	0.07002886
32	0xbe8a18d6	-0.26972073
33	0xbea5d520	-0.32389164
34	0x3dc37db7	0.095454626
35	0xbe8fc18c	-0.28077352
36	0xbdba281b	-0.09089681
37	0x3e961326	0.29311484
38	0xbe597a8d	-0.21238156
39	0xbe520f7b	-0.20513718
40	0xbe1fab1f	-0.15592621
41	0xbe30bd29	-0.17259659
42	0xbe6175d1	-0.220176
43	0x3d5f6863	0.05454291
44	0xbe1baa14	-0.15201598
45	0xbe05d827	-0.13070737
46	0xbddec622	-0.108776346
47	0xbe512b85	-0.20426758
48	0x3e6cbeea	0.23119703
49	0x3d9b9d65	0.0759838
50	0x3e2140e8	0.15747416
51	0xbdb60ddc	-0.08889362
52	0xbe660b34	-0.22465211
53	0xbdec6454	-0.115425736
54	0xbd48259d	-0.048863996
55	0x3e845bb5	0.25851217
56	0x3e5a2c1e	0.21305892
57	0xbd8534f3	-0.0650424
58	0x3e917ae0	0.2841406
59	0x3ea4447f	0.32083508
60	0x3dd4b51c	0.10386106
61	0xbe322c45	-0.173997
62	0x3e470813	0.19436674
63	0xbe9c656d	-0.30546132
64	0x3e6d4482	0.23170665
65	0x3e01c8df	0.12674282
66	0xbe8be6ed	-0.2732462
67	0x3deda6fe	0.11604117
68	0x3cc3874f	0.023868231
69	0x3cf897dd	0.030345852
70	0xbda5a273	-0.08087625
71	0x3e6b5c10	0.22984338
72	0x39fe1663	0.00048463335
73	0x3e9d2a34	0.3069626
74	0x3e56e3f8	0.209854
75	0x3e6381b1	0.22217442
76	0x3d4a5f7e	0.049407475
77	0x3e181ec2	0.14855483
78	0x3e80e602	0.25175482
79	0xbe34ed8b	-0.1766874
80	0x3ea4976c	0.32146776
81	0x3dfe2519	0.124094196
82	0x3e250f78	0.16119182
83	0xbe79f7a6	-0.24410877
84	0x382ff02c	4.194693e-05
85	0x3d84e645	0.06489233
86	0x3e1b8d6d	0.15190668
87	0xbd023262	-0.03178633
88	0xbe1c0104	-0.15234762
89	0x3e8eede5	0.27915874
90	0x3da5b1cb	0.08090552
91	0xbd966b58	-0.07344693
92	0x3c25c933	0.01011877
93	0x3e0e22a5	0.13880403
94	0xbdab1bc2	-0.08354904
95	0xbdb02999	-0.08601684
96	0x3e353160	0.17694616
97	0x3d126e3f	0.03574967
98	0xbdc772cb	-0.09738692
99	0x3e9ae782	0.3025475
100	0x3e95cfd2	0.29260117
101	0xbe071502	-0.13191608
102	0x3e5f25e8	0.21791804
103	0xbd685cd2	-0.056729145
104	0x3dd3978f	0.10331642
105	0xbced56bc	-0.028972022
106	0x3e540b64	0.2070747
107	0x3e7adcc2	0.24498275
108	0xbea70c8f	-0.3262677
109	0x3e9bba25	0.30415455
110	0x3e161f8c	0.14660472
111	0xbe30b3bd	-0.17256065
112	0x3e496906	0.1966897
113	0x3c0f26b2	0.008737253
114	0xbe46781a	-0.19381753
115	0xbe646590	-0.22304368
116	0x3e94c2f1	0.29054978
117	0x3ba7f8ed	0.00512611
118	0x3e2a0706	0.16604242
119	0x3e2290b9	0.1587552
120	0xbe548b2e	-0.20756218
121	0xbea2e73e	-0.3181705
122	0xbdaa2ca0	-0.08309293
123	0x3e7ca58d	0.24672528
124	0x3e374792	0.17898396
125	0xbd4cb03d	-0.04997276
126	0x3df3a45a	0.11896582
127	0x3d57451d	0.052556146
128	0x3e1bece0	0.1522708
129	0xbe6f28e9	-0.2335545
130	0x3d3afeb1	0.04565305
131	0x3e428372	0.18995455
132	0xbe87b982	-0.2650872
133	0xbd3b92d9	-0.04579434
134	0x3e069709	0.13143553
135	0x3d13d1f8	0.036088914
136	0xbe79f336	-0.24409184
137	0x3cccd5ad	0.025004232
138	0x3bb68004	0.00556946
139	0xbdc6749f	-0.096902125
140	0xbe081c4f	-0.13292049
141	0xbe0b54d1	-0.13606574
142	0x3c98b0e1	0.01863903
143	0x3e50ca3b	0.20389645
144	0x3e1ac944	0.15115839
145	0x3e63fddd	0.2226481
146	0x3d145c4e	0.03622084
147	0xbe34896a	-0.17630544
148	0x3e9b11b0	0.30286932
149	0xbd17123d	-0.036882628
150	0x3e51770d	0.2045557
151	0xbe9395c9	-0.28825215
152	0xbd84b9d6	-0.06480758
153	0xbd550b3d	-0.05201267
154	0xbda185d9	-0.078868575
155	0x3e42390f	0.18967079
156	0xbd8597b9	-0.065230794
157	0xbe4119f9	-0.18857564
158	0x3e614e24	0.22002465
159	0x3d28c9b8	0.041208
160	0xbd4554d7	-0.048176613
161	0xbd545b03	-0.051844608
162	0x3e0ec07a	0.13940611
163	0x3dbbe952	0.09175362
164	0xbe84243b	-0.25808892
165	0x3e369b2f	0.17832635
166	0xbe9ed5e2	-0.31022555
167	0x3e234823	0.15945487
168	0xbe9c1235	-0.3048264
169	0x3e9d33c7	0.30703565
170	0x3e90eeed	0.28307286
171	0xbe8d61e3	-0.27613744
172	0xbcd4e2f0	-0.025987118
173	0x3d80d152	0.06289925
174	0xbd25520d	-0.040361453
175	0x3e98d24b	0.2984794
176	0xbe9be4a6	-0.30447882
177	0xbca98ae2	-0.020696107
178	0xbe1ef32a	-0.15522447
179	0xbda2a6fb	-0.07942005
180	0x3d6e3a64	0.058161154
181	0x3df450cb	0.119294725
182	0x3d6a6856	0.05722841
183	0x3c005f20	0.00783518
184	0x3de1dad4	0.11028066
185	0xbe30ea87	-0.17276965
186	0xbe8bd1a1	-0.27308372
187	0x3e16eb98	0.1473831
188	0xbd8abf08	-0.067747176
189	0x3e301754	0.17196399
190	0xbe3810e0	-0.17975187
191	0xbb8627c9	-0.004094098
192	0x3e737fce	0.23779222
193	0x3e7785da	0.24172154
194	0xbde4a99e	-0.111651644
195	0x3e472015	0.19445832
196	0x3e8d1f4a	0.27562934
197	0x3e4dc236	0.20093617
198	0xbd5c77bd	-0.05382513
199	0x3e3dedce	0.18547747
200	0x3e748590	0.23879075
201	0x3c5774b3	0.013150382
202	0x3e30b8a9	0.17257942
203	0x3c3d4ede	0.011554448
204	0x3e8a50a6	0.27014655
205	0x3e197de1	0.14989425
206	0xbe25462a	-0.16140047
207	0x3e21a84d	0.15786858
208	0xbcf43bae	-0.029813614
209	0x3e69e71d	0.22842069
210	0xbd1176bf	-0.035513636
211	0xbe89ad98	-0.26890254
212	0x3e5c2a8d	0.21500607
213	0x3e9dd1e4	0.30824196
214	0x3c4b0da1	0.012393386
215	0x3df6bb47	0.12047439
216	0xbdeaa572	-0.114573374
217	0xbd45c35b	-0.04828201
218	0x3e787842	0.24264625
219	0x3e880804	0.26568615
220	0x3e8710f2	0.26380116
221	0x3d29e1ca	0.041475095
222	0xbe860fa8	-0.2618382
223	0xbdbdae14	-0.092617184
224	0xbe86d9c4	-0.26338017
225	0xbb6d934a	-0.0036251121
226	0x3ea19e37	0.3156602
227	0xbe8435f4	-0.25822413
228	0xbda76a9a	-0.081746295
229	0x3e2c305e	0.16815326
230	0x3e6e2ec0	0.23260021
231	0xbe6f7284	-0.23383528
232	0x3d6d8c94	0.057995394
233	0xbe0657ca	-0.13119426
234	0xbdbce32d	-0.09223018
235	0xbe94b9d8	-0.29048038
236	0x3e993473	0.29922828
237	0xbe0000ea	-0.12500349
238	0xbdce392d	-0.10069499
239	0xbea27f72	-0.31737858
240	0x3e422475	0.1895922
241	0x3e0104b8	0.12599456
242	0xbe9d24ce	-0.30692142
243	0x3c19da95	0.009390493
244	0xbea3de63	-0.32005605
245	0x3ddcd87c	0.107834786
246	0x3d1e3335	0.038623054
247	0xbe68e1d1	-0.22742392
248	0x3e1a5d2d	0.15074606
249	0xbd3633d4	-0.04448302
250	0xbe4cac2e	-0.19987556
251	0x3e5049f9	0.20340718
252	0xbe36cc28	-0.17851317
253	0x3e6ee4fd	0.2332954
254	0xbe937e78	-0.28807425
255	0xbd18ea9d	-0.03733312

subnets.1.attn.in_proj_bias f4 [42]
0	0x00000000	0.0
1	0x00000000	0.0
2	0x00000000	0.0
3	0x00000000	0.0
4	0x00000000	0.0
5	0x00000000	0.0
6	0x00000000	0.0
7	0x00000000	0.0
8	0x00000000	0.0
9	0x00000000	0.0
10	0x00000000	0.0
11	0x00000000	0.0
12	0x00000000	0.0
13	0x00000000	0.0
14	0x00000000	0.0
15	0x00000000	0.0
16	0x00000000	0.0
17	0x00000000	0.0
18	0x00000000	0.0
19	0x00000000	0.0
20	0x00000000	0.0
21	0x00000000	0.0
22	0x00000000	0.0
23	0x00000000	0.0
24	0x00000000	0.0
25	0x00000000	0.0
26	0x00000000	0.0
27	0x00000000	0.0
28	0xbd9eedc6	-0.077601954
29	0xbe15fc4d	-0.14647026
30	0xbe24bd38	-0.16087806
31	0xbe67319d	-0.2257752
32	0xbd9ba318	-0.07599467
33	0x3e3f7d29	0.18700089
34	0xbe8eb328	-0.2787106
35	0xbe3f7acd	-0.18699189
36	0xbdc5bf8e	-0.09655677
37	0x3d87e828	0.06636077
38	0xbe99bed2	-0.30028397
39	0xbdefb1ab	-0.11703809
40	0x3e4adfc5	0.19811924
41	0x3e85c312	0.2612539

subnets.1.attn.out_proj.weight f4 [14, 14]
0	0x3ef97198	0.48719478
1	0x3ec229db	0.37922558
2	0xbeaa3e20	-0.33250523
3	0xbdf9f4e9	-0.12204916
4	0x3ed1f74a	0.4100898
5	0xbf1d95c4	-0.6155665
6	0xbd2923d9	-0.041293953
7	0x3e4638f4	0.19357663
8	0x3e947678	0.28996634
9	0xbdf87090	-0.121308446
10	0x3db148a7	0.086564355
11	0x3e7bbb1f	0.245831
12	0xbede30e5	-0.4339668
13	0x3e0ee1e0	0.13953352
14	0xbf282183	-0.65676135
15	0xbf1b20bc	-0.60596824
16	0x3f888752	1.0666296
17	0xbda8ebfb	-0.08248135
18	0xbf5712dc	-0.8401315
19	0x3e9d5e58	0.3073604
20	0x3f1004e7	0.5625748
21	0x3d7fc987	0.06244805
22	0xbe4dc715	-0.20095475
23	0xbd1245c8	-0.03571108
24	0x3e7c6ec1	0.24651624
25	0xbc1fb87c	-0.009748574
26	0xbe15ccf2	-0.14628962
27	0xbe58efc6	-0.21185216
28	0xbec458b2	-0.3834892
29	0x3ce99f06	0.028518211
30	0xbed562ec	-0.41677034
31	0xbd33b3a5	-0.043872494
32	0xbdce5d8e	-0.10076438
33	0x3f41537a	0.75518
34	0xbf4dcd2b	-0.80391186
35	0xbee0cf89	-0.43908337
36	0x3db7b2c9	0.089696474
37	0xbe23cf03	-0.15996937
38	0xbda2d6dd	-0.07951138
39	0x3d2c7b01	0.042109493
40	0x3f4a439b	0.7900941
41	0x3e5ae2b7	0.21375547
42	0x3dbc89f9	0.09206004
43	0xbd898c0d	-0.06716166
44	0xbe7e979b	-0.2486252
45	0x3d9a95aa	0.075480774
46	0x3ec41241	0.38295177
47	0xbf172070	-0.5903387
48	0x3d2dab1e	0.04239952
49	0x3e9f1749	0.31072453
50	0xbcd5fc83	-0.026121384
51	0x3e775842	0.24154761
52	0x3e999682	0.2999764
53	0x3ee6e051	0.45093015
54	0xbeb20678	-0.3477056
55	0xbe02113b	-0.12701885
56	0x3f092a90	0.5358057
57	0x3eafefb4	0.34362566
58	0xbd1f4b7b	-0.038890343
59	0x3e8e1e5d	0.2775754
60	0x3f0f9647	0.5608868
61	0xbeb91d85	-0.36155334
62	0x3e4ba3e9	0.19886746
63	0xbcada71b	-0.021197846
64	0xbd0d9d79	-0.034574006
65	0xbe75993a	-0.23984233
66	0xbe4ce728	-0.20010054
67	0x3ecefc8a	0.40427047
68	0xbef80d0e	-0.4844746
69	0x3eb25b88	0.34835458
70	0x3f232793	0.6373226
71	0x3f249233	0.6428558
72	0xbf541529	-0.8284479
73	0xbdd51a1d	-0.10405371
74	0x3f9e816d	1.2383248
75	0x3e1ea81f	0.1549382
76	0xbedd1453	-0.4317957
77	0xbe63b700	-0.22237778
78	0xbe8c4b3b	-0.27401146
79	0xbeae4e61	-0.34044173
80	0xbeec96c5	-0.46208778
81	0x3f055e0f	0.5209665
82	0xbe90939c	-0.28237617
83	0x3c9fe378	0.019517645
84	0xbe03c445	-0.1286784
85	0x3ef3ddb6	0.4763009
86	0x3f0b029f	0.54300874
87	0x3e4c7b5c	0.19968933
88	0x3ed7c02a	0.42138797
89	0x3e349446	0.17634687
90	0x3f622264	0.88333726
91	0x3d8b2342	0.06793834
92	0x3e2b5f9c	0.16735691
93	0x3e0bb471	0.13643052
94	0xbe13e946	-0.14444456
95	0x3dc25ed9	0.09490747
96	0xbf3668da	-0.7125374
97	0x3ebe0771	0.37115052
98	0xbeca6453	-0.39529666
99	0xbe679fd1	-0.22619559
100	0xbeaa07d3	-0.33209094
101	0x3e24541d	0.16047712
102	0x3e0ed3fc	0.13948053
103	0x3e949bf3	0.2902523
104	0xbf60f3d0	-0.8787203
105	0xbee767b1	-0.45196298
106	0x3ecdd02f	0.40197894
107	0x3e8b9b65	0.27266994
108	0x3e7a3d14	0.24437362
109	0x3e6dc6f8	0.23220432
110	0x3f0a580b	0.5404059
111	0x3decbda8	0.115596116
112	0x3f697c7b	0.9120557
113	0x3e585e05	0.21129616
114	0xbf4984be	-0.78718174
115	0xbe742224	-0.23841149
116	0x3d87cd54	0.0663096
117	0xbfdcb90b	-1.7243971
118	0xbf14400e	-0.5791024
119	0x3f257a1a	0.6463944
120	0x3ea62167	0.3244736
121	0xbee5cd78	-0.44883323
122	0xbdee510e	-0.11636554
123	0xbe9c459c	-0.30521858
124	0xbf030af3	-0.5118858
125	0xbdc12303	-0.09430506
126	0xbf1852c8	-0.59501314
127	0x3cde542b	0.027139744
128	0xbdae0e49	-0.084988184
129	0xbd41efc5	-0.047347803
130	0x3d8f13d6	0.06986205
131	0x3f166f11	0.58763224
132	0xbe925878	-0.2858312
133	0xbeca662e	-0.39531082
134	0xbe940e2f	-0.2891707
135	0x3e2cb381	0.1686535
136	0xbe1b8d0b	-0.15190522
137	0xbe37064d	-0.17873497
138	0x3ed9b9d6	0.42524594
139	0xbd4a00bd	-0.04931711
140	0x3eb50538	0.35355544
141	0x3e95699d	0.2918214
142	0x3cd6c323	0.026216095
143	0x3eb1ebbb	0.3475016
144	0x3e91abe6	0.2845146
145	0xbf2022e3	-0.6255323
146	0x3eb001c5	0.3437635
147	0x3ec81e4e	0.3908562
148	0xbd0c165b	-0.034201007
149	0xbda45c15	-0.08025376
150	0xbdd34616	-0.10316102
151	0x3f0c0195	0.54689914
152	0xbe186a02	-0.14884189
153	0x3ca64a10	0.020298988
154	0xbf5a66d7	-0.8531317
155	0x3e403438	0.1876992
156	0x3e848def	0.25889537
157	0xbea224bf	-0.3166866
158	0xbe759671	-0.2398317
159	0x3f8151bf	1.0103072
160	0xbd59e2ef	-0.053194936
161	0xbe48a5da	-0.19594517
162	0x3f1dc60b	0.61630315
163	0x3eb09cba	0.34494573
164	0xbde5ce47	-0.11220985
165	0xbe3b3a35	-0.18283923
166	0xbd906faa	-0.07052548
167	0x3e3e1d00	0.1856575
168	0xbf54f917	-0.8319258
169	0xbe779333	-0.24177246
170	0x3f719eee	0.9438313
171	0xbdf3575c	-0.11881897
172	0xbf847a87	-1.0349892
173	0x3dbec111	0.09314168
174	0x3f16d000	0.5891113
175	0xbd641621	-0.055685166
176	0x3e211d0f	0.15733741
177	0x3e7bd8a2	0.24594358
178	0xbc45a12b	-0.012062351
179	0xbebd594b	-0.36982188
180	0xbd096899	-0.033547018
181	0x3e26b72a	0.16280809
182	0x3f21c448	0.63190126
183	0x3d08bec5	0.033385057
184	0xbe64f9ab	-0.22360866
185	0xbe1f2e1f	-0.15544938
186	0xbe107ea9	-0.14110817
187	0xbfa23d4e	-1.2674959
188	0x3db520a8	0.08844119
189	0x3eac5955	0.33661905
190	0x3e1e5400	0.15461731
191	0xbd171a80	-0.036890507
192	0x3ea41e2d	0.32054272
193	0x3e756133	0.2396286
194	0xbec8589f	-0.39130113
195	0x3e3e1118	0.18561208

subnets.1.attn.out_proj.bias f4 [14]
0	0xbd6ece3d	-0.058302153
1	0xbe016417	-0.12635837
2	0x3ec8de5e	0.39232153
3	0xbdbc9e15	-0.09209839
4	0xbd857e59	-0.065182395
5	0x3d1da4b7	0.038487162
6	0xbeeb307b	-0.45935425
7	0x3ef00409	0.4687808
8	0xbda9cfea	-0.082916096
9	0x3dc9ade0	0.09847617
10	0x3c3410a4	0.010990296
11	0xbe1f2569	-0.15541615
12	0xbe0dab65	-0.13834913
13	0xbc5791ec	-0.013157349

subnets.1.hidden_layers.0.weight f4 [16, 14]
0	0xbe4f8677	-0.20266138
1	0xbe452568	-0.1925255
2	0x3fb79c02	1.4344485
3	0xbdf9f056	-0.122040436
4	0xbe5b4fcf	-0.21417163
5	0x3de1c185	0.11023239
6	0xbec78a66	-0.38972777
7	0x3ebc6bab	0.36800894
8	0xbd8f00c5	-0.06982569
9	0x3dfed0d8	0.124421775
10	0xbe6ae304	-0.22938162
11	0x3bcc0f3e	0.006227403
12	0xbe23768f	-0.15963195
13	0xbdf55657	-0.11979359
14	0xbe19fbbf	-0.1503744
15	0x3d517b14	0.051142767
16	0x3eee3fd6	0.46533078
17	0x3e8a4c1b	0.2701119
18	0x3e2a5c24	0.16636711
19	0xbe5ef186	-0.21771821
20	0x3dadac49	0.084801264
21	0xbde51ab3	-0.11186733
22	0xbecd97f5	-0.40154997
23	0xbea41022	-0.32043558
24	0x3e7fabf9	0.24967946
25	0xbe046b6c	-0.12931603
26	0x3e6fc415	0.23414643
27	0xbc1d59b1	-0.009603904
28	0x3d97eac0	0.07417822
29	0x3e26b208	0.16278851
30	0xbe123f5d	-0.14281984
31	0xbd158bc4	-0.036510244
32	0x3d1fcc82	0.039013393
33	0xbe2be918	-0.16788137
34	0xbdb1495d	-0.08656571
35	0x3d4fe479	0.050754998
36	0x3e615284	0.22004133
37	0x3e890335	0.2676026
38	0x3d2e0842	0.042488344
39	0x3dc4ccb3	0.09609356
40	0x3e196f5e	0.1498389
41	0xbe8a13a0	-0.26968098
42	0xbf2fe7db	-0.6871316
43	0x3e90525b	0.28187832
44	0xbeba04e0	-0.36331844
45	0xbf2908a7	-0.6602883
46	0xbefb1884	-0.4904214
47	0xbea64e35	-0.32481542
48	0x3e64c5c6	0.2234107
49	0xbf8afa5c	-1.0857654
50	0x3e784d97	0.24248348
51	0x3ef833b5	0.4847695
52	0xbf4c815b	-0.7988488
53	0x3f9e93b2	1.2388823
54	0x3eda2987	0.42609808
55	0xbf578c24	-0.8419821
56	0x3f185053	0.59497565
57	0xbef744f0	-0.48294783
58	0xbec15b4e	-0.37764972
59	0x3e975fe7	0.29565355
60	0x3f01bb22	0.50676167
61	0x3f0602bf	0.5234794
62	0xbe6a7bce	-0.2289879
63	0x3dc84b43	0.0977998
64	0x3f705629	0.9388147
65	0xbf0d58c6	-0.5521358
66	0x3f090fea	0.5353991
67	0xbf0ce674	-0.55039144
68	0xbf0346ed	-0.512801
69	0x3f03820a	0.513703
70	0x3cd6e920	0.02623421
71	0x3dae3b15	0.08507363
72	0xbe0e7302	-0.1391106
73	0xbe59d46c	-0.21272439
74	0x3d09b8b9	0.03362343
75	0x3e2bac81	0.16765024
76	0xbe226ffa	-0.15863028
77	0xbdaec909	-0.08534438
78	0xbe13d55d	-0.1443686
79	0x3d7a1c58	0.061062187
80	0xbbb46cfb	-0.0055061555
81	0x3d92418b	0.071414076
82	0x3d7d4265	0.061830897
83	0x3e1b4c2f	0.1516578
84	0x3e739f1b	0.23791163
85	0x3df3c415	0.11902634
86	0x3dff2683	0.124585174
87	0x3d1cf623	0.03832067
88	0xbe2b4d32	-0.16728666
89	0x3e8bb117	0.27283546
90	0xbde09a22	-0.109668985
91	0xbda20739	-0.07911534
92	0xbe0f1c11	-0.1397555
93	0x3e0e98b9	0.13925447
94	0x3d02c9f4	0.03193088
95	0x3e274a9a	0.16337052
96	0x3c77caeb	0.015124063
97	0xbe00f8ac	-0.12594861
98	0x3ecd18ad	0.4005789
99	0xbf70aabc	-0.9401052
100	0x3f9476b5	1.1598727
101	0x3e55aa36	0.20865712
102	0x3dea2ce4	0.114343435
103	0x3f265cb1	0.64985186
104	0xbf0327f3	-0.5123283
105	0x3cf5183b	0.02991878
106	0x3fd150e2	1.6352808
107	0x3eaaf056	0.33386487
108	0xbeb62a87	-0.3557932
109	0xbdd28b9e	-0.10280536
110	0xbf08cb67	-0.5343537
111	0x3da91175	0.08255283
112	0x3e00ff29	0.12597336
113	0xbec6d595	-0.38834825
114	0x3f7be530	0.9839659
115	0xbe943135	-0.28943792
116	0x3e2852b3	0.16437797
117	0x3e8adce2	0.27121645
118	0xbf11ae3c	-0.56906486
119	0x3f0fc5ca	0.5616118
120	0x3f1b1613	0.6058056
121	0xbe27b1bd	-0.16376396
122	0x3e21aebc	0.15789312
123	0x3d45842a	0.048221745
124	0xbe1382c3	-0.1440535
125	0x3e9c4284	0.30519497
126	0x3d42e76c	0.047583982
127	0x3dadf237	0.084934644
128	0xbf30d77e	-0.69078815
129	0x3ec50b70	0.3848529
130	0xbe800570	-0.25004148
131	0xbe3f4a43	-0.18680672
132	0x3e0eda64	0.13950497
133	0xbf582923	-0.8443777
134	0x3f97f56d	1.1871773
135	0x3dbdfd63	0.09276845
136	0xbe9241cb	-0.2856582
137	0x3f34a7d6	0.705686
138	0x3ea112dd	0.31459704
139	0xbda451ac	-0.0802339
140	0x3e4fa418	0.2027744
141	0xbe4f5b4a	-0.20249668
142	0x3f898b28	1.0745592
143	0x3e88a2ce	0.2668671
144	0x3f07fd6c	0.53121066
145	0x3f17c527	0.59285206
146	0x3e1824a6	0.1485773
147	0x3eedca91	0.46443608
148	0xbf80eae1	-1.0071679
149	0x3e313feb	0.17309539
150	0x3ea884ee	0.32913917
151	0xbde2cf96	-0.1107475
152	0xbee2ef9c	-0.44323432
153	0xbe9d9611	-0.30778554
154	0x3e8b3f85	0.271969
155	0x3e9772fb	0.2957991
156	0xbf87fcec	-1.0624061
157	0xbe3531f5	-0.17694838
158	0x3e3e4ae6	0.18583259
159	0xbea912f1	-0.33022264
160	0x3f91ecf1	1.1400434
161	0xbfba52c7	-1.4556512
162	0x3ef212eb	0.47280058
163	0xbeb19483	-0.34683618
164	0xbeb028f5	-0.34406248
165	0x3f1d67c4	0.6148646
166	0x3f4472f3	0.767379
167	0x3cbd09ed	0.023076022
168	0x3e15bd8d	0.14623089
169	0x3e2ce779	0.16885175
170	0x3cb1f54b	0.02172341
171	0x3e3858d4	0.18002635
172	0xbe5773ea	-0.21040311
173	0xbf220e71	-0.63303286
174	0xbf34aa0c	-0.7057197
175	0x3e88c794	0.26714766
176	0x3f2ae780	0.6675949
177	0xbdcd72f4	-0.10031691
178	0x3e91b0b6	0.28455132
179	0xbed2dbf0	-0.41183424
180	0x3dbbf3c1	0.09177352
181	0x3f200117	0.6250166
182	0x3d791d3c	0.060818896
183	0x3d92a7fc	0.07160947
184	0xbe1fdc95	-0.15611489
185	0xbee2a929	-0.44269684
186	0xbeb57baa	-0.3544591
187	0x3dbba481	0.09162236
188	0xbd49f0d2	-0.04930193
189	0x3c36c150	0.011154488
190	0x3d2a4dae	0.041577987
191	0xbd77efb7	-0.060531344
192	0x3cbd12cf	0.023080258
193	0xbd20975c	-0.039206848
194	0x3e93987c	0.28827274
195	0x3ccf54b4	0.025308944
196	0xbe9249b1	-0.28571847
197	0x3d5d727c	0.05406426
198	0x3e1b18a6	0.15146121
199	0xbe9b519a	-0.30335695
200	0xbd73bd79	-0.059506867
201	0x3dc9f219	0.098606296
202	0xbd956231	-0.07294119
203	0xbe8801e0	-0.2656393
204	0x3de3602f	0.1110233
205	0xbe1aea09	-0.1512834
206	0x3c22c7b4	0.009935308
207	0x3e510eba	0.20415774
208	0xbe15b024	-0.14617974
209	0xbe885d6b	-0.26633772
210	0xbe25c73a	-0.1618928
211	0xbe923669	-0.28557137
212	0xbe18e2fc	-0.14930338
213	0xbe1ef9cf	-0.15524982
214	0xbe88db22	-0.26729685
215	0x3d0cefda	0.034408428
216	0x3f6954ef	0.91145223
217	0xbec9dad9	-0.3942478
218	0xbf1ab32c	-0.60429645
219	0x3dc0b270	0.09409034
220	0xbea8cf2c	-0.3297056
221	0x4022cd11	2.5437663
222	0x3ea5ffca	0.32421714
223	0xbf420643	-0.75790805

subnets.1.hidden_layers.0.bias f4 [16]
0	0x3f0f1cdf	0.5590343
1	0x3ec18fb6	0.37804955
2	0xbe610c55	-0.2197736
3	0xbf1bd94a	-0.6087843
4	0xbd96440b	-0.07337197
5	0xbe3e9312	-0.1861079
6	0xbe8f8a90	-0.28035402
7	0xbe3204c0	-0.17384624
8	0x3e8fcb2b	0.28084692
9	0xbf2b239c	-0.6685121
10	0x3e398b6a	0.18119588
11	0xbf0be3b5	-0.5464433
12	0x3ed09e5e	0.40745825
13	0xbe65baa9	-0.22434486
14	0xbe44d803	-0.19223027
15	0xbdcc74e6	-0.09983234
